notebooks/backbone.pth (torch, 50709 bytes, 9 tensors)

backbone_lstm1.weight_ih_l0 f4 [128, 32]
0	0x3ed3533d	0.41274443
1	0x3daedd8a	0.08538349
2	0x3e79150a	0.24324432
3	0xbefe23ff	-0.49636838
4	0x3ee91fa6	0.45531958
5	0x3e629c39	0.22129907
6	0x3e16c4b5	0.14723475
7	0x3c5bbbac	0.013411444
8	0x3cf4c538	0.029879197
9	0x3ee4b799	0.44671324
10	0x3e34351c	0.17598385
11	0xbedb78e4	-0.4286567
12	0x3e1597e3	0.14608721
13	0x3d154abf	0.036448237
14	0xbf1e20ac	-0.61768603
15	0x3ebf2252	0.37330872
16	0xbea67e0b	-0.32518038
17	0x3d60b550	0.054860413
18	0x3f0c3804	0.54772973
19	0x3f28d192	0.6594478
20	0x3dc4ffe4	0.0961912
21	0xbe24058a	-0.16017738
22	0x3e76585f	0.24057148
23	0x3e20f356	0.15717825
24	0xbf302807	-0.68811077
25	0xbea81f27	-0.32836267
26	0xbe03e59f	-0.12880562
27	0x3f54dbde	0.8314799
28	0xbd858b3a	-0.06520696
29	0x3e8cf3e4	0.27529824
30	0xbdd0e187	-0.10199266
31	0x3e0e2dbc	0.13884634
32	0x3eddae7f	0.43297192
33	0xbf543b6c	-0.8290317
34	0x3e62ffcc	0.22167891
35	0xbed51a5b	-0.4162167
36	0x3d9e7487	0.077370696
37	0xbeb00bdf	-0.34384057
38	0x3ef2c568	0.47416234
39	0xbf39e560	-0.72615623
40	0xbd9adc37	-0.07561534
41	0xbdbb05bd	-0.09131954
42	0xbed09b09	-0.40743282
43	0xbe9abcda	-0.30222207
44	0xbe88f572	-0.2674976
45	0xbdd29253	-0.102818154
46	0xbe5f6f24	-0.2181974
47	0x3f64e500	0.89411926
48	0x3ef349a8	0.47517133
49	0xbef04f03	-0.4693528
50	0x3e586819	0.2113346
51	0x3eb7846f	0.35843226
52	0x3f0240c6	0.50880086
53	0xbec6447d	-0.38724127
54	0xbe9b4a0d	-0.30329934
55	0xbea041b3	-0.31300125
56	0xbe405a5d	-0.18784471
57	0x3ea99851	0.3312402
58	0xbecf7eba	-0.40526372
59	0x3ec72732	0.3889709
60	0x3ecbf143	0.39832506
61	0xbe9a276d	-0.30108204
62	0x3f226bf4	0.63445973
63	0xbddfd2cc	-0.10928878
64	0xbe1bab86	-0.1520215
65	0xbdaf24b4	-0.085519224
66	0xbd0181a3	-0.03161777
67	0x3ebe9445	0.37222496
68	0xbd3f6b09	-0.046732936
69	0x3e96c279	0.29445246
70	0xbe576074	-0.21032888
71	0xbddab133	-0.10678329
72	0xbec878b0	-0.39154577
73	0x3e8c1e07	0.2736666
74	0xbe16a125	-0.1470991
75	0x3e27ef66	0.16399917
76	0x3f39ef47	0.72630733
77	0x3e2b0b98	0.16703641
78	0x3eed4768	0.4634354
79	0xbe121a90	-0.14267945
80	0x3e5c6617	0.21523319
81	0x3d25e9d3	0.040506195
82	0xbce6883f	-0.02814114
83	0xbd9dd8bd	-0.07707355
84	0x3f505d33	0.8139221
85	0x3e3d2f9d	0.18475194
86	0xbd681820	-0.056663632
87	0xbf2e141c	-0.67999434
88	0x3ed58061	0.41699508
89	0xbd85b1b2	-0.06528033
90	0xbd3c6d3d	-0.046002615
91	0xbecd98be	-0.40155596
92	0x3b1a8af4	0.0023581358
93	0xbc775c7d	-0.0150977345
94	0xbe8e0886	-0.27740878
95	0x3d7537a6	0.059867524
96	0xbdf0ddcb	-0.11761054
97	0x3e9e890a	0.30963928
98	0xbccc9c25	-0.0249768
99	0x3e02d71e	0.12777373
100	0x3cf42068	0.029800609
101	0x3b97f0f9	0.0046368805
102	0xbd1862cc	-0.037203595
103	0xbea800b4	-0.32813036
104	0x3ecfb266	0.40565795
105	0x3db7e42f	0.089790694
106	0x3e506da6	0.20354328
107	0x3dc858f3	0.09782591
108	0xbddf0d32	-0.10891189
109	0x3db0f80d	0.08641062
110	0xbe7b6c0f	-0.2455294
111	0xbdccbccc	-0.09996948
112	0xbe8272b8	-0.25478148
113	0x3e8a3c1f	0.26998994
114	0xbdd4869f	-0.103772394
115	0xbdbb6bb1	-0.091514
116	0xbf1f5bdb	-0.62249535
117	0x3d7a1e5b	0.061064105
118	0x3ec7e20e	0.39039654
119	0x3f195cf5	0.59907466
120	0x3dc7aca4	0.097497255
121	0xbe750da3	-0.23930983
122	0x3e9fb0aa	0.3118947
123	0xbd88caa5	-0.066792764
124	0xbefaf701	-0.49016574
125	0xbdf7dbd5	-0.121024765
126	0xbecab619	-0.39592054
127	0x3ea0ddc5	0.31419197
128	0xbe9bf300	-0.30458832
129	0xbe210d5b	-0.15727751
130	0xbe4fcaac	-0.20292157
131	0x3e50824a	0.20362201
132	0xbe84ac5b	-0.25912747
133	0xbd3e63e1	-0.04648197
134	0xbe8da9c1	-0.27668574
135	0x3e175f22	0.14782384
136	0xbeda17d1	-0.42596295
137	0x3eaefa49	0.34175327
138	0xbee3a8cd	-0.44464722
139	0x3ec802ec	0.3906473
140	0x3d581d53	0.05276234
141	0x3e92990b	0.28632388
142	0x3e7f17db	0.24911444
143	0xbe7e05cd	-0.248069
144	0x3e1abe0c	0.1511156
145	0x3d68452d	0.056706596
146	0x3f02213a	0.5083195
147	0xbe0c9d5d	-0.13731904
148	0x3eccdeb6	0.40013665
149	0x3e7d9e9d	0.24767537
150	0xbd9ee869	-0.077591725
151	0xbe1b2c6f	-0.15153669
152	0x3ec44685	0.38335052
153	0x3e42d47c	0.19026369
154	0xbd50e483	-0.050999176
155	0xbe46047c	-0.19337648
156	0xbd1fa4d4	-0.03897555
157	0xbb157e51	-0.0022810886
158	0xbe2386ed	-0.15969439
159	0xbf1fa4b7	-0.6236071
160	0x3e21df04	0.1580773
161	0x3ea697ff	0.3253784
162	0x3d07e133	0.03317375
163	0xbd429179	-0.047502015
164	0x3e56bf2e	0.20971367
165	0xbd0d04cf	-0.034428414
166	0x3da88dfe	0.08230208
167	0x3d85904b	0.06521662
168	0x3e203980	0.15646935
169	0x3d3f4af3	0.046702337
170	0x3d3e32e3	0.046435248
171	0xbe615014	-0.22003204
172	0x3e42b72d	0.19015189
173	0xbe7efc28	-0.24900877
174	0xbe160eda	-0.14654103
175	0xbeb345c4	-0.35014164
176	0xbf449eb7	-0.7680468
177	0x3eea9c9a	0.45822603
178	0x3dc532bd	0.09628818
179	0x3e0f7e16	0.14012942
180	0xbea1f782	-0.31634146
181	0xbe82988f	-0.25507018
182	0x3d3798f4	0.0448236
183	0x3f7257e4	0.9466536
184	0x3e045305	0.12922294
185	0xbe571185	-0.21002777
186	0xbcc46b91	-0.023977073
187	0xbc9ac462	-0.01889247
188	0x3e801e6c	0.2502321
189	0x3ef9b415	0.48770204
190	0xbec8e2da	-0.39235574
191	0x3ea3044c	0.31839216
192	0x3d0247a0	0.03180659
193	0xbf3f71ac	-0.74782825
194	0x3ddf6f7c	0.10909936
195	0x3e5a78b1	0.21335103
196	0xbe9b46a8	-0.30327344
197	0xbd1eab24	-0.03873743
198	0x3d753505	0.059865016
199	0xbf12bfc8	-0.57323885
200	0xbdd97117	-0.10617273
201	0x3c028dd0	0.007968381
202	0x3d3f8bc7	0.04676416
203	0xbd094a6f	-0.03351825
204	0x3d8c9b7a	0.06865592
205	0x3de4aecf	0.111661546
206	0x3d0d2209	0.034456287
207	0x3f62021b	0.8828446
208	0x3d9592f3	0.07303419
209	0xbec9c539	-0.3940828
210	0x3d7474ff	0.05968189
211	0xbd0d3a9c	-0.034479722
212	0x3f0ec011	0.5576182
213	0x3dbe2314	0.09284034
214	0x3e31b4bd	0.17354102
215	0xbe660ebd	-0.2246656
216	0xbddc8dac	-0.10769209
217	0x3ed683e3	0.41897497
218	0x3dbc777a	0.09202476
219	0xbc8529ff	-0.016255377
220	0xbe657afa	-0.22410193
221	0xbeb00e5b	-0.34385952
222	0xbd42a9e6	-0.04752531
223	0xbea16723	-0.31524
224	0x3e80654d	0.25077286
225	0x3d682c04	0.0566826
226	0x3ed016e5	0.40642467
227	0xbe9bffe1	-0.30468658
228	0x3f50a995	0.8150876
229	0x3e4ea1b3	0.20178871
230	0x3e8c6a00	0.27424622
231	0x3e4c6e94	0.19964057
232	0x3ec0ee42	0.37681776
233	0x3ec3b8e7	0.38227007
234	0x3ce733f3	0.028223014
235	0xbf22a4e8	-0.63532877
236	0x3e939dab	0.2883123
237	0x3cebd854	0.028789677
238	0xbf81ce90	-1.0141163
239	0x3cab751f	0.020929871
240	0xbeaed474	-0.34146464
241	0xbdb5de5c	-0.08880302
242	0x3efa2416	0.48855656
243	0x3f72ed80	0.94893646
244	0x3e66e333	0.22547607
245	0x3e560153	0.20898943
246	0x3e574574	0.21022588
247	0x3ec1d851	0.3786035
248	0xbf2050bd	-0.62623197
249	0xbe309d7b	-0.17247574
250	0xbe999dc6	-0.30003184
251	0x3f4ea263	0.8071653
252	0x3de88fc9	0.1135555
253	0x3e6fe511	0.23427226
254	0x3da3f502	0.08005716
255	0xbecc5c70	-0.39914274

backbone_lstm1.weight_hh_l0 f4 [128, 32]
0	0xbdf6a56c	-0.120432705
1	0xbe0f8801	-0.14016725
2	0xbc2ec943	-0.010668102
3	0xbf2423ac	-0.6411693
4	0x3e00d7a8	0.12582266
5	0x3ed1fe48	0.41014314
6	0xbdc614d8	-0.096719444
7	0x3d08e1b7	0.033418383
8	0xbd6c336f	-0.05766624
9	0x3e216552	0.15761307
10	0x3de37e49	0.11108071
11	0x3d0dfe6c	0.034666464
12	0x3e77a298	0.24183118
13	0x3ecad6e7	0.39617082
14	0x3df3b85b	0.119003974
15	0xbda76477	-0.08173459
16	0x3e71beac	0.23607892
17	0x3ec65042	0.38733107
18	0xbe8da10c	-0.27661932
19	0xbe4dba8e	-0.20090696
20	0x3e213303	0.15742116
21	0x3e88b491	0.2670026
22	0xbf21ff18	-0.6327987
23	0xbf4db259	-0.8035026
24	0xbdd5f8ef	-0.10447871
25	0xbe86e704	-0.26348126
26	0xbe997f21	-0.29979804
27	0xbe773e80	-0.24144936
28	0x3d19eb20	0.03757775
29	0x3db0a9b5	0.08626119
30	0xbdf310e0	-0.11868453
31	0x3f1b5708	0.60679674
32	0xbce35ae4	-0.027753301
33	0x3d2e77a9	0.042594586
34	0x3d987417	0.074440174
35	0xbd6e771b	-0.058219057
36	0x3de9bbbf	0.11412763
37	0x3f276830	0.6539335
38	0xbed35373	-0.41274604
39	0x3def1e64	0.116757184
40	0xbe7c4118	-0.24634206
41	0x3e8c0ec4	0.27355015
42	0xbe0aa9d2	-0.13541344
43	0x3e03658d	0.12831707
44	0x3d7e8a24	0.06214346
45	0x3eb09bb5	0.34493795
46	0x3db303e2	0.08740975
47	0x3eb681ea	0.35645992
48	0x3cdfd053	0.027321016
49	0xbf1b1613	-0.6058056
50	0x3e95086b	0.29107985
51	0xbbc4ad16	-0.0060020788
52	0xbd7c9a55	-0.06167062
53	0x3d9b27fb	0.07575985
54	0xbe5e38d0	-0.2170136
55	0xbe7864ec	-0.24257249
56	0xbdf1c978	-0.11806005
57	0x3e7ed869	0.24887241
58	0xbe976999	-0.29572752
59	0xbe8724fc	-0.26395404
60	0x3e352bc0	0.1769247
61	0xbc4f8274	-0.01266538
62	0x3e093d48	0.13402283
63	0x3e800420	0.25003147
64	0x3e9bc555	0.3042399
65	0x3eea3090	0.45740175
66	0xbe8e2c26	-0.27768058
67	0x3bb4e5c2	0.0055205533
68	0xbbd19bf5	-0.0063967654
69	0xbea8c895	-0.32965532
70	0x3e0de624	0.13857323
71	0xbe82ea5b	-0.25569424
72	0x3dc06f75	0.09396259
73	0xbe97c41f	-0.29641816
74	0xbe278532	-0.16359404
75	0xbd994ad4	-0.074849755
76	0xbeee6eee	-0.46569008
77	0xbe10c7a4	-0.14138657
78	0xbeb2fdf0	-0.34959364
79	0xbd226596	-0.03964766
80	0xbe8ecc9a	-0.27890474
81	0xbd9db5e0	-0.077007055
82	0xbca4d550	-0.020121247
83	0xbf47e226	-0.7807945
84	0xbd3494ec	-0.044087335
85	0xbe66a91a	-0.22525445
86	0x3e949a17	0.2902381
87	0x3edaa9ec	0.42707765
88	0xbe74cb7e	-0.23905751
89	0x3e8950bd	0.2681941
90	0x3e6223dc	0.22083992
91	0x3e8d2662	0.27568346
92	0x3d2617b9	0.040549967
93	0xbf271601	-0.6526795
94	0x3e7e30d4	0.24823314
95	0xbe66d18b	-0.22540872
96	0x3c75cc7a	0.015002364
97	0xbf1bf902	-0.6092683
98	0x3f373d3f	0.7157783
99	0xbe09a4a2	-0.13441709
100	0xbe370308	-0.1787225
101	0xbe6fcf57	-0.23418938
102	0xbd835c4e	-0.0641409
103	0x3d45fa6f	0.048334535
104	0x3d51d022	0.05122388
105	0xbe0e7a80	-0.13913918
106	0x3f12186f	0.5706853
107	0xbe5bbf72	-0.2145975
108	0x3f018d02	0.50605786
109	0xbe539995	-0.20664056
110	0x3e94faa7	0.29097483
111	0xbe7b6a22	-0.24552205
112	0x3ed142c4	0.4087125
113	0x3ecfa607	0.40556356
114	0xbeb0da57	-0.3454158
115	0x3e6bd233	0.23029403
116	0x3f0ac5ef	0.5420827
117	0x3ce42d7e	0.027853724
118	0x3e68521f	0.22687577
119	0xbea0bcd1	-0.31394055
120	0xbe634640	-0.22194767
121	0xbf0529f2	-0.5201713
122	0x3dc2bb09	0.095083304
123	0xbd97f59a	-0.07419892
124	0xbe3ed447	-0.18635665
125	0x3f42ca61	0.76090056
126	0xbf329dc1	-0.69771963
127	0xbdccf27b	-0.10007187
128	0x3f124895	0.57142
129	0xbdae4af1	-0.08510388
130	0xbeaf0189	-0.3418086
131	0x3f2a01ab	0.66408795
132	0xbf2b37cc	-0.66882014
133	0xbf098af7	-0.5372767
134	0x3f0420c7	0.51612514
135	0xbeaf1bb2	-0.34200817
136	0x3e9a56ff	0.30144498
137	0xbf22332a	-0.6335932
138	0x3e61b683	0.22042279
139	0xbe3fed96	-0.18742976
140	0xbd48e17d	-0.049043167
141	0xbf17cb4e	-0.59294593
142	0xbf20443e	-0.6260413
143	0xbe711b46	-0.2354556
144	0xbeefa234	-0.4680344
145	0x3d39d1c1	0.045366053
146	0xbe39877c	-0.1811809
147	0xbd50d601	-0.05098534
148	0x3eaa0585	0.33207336
149	0xbeeefe6c	-0.46678483
150	0x3f32cb1f	0.6984119
151	0x3f8131d6	1.0093334
152	0xbdd8afa6	-0.10580377
153	0x3ec0062a	0.37504703
154	0x3ecc5df9	0.39915445
155	0x3db8ab0b	0.09016999
156	0xbf07928c	-0.5295799
157	0xbd859e0f	-0.06524288
158	0xbce464c5	-0.027880082
159	0xbf404a03	-0.7511293
160	0x3db6e466	0.08930282
161	0xbea2ac6c	-0.31772172
162	0x3ed345bd	0.41264144
163	0xbe9aaadc	-0.3020848
164	0xbf89792b	-1.0740103
165	0x3d7693a1	0.060199384
166	0xbd31b3f5	-0.04338451
167	0x3e9e6ee2	0.30943972
168	0x3e052c7b	0.13005249
169	0xbdd2e508	-0.102975905
170	0x3dbd0578	0.09229559
171	0x3d952876	0.07283108
172	0x3ec0fcf8	0.37693
173	0x3e6cdd9b	0.23131411
174	0x3e8eae69	0.2786744
175	0xbd5de457	-0.05417284
176	0x3ed1f977	0.4101064
177	0x3efaae87	0.4896128
178	0xbe92103d	-0.28528014
179	0xbe2d1f98	-0.16906583
180	0xbce57a95	-0.028012553
181	0x3e182fb9	0.14861955
182	0xbe8a22a4	-0.26979554
183	0xbc48b403	-0.012249949
184	0xbe3575b6	-0.17720684
185	0xbeaaa645	-0.3332998
186	0xbe3d708e	-0.18499967
187	0xbc786dce	-0.015162898
188	0x3e11c0a1	0.14233638
189	0x3f09ea50	0.5387316
190	0xbf1cc0d8	-0.61231756
191	0x3d68e8fd	0.05686282
192	0xbe4ca65f	-0.1998534
193	0x3ea72f3c	0.32653224
194	0xbd5bc50a	-0.053654708
195	0x3d97c301	0.07410241
196	0x3e66060c	0.22463244
197	0x3e811828	0.25213742
198	0xbe83ddfb	-0.25755295
199	0x3bf43e97	0.0074537504
200	0x3d58971e	0.05287849
201	0x3ea44fe7	0.3209221
202	0xbeaf5749	-0.3424628
203	0xbf021e74	-0.5082772
204	0x3d6fb2d0	0.05852014
205	0x3ea1a0ae	0.315679
206	0x3e6b2c44	0.22966105
207	0x3eb504b5	0.35355154
208	0x3eb9cf3b	0.36290917
209	0xbf096cb7	-0.5368151
210	0x3e9c1a57	0.30488846
211	0xbd34d300	-0.044146538
212	0x3d8a0fa9	0.06741268
213	0x3e0499fd	0.12949367
214	0xbe006c92	-0.12541416
215	0x3d0db959	0.03460059
216	0x3e60629e	0.2191262
217	0x3f19f966	0.60146177
218	0xbebc0b5c	-0.36727417
219	0xbec574e1	-0.38565734
220	0x3e548be5	0.2075649
221	0xbd2b67cc	-0.041847035
222	0x3e0a863d	0.1352777
223	0x3e0b7f10	0.13622689
224	0xbbeb7a16	-0.0071861846
225	0xbe8f961e	-0.28044218
226	0x3dfd56bc	0.12370059
227	0xbe7f4f34	-0.24932557
228	0xbe09186d	-0.13388224
229	0x3e1185ff	0.14211272
230	0x3d9ebdfc	0.077510804
231	0x3e65a0f6	0.22424683
232	0x3c7d3f12	0.015456932
233	0xbdaebdb1	-0.085322745
234	0xba071c54	-0.00051540625
235	0x3e1a0f2f	0.15044855
236	0x3e113901	0.14181902
237	0x3e33afed	0.17547579
238	0x3ecf5784	0.40496457
239	0xbe68feed	-0.22753496
240	0x3f205d33	0.6264221
241	0x3eded689	0.43523052
242	0xbe84f19e	-0.2596559
243	0x3bcc8054	0.006240884
244	0x3d4a41ab	0.049379032
245	0x3f13af1e	0.5768908
246	0xbe017f9f	-0.1264634
247	0xbf1ee16c	-0.62062716
248	0xbe2d8057	-0.16943489
249	0xbe5f314f	-0.21796153
250	0xbdb55d11	-0.08855642
251	0xbf084203	-0.53225726
252	0x3e8341e9	0.25636223
253	0x3dcf0fb7	0.10110419
254	0xbe97f5f0	-0.29679823
255	0xbe261cc9	-0.16221918

backbone_lstm1.bias_ih_l0 f4 [128]
0	0x3d86be3c	0.06579253
1	0x3f1a4ace	0.6027039
2	0xbdb0cc10	-0.08632672
3	0xbe2810dc	-0.16412681
4	0xbec687fe	-0.3877563
5	0x3d1adae5	0.03780641
6	0xbddc9231	-0.10770071
7	0xbca30807	-0.019901289
8	0xbcdcd17f	-0.026955364
9	0x3e2404d6	0.1601747
10	0x3ed0e183	0.40797052
11	0x3cd1366e	0.02553865
12	0x3de0be20	0.109737635
13	0xbe7d4e07	-0.24736796
14	0xbce12361	-0.02748269
15	0x3e6a437e	0.22877309
16	0x3cc900eb	0.02453657
17	0x3e490023	0.19628958
18	0x3d51b425	0.05119719
19	0x3e0d21b9	0.13782395
20	0xbe092cf2	-0.13396052
21	0xbe820992	-0.25397927
22	0x3d1c282c	0.03812425
23	0xbe624c5f	-0.22099446
24	0x3ea24b3a	0.31698018
25	0x3f1e597a	0.6185528
26	0xbda15580	-0.07877636
27	0x3d806c25	0.06270627
28	0xbdb3bb75	-0.08775989
29	0x3df1e0e4	0.118104726
30	0x3ed14f87	0.40880987
31	0xbada3494	-0.001664775
32	0x3bce2381	0.0062908535
33	0x3e977ff1	0.295898
34	0x3d802d13	0.06258597
35	0x3ccd6613	0.025073087
36	0xbe852e19	-0.26011732
37	0x3e971eea	0.29515773
38	0x3e4ed867	0.20199738
39	0x3e153edf	0.14574765
40	0x3e860190	0.26173067
41	0xbd3a8915	-0.045540888
42	0x3e721dd8	0.23644197
43	0x3e2b7444	0.1674357
44	0x3e80eb35	0.2517945
45	0xb82fb6e0	-4.1893567e-05
46	0xbc58d34f	-0.013233974
47	0x3e89f751	0.269465
48	0x3e0bb227	0.13642178
49	0x3e466eb5	0.19378169
50	0xbcda5338	-0.02665101
51	0x3e73d3a8	0.23811209
52	0xbd4ae5d1	-0.049535576
53	0x3e5ecb7b	0.21757309
54	0x3d69d2d1	0.057085816
55	0x3d457857	0.04821047
56	0x3e3997a5	0.18124254
57	0x3e76920e	0.24079153
58	0x3e7d0661	0.24709465
59	0x3e5694f1	0.20955254
60	0x3e462658	0.19350564
61	0x3dcef7cd	0.10105858
62	0x3e0da84d	0.13833733
63	0xbc8b1dd0	-0.01698199
64	0xbe9c1213	-0.3048254
65	0x3ec1e25f	0.3786802
66	0xbec1fdd6	-0.37888974
67	0xbe6729d7	-0.22574554
68	0x3b96e094	0.0046044085
69	0x3da0e97f	0.07857036
70	0xbe862419	-0.26199415
71	0x3dfc59e1	0.123218305
72	0xbe19acbc	-0.15007299
73	0x3e4fd4ba	0.20295992
74	0xbee4a679	-0.4465826
75	0x3e03f1a3	0.12885146
76	0xbe8c0d71	-0.27354005
77	0xbcd46097	-0.025924964
78	0x3e24f93e	0.16110703
79	0x3e94cb85	0.29061523
80	0x3e094722	0.13406041
81	0xbebc8801	-0.36822513
82	0x3e47d03c	0.19513029
83	0xbe8c1d8b	-0.2736629
84	0xbd3315b3	-0.043721866
85	0x3dc6c19a	0.09704895
86	0xbd009686	-0.03139355
87	0xbe348c54	-0.17631656
88	0x3e80d43f	0.2516193
89	0x3e9ce882	0.3064614
90	0xbd3567b8	-0.044288367
91	0xbdb590ce	-0.0886551
92	0xbe218810	-0.1577456
93	0xbeccdae3	-0.40010747
94	0x3ec92674	0.3928715
95	0x3ca39674	0.019969203
96	0x3e324531	0.17409207
97	0x3e0f5c1d	0.13999982
98	0x3e5b3410	0.21406579
99	0x3e13bfa2	0.14428571
100	0xbe36e242	-0.17859748
101	0xbd3200a9	-0.04345766
102	0x3e086974	0.13321477
103	0xbe1a5765	-0.15072401
104	0x3e6cad3e	0.23112962
105	0xbdaa7f80	-0.083251
106	0xbd1a53be	-0.03767752
107	0x3e96c905	0.2945024
108	0x3e461861	0.19345237
109	0xbd6aa243	-0.05728365
110	0xbc7a7a68	-0.015287973
111	0xbe8def69	-0.27721718
112	0xbe9033cd	-0.2816452
113	0xbea22f35	-0.3167664
114	0xbd2dd01c	-0.042434797
115	0x3efb9450	0.4913659
116	0xbe18e297	-0.14930187
117	0xbe686389	-0.2269422
118	0xbb9100ab	-0.0044251285
119	0xbce1b648	-0.027552739
120	0xbb85c4a3	-0.004082279
121	0xbd299597	-0.041402426
122	0xbc904028	-0.017608717
123	0x3d65ab05	0.0560713
124	0x3d946edf	0.072477095
125	0x3de0332a	0.10947259
126	0x3e27f662	0.16402581
127	0x3e0a0e42	0.13482001

backbone_lstm1.bias_hh_l0 f4 [128]
0	0x3d11080d	0.03540807
1	0x3eae116b	0.33997664
2	0xbe7e562b	-0.24837558
3	0xbe478f91	-0.1948836
4	0xbe5aeb2f	-0.21378778
5	0x3d54054c	0.051762864
6	0x3dbc118a	0.09183033
7	0xbd73fba4	-0.059566155
8	0xbd27176b	-0.040793817
9	0x3e5b8062	0.21435693
10	0x3f0940f4	0.53614736
11	0x3d22333c	0.039599642
12	0xbd8ece5d	-0.069729544
13	0xbd8457c0	-0.064620495
14	0xbdf6852b	-0.120371185
15	0x3e99be3b	0.30027947
16	0xbe5b4637	-0.21413504
17	0x3e637e97	0.22216259
18	0xbda51790	-0.08061135
19	0x3df34754	0.11878839
20	0xbccab5ef	-0.024744956
21	0xbda6317b	-0.081149064
22	0xbd1aedea	-0.03782455
23	0xbe0eea37	-0.13956533
24	0x3eabe4fc	0.3357314
25	0x3ec9102d	0.39270154
26	0xbe8f24ec	-0.27957857
27	0xbb1d01c8	-0.002395736
28	0xbd5929a3	-0.053018223
29	0x3e349724	0.1763578
30	0x3ed50497	0.41605064
31	0xbdccae6e	-0.09994207
32	0x3e640fb4	0.22271615
33	0x3e2a7f14	0.16650039
34	0x3df0d54d	0.11759434
35	0x3e272316	0.16321978
36	0x3d6ae897	0.05735072
37	0x3e8b6d71	0.27231935
38	0x3d7d5ffc	0.061859116
39	0x3cfa22cd	0.030534172
40	0xbc9f6bd0	-0.019460589
41	0x3d2b462b	0.041814964
42	0x3ebab141	0.3646336
43	0x3ec2a85f	0.38019082
44	0xbd13d0e5	-0.03608789
45	0x3db88d4f	0.090113275
46	0x3e96e9f7	0.29475376
47	0x3da6a157	0.08136242
48	0xbce5f21d	-0.02806955
49	0x3ed223cf	0.41042945
50	0xbd33d14a	-0.043900765
51	0x3ea9ae9a	0.33141023
52	0x3e5999ad	0.21250029
53	0x3d948962	0.07252766
54	0x3e8aa097	0.27075645
55	0x3d3a693c	0.045510516
56	0x3e758e5d	0.23980089
57	0x3e6c3427	0.2306677
58	0x3e23896f	0.15970396
59	0x3de45298	0.11148566
60	0x3d76accb	0.060223382
61	0xbdd3f63a	-0.10349698
62	0x3e2ddfad	0.16979857
63	0x3e7129a9	0.23551048
64	0xbe353359	-0.17695369
65	0x3f0abcdc	0.54194427
66	0xbe2f232d	-0.17103262
67	0xbe8d929f	-0.27650926
68	0xbdbbe188	-0.09173876
69	0x3e50ad6e	0.20378658
70	0xbe8ffe94	-0.28123915
71	0x3dddf36a	0.10837443
72	0x3c34dc8f	0.011038913
73	0x3e999e69	0.3000367
74	0xbed91a12	-0.42402703
75	0x3dfd6b50	0.12373984
76	0xbe515e96	-0.20446238
77	0x3d86ae5f	0.065762274
78	0xbcbf09fb	-0.023320189
79	0x3e235277	0.15949427
80	0xbe347f65	-0.17626722
81	0xbdb73381	-0.089453705
82	0x3ea49e37	0.32151958
83	0xbec4e3bf	-0.38455006
84	0x3d725beb	0.05916969
85	0xbdeac531	-0.114633925
86	0xbea47a43	-0.32124528
87	0xbda6c185	-0.0814238
88	0x3e13886b	0.14407508
89	0x3edfd2ad	0.4371542
90	0xbdb8f27b	-0.090306245
91	0xbdcaf7d7	-0.09910553
92	0x3dac17fe	0.08403014
93	0xbe07a95f	-0.13248204
94	0x3e906088	0.28198647
95	0x3e85989d	0.26092997
96	0x3d207879	0.03917739
97	0x3d3e51f8	0.04646489
98	0x3ca0c7a8	0.019626454
99	0x3ddeb4b1	0.10874308
100	0xbe51ec8b	-0.2050039
101	0xbd635a92	-0.055506296
102	0x3e9eff22	0.31054026
103	0xbe8e52cc	-0.27797544
104	0xbd853ed8	-0.06506127
105	0x3d7b04b4	0.061283782
106	0x3e7abbb1	0.24485661
107	0x3e47f81b	0.19528238
108	0x3da6b340	0.08139658
109	0x3e2379df	0.15964459
110	0xbe90cde5	-0.28282085
111	0xbe892d72	-0.26792485
112	0xbe897501	-0.2684708
113	0xbccd9cc2	-0.025099162
114	0x3e5b000e	0.2138674
115	0x3eba2794	0.3635832
116	0xbe9f3199	-0.31092528
117	0xbe1a7e82	-0.15087321
118	0x3e0e9a6a	0.13926092
119	0xbdad0251	-0.084477074
120	0xbe6fe340	-0.23426533
121	0x3db6e951	0.0893122
122	0xbe36e108	-0.1785928
123	0x3df8ddd2	0.12151684
124	0xbde5bde8	-0.11217862
125	0xbcde93e2	-0.027170125
126	0x3c5af65a	0.013364399
127	0x3c61ef30	0.013789937

backbone_lstm2.weight_ih_l0 f4 [64, 32]
0	0x3e18e37b	0.14930527
1	0x3e7fd0f2	0.2498205
2	0xbe549c7e	-0.20762822
3	0x3ec1a841	0.3782368
4	0xbf7f74f6	-0.99787843
5	0xbe5b0865	-0.21389921
6	0x3e7b3a78	0.24534023
7	0xbedfd7e6	-0.43719405
8	0x3e9f534d	0.3111824
9	0xbf118551	-0.5684405
10	0xbdc6f716	-0.09715097
11	0xbd1b8c30	-0.03797549
12	0xbea9676b	-0.33086714
13	0x3eb9f4c3	0.3631955
14	0xbc865f9f	-0.016403018
15	0xbea6fe70	-0.32615995
16	0xbf06c771	-0.52648073
17	0xbcf3af14	-0.02974657
18	0xbec2a75e	-0.38018316
19	0xbe5b5c9f	-0.21422051
20	0x3eafa834	0.34308016
21	0xbe1ded5e	-0.1542258
22	0x3eadf354	0.33974707
23	0x3e2c7483	0.1684132
24	0x3e290df6	0.16509232
25	0xbde5ceaa	-0.11221059
26	0x3eda5fb1	0.42651132
27	0x3e8554f8	0.2604139
28	0xbe9c003c	-0.3046893
29	0x3d941e46	0.07232337
30	0x3e6de7df	0.23232983
31	0xbdf4a7e3	-0.11946084
32	0xbe80f829	-0.2518933
33	0xbda55e3d	-0.08074615
34	0xbe318465	-0.17335661
35	0xbc9cfffa	-0.019165028
36	0x3ce6bc42	0.02816594
37	0xbdcece24	-0.10097912
38	0x3ce41aa1	0.027844729
39	0xbba19899	-0.004931521
40	0x3e13e7ee	0.14443943
41	0x3e5f26fe	0.21792218
42	0xbe5d8f7f	-0.2163677
43	0x3f5702a4	0.83988404
44	0xbe44fb58	-0.19236505
45	0x3d2e4453	0.042545628
46	0x3ea1356e	0.31486076
47	0xbe233dcf	-0.15941547
48	0x3e5d7db7	0.21629988
49	0x3e550d25	0.20805795
50	0xbdef9a0d	-0.11699305
51	0xbe244add	-0.16044183
52	0x3d9e6f29	0.07736046
53	0x3f076f99	0.5290466
54	0xbd6dc7f0	-0.058052003
55	0xbe50201c	-0.20324749
56	0x3cf33fcc	0.029693507
57	0xbde868b4	-0.113480955
58	0x3ce3fe63	0.027831262
59	0xbeae9f2d	-0.34105816
60	0xbe1618f2	-0.14657953
61	0x3da99f7c	0.08282372
62	0xbe5c627f	-0.21521948
63	0x3e696067	0.22790681
64	0xbd320e85	-0.04347088
65	0x3ec046e4	0.37554085
66	0xbe258652	-0.1616452
67	0xbde1acc3	-0.1101928
68	0xbe629853	-0.2212842
69	0x3dbec8b2	0.09315623
70	0x3e5d8f9c	0.21636814
71	0x3da8c4e7	0.08240681
72	0xbf3994bc	-0.72492576
73	0xbdd3fdeb	-0.103511654
74	0xbe708cd2	-0.23491219
75	0xbeb112a8	-0.34584546
76	0x3b98e208	0.004665617
77	0xbe975173	-0.29554328
78	0x3e2aab0d	0.16666813
79	0x3e8fb3e4	0.28066933
80	0xbe07bd32	-0.13255766
81	0xbed5317f	-0.41639325
82	0xbe47330e	-0.1945307
83	0xbe6aebde	-0.22941539
84	0x3eb8a653	0.36064395
85	0x3c43b380	0.011944652
86	0x3ce14ace	0.02750149
87	0xbde410b9	-0.11136002
88	0x3f00180e	0.50036705
89	0x3e60372c	0.21896046
90	0xbf1b9c01	-0.6078492
91	0x3d1186ef	0.035529073
92	0x3eae2a53	0.34016666
93	0xbf0244ee	-0.5088643
94	0x3ddd4da8	0.108058274
95	0x3eab8d99	0.33506468
96	0xbec63b38	-0.38717055
97	0xbe86a3c5	-0.2629682
98	0xbe99cacc	-0.30037534
99	0xbdc7068c	-0.097180456
100	0xbe288c64	-0.16459805
101	0xbe1ffceb	-0.15623824
102	0xbeb2c58d	-0.34916344
103	0x3ea4eba5	0.32211033
104	0x3dde673a	0.10859533
105	0x3dc3018e	0.09521781
106	0x3cfaa68f	0.030597
107	0x3e0e7d38	0.13914955
108	0xbabe413a	-0.0014515289
109	0xbdb76409	-0.08954627
110	0x3f2048b5	0.6261094
111	0xbfa55200	-1.291565
112	0x3e9b9a25	0.3039104
113	0x3edceb8d	0.4314846
114	0xbe85a6dc	-0.26103866
115	0x3e32d6b8	0.17464721
116	0x3ef419e4	0.47676003
117	0x3eca50b4	0.39514697
118	0xbea74b11	-0.3267446
119	0xbf1d28f2	-0.613906
120	0x3e3f5c81	0.18687631
121	0x3d2ec975	0.042672593
122	0xbe730510	-0.237324
123	0x3cb8c6b7	0.022555692
124	0x3dae9052	0.08523621
125	0xbe2689cf	-0.16263507
126	0x3dcfe7e5	0.10151652
127	0xbd7cc3b1	-0.061710063
128	0xbd6fb64e	-0.05852347
129	0x3ddc68d1	0.1076218
130	0xbbc49200	-0.00599885
131	0x3e656e4f	0.2240536
132	0xbeaa447b	-0.3325537
133	0x3c8b322f	0.016991703
134	0xbdae1086	-0.08499245
135	0xbd54db45	-0.051966924
136	0x3b600b32	0.003418636
137	0x3a183545	0.00058062776
138	0xbcf142a3	-0.02945072
139	0x3e4a435f	0.19752263
140	0x3dd9f553	0.10642495
141	0x3eb88947	0.36042234
142	0xbf0b69f2	-0.54458535
143	0x3e0fead3	0.14054422
144	0xbdcd9eed	-0.10040078
145	0x3dad0d8a	0.08449848
146	0x3e7dd14f	0.24786876
147	0x3e3828f6	0.17984375
148	0xbde7632d	-0.11298213
149	0xbccd8e88	-0.025092378
150	0x3e272ea1	0.16326381
151	0x3e787413	0.24263029
152	0x3e97722b	0.2957929
153	0xbe35290a	-0.17691436
154	0xbd2a9f4b	-0.04165582
155	0xbd88512d	-0.06656108
156	0x3d36ac3f	0.04459786
157	0x3d5d38b7	0.054009166
158	0x3e2acf2f	0.16680597
159	0x3e2cde14	0.16881591
160	0x3e940373	0.28908882
161	0xbe639fd4	-0.22228938
162	0xbe4fb7eb	-0.20285003
163	0x3e30f8f5	0.1728247
164	0xbf134a79	-0.5753551
165	0xbdbb2bab	-0.091391884
166	0x3e75a512	0.2398875
167	0xbdfc4d9e	-0.12319492
168	0x3e059189	0.13043799
169	0xbe126331	-0.14295651
170	0x3e272db1	0.16326024
171	0x3cf874cc	0.03032913
172	0xbdd9569e	-0.10612224
173	0xbd1f679c	-0.03891717
174	0xbe1c6712	-0.15273693
175	0x3e36db39	0.17857064
176	0xbe3fa9a6	-0.1871706
177	0x3e1ead81	0.15495874
178	0x3e5f7ac7	0.2182418
179	0xbe295d1a	-0.16539422
180	0x3d6d83f5	0.057987172
181	0x3c88cd49	0.01669945
182	0xbdcd020b	-0.10010155
183	0xbebfd609	-0.37467983
184	0x3e237a9c	0.1596474
185	0xbc94ea9a	-0.018178273
186	0x3e166230	0.14685893
187	0xbe20ef6d	-0.15716334
188	0xbe1e38f3	-0.15451412
189	0xbe437c2f	-0.19090341
190	0xbdd71e80	-0.10503864
191	0x3dd86ccd	0.10567627
192	0x3d4ac875	0.049507577
193	0xbdd5cc98	-0.10439414
194	0xbe15aaa0	-0.1461587
195	0x3be92553	0.007115045
196	0xbeba8be9	-0.36434868
197	0xbe69ad21	-0.2281995
198	0xbdfb473b	-0.122694455
199	0x3e18fe39	0.14940728
200	0xbe59353a	-0.2121171
201	0xbe00c40d	-0.12574787
202	0x3d9183d4	0.07105222
203	0x3e59d1e8	0.21271479
204	0x3eab948c	0.3351177
205	0xbf25563c	-0.6458471
206	0xbd42a76d	-0.04752295
207	0x3cf871f5	0.030327776
208	0x3c6f4b07	0.01460529
209	0x3d514f73	0.05110116
210	0x3d3f6407	0.046726253
211	0x3d27e099	0.040985677
212	0x3eb0f866	0.34564513
213	0xbbb95a1f	-0.005656495
214	0x3dff4c57	0.124657325
215	0xbe69de0e	-0.22838613
216	0x3e778ca1	0.2417474
217	0xbda32dd8	-0.079677284
218	0x3dbd1e15	0.09234253
219	0xbd95afa1	-0.07308889
220	0x3c6e6403	0.014550212
221	0x3e21b8c0	0.15793133
222	0x3c49046f	0.012269123
223	0x3e8500cc	0.2597717
224	0xbd9f56ba	-0.07780214
225	0x3d4752d4	0.048662975
226	0x3cf3e444	0.029771931
227	0xbc91dc96	-0.017805379
228	0xbf46238b	-0.77397984
229	0xbe9877a1	-0.2977877
230	0xbc29e785	-0.01037014
231	0xbe05388b	-0.1300985
232	0x3e3b4d95	0.18291314
233	0xbeeda49c	-0.4641465
234	0xbe0f36c3	-0.13985734
235	0xbe95ddab	-0.29270682
236	0x3e642ee8	0.22283518
237	0xbf6abd2c	-0.91694903
238	0xbe6d5afb	-0.23179238
239	0x3e88efa6	0.26745337
240	0xbeb76a1f	-0.3582315
241	0x3e5dc954	0.21658832
242	0xbdfa5eac	-0.122250885
243	0xbe2be042	-0.16784766
244	0x3e8019f5	0.25019804
245	0xbd32c7d4	-0.043647602
246	0xbd1cd8ea	-0.038292803
247	0x3efd944e	0.4952721
248	0xbe0d3b7a	-0.1379222
249	0xbe8fbea5	-0.28075138
250	0xbdc12611	-0.09431089
251	0x3d5bd79a	0.05367241
252	0xbe34eeab	-0.1766917
253	0x3eaa394b	0.33246836
254	0xbe4fb955	-0.20285542
255	0xbdadb23e	-0.084812626

backbone_lstm2.weight_hh_l0 f4 [64, 16]
0	0xbe8eccb9	-0.27890566
1	0x3e9cf8a7	0.30658457
2	0x3e2b05ae	0.16701385
3	0xbedde85f	-0.43341348
4	0x3e1aaf84	0.15106016
5	0xbe7d9ab7	-0.2476605
6	0x3de21a5e	0.110401854
7	0xbe4623ec	-0.1934964
8	0xbc9ca5b8	-0.01912199
9	0x3dc9933a	0.09842534
10	0xbed4b860	-0.41546917
11	0xbe290210	-0.16504693
12	0x3df6dd9a	0.12053986
13	0x3e77eaf7	0.24210726
14	0xbdb645b2	-0.08900012
15	0x3e8ae3fa	0.27127057
16	0x3e8665b7	0.26249477
17	0xbdb6631d	-0.08905623
18	0x3e047a6e	0.12937328
19	0x3b9d185e	0.0047941646
20	0xbf086374	-0.53276753
21	0xbd8f5da9	-0.07000286
22	0xbdd2e605	-0.10297779
23	0xbd02750c	-0.031849906
24	0x3dab3cf8	0.08361238
25	0x3d2b19fa	0.04177282
26	0xbe019ebb	-0.12658207
27	0x3debd23d	0.11514709
28	0x3ebaa935	0.3645722
29	0x3d118841	0.035530332
30	0xbc5ed909	-0.01360155
31	0xbe8feedd	-0.28111926
32	0x3cbf58a2	0.023357693
33	0xbdd1fb79	-0.10253043
34	0xbcef2021	-0.029190125
35	0x3c80b408	0.015710846
36	0x3eb070b4	0.34460986
37	0x3e160da4	0.14653641
38	0x3d6d42fd	0.057925213
39	0xbdab6265	-0.08368377
40	0xbbe4d988	-0.0069839396
41	0xbed93a8c	-0.4242748
42	0x3c9302a0	0.017945588
43	0xbd9436f6	-0.072370455
44	0x3dd557ad	0.104171135
45	0xbec85c43	-0.3913289
46	0xbd254004	-0.040344253
47	0xbddda27f	-0.10822009
48	0x3e7ee8be	0.24893472
49	0xbe7a98bc	-0.24472326
50	0x3c2449c4	0.010027353
51	0xbe5fb902	-0.21847919
52	0xbe25e159	-0.16199245
53	0xbdecb2d6	-0.11557548
54	0x3db7cb92	0.08974375
55	0x3eef322e	0.46717972
56	0x3d89e9f2	0.06734075
57	0xbd9c10f1	-0.07620419
58	0xbe22dfd7	-0.159057
59	0xbdff34ce	-0.124612436
60	0x3e74ba71	0.23899247
61	0xbe2b0170	-0.16699767
62	0xbe1eda0b	-0.15512864
63	0xbd5c6d4d	-0.053815175
64	0xbe2ead47	-0.17058288
65	0x3e91b27a	0.2845648
66	0xbe297bea	-0.16551176
67	0xbde9de0e	-0.11419307
68	0x3d85c06a	0.06530841
69	0xbe960b77	-0.29305622
70	0xbe0ad3a3	-0.13557296
71	0x3db01bd8	0.08599061
72	0xbdf8d187	-0.12149339
73	0xbe2dbb82	-0.1696606
74	0x3e1b1c2d	0.15147467
75	0x3ce194bc	0.027536742
76	0x3e922170	0.28541136
77	0xbdf31712	-0.11869635
78	0x3e277ce2	0.16356233
79	0x3e77b002	0.24188235
80	0xbe5f6155	-0.21814473
81	0x3e9c0fec	0.30480897
82	0xbc6a62e9	-0.014305809
83	0x3d3d5cc5	0.04623105
84	0xbdb78561	-0.08960987
85	0xbe0e83d5	-0.13917477
86	0x3eb86739	0.36016253
87	0xbdddf376	-0.10837452
88	0x3e8794e4	0.26480782
89	0x3e9414fe	0.28922266
90	0x3e407be9	0.18797268
91	0x3e182888	0.14859211
92	0x3d0b6374	0.034030393
93	0x3ef2fd81	0.47459033
94	0xbcbc7770	-0.023006171
95	0xbce4e9dc	-0.027943544
96	0x3ecb07a3	0.39654264
97	0xbea30f51	-0.31847623
98	0xbea01484	-0.31265652
99	0xbe7249b5	-0.2366093
100	0x3e34a53e	0.1764116
101	0x3e240e02	0.16020969
102	0xbe527057	-0.20550667
103	0x3de9199e	0.11381839
104	0xbd02b76d	-0.03191321
105	0xbc148cf6	-0.009066811
106	0x3c256487	0.010094768
107	0x3e83c519	0.2573631
108	0x3eb908f1	0.36139634
109	0xbd29a382	-0.0414157
110	0x3e262528	0.16225111
111	0xbe86a6d5	-0.26299158
112	0xbe7170c5	-0.23578174
113	0x3e87ad46	0.26499385
114	0xbc0046b1	-0.007829354
115	0xbda5681d	-0.08076499
116	0x3d2bebd3	0.041972946
117	0xbe76c386	-0.24098024
118	0x3e8a829e	0.27052778
119	0xbead7bc9	-0.33883503
120	0x3d94db7d	0.072684266
121	0x3d2a05b7	0.041509356
122	0x3c81830a	0.015809555
123	0x3dc0f12e	0.094210014
124	0x3e9ae1e0	0.30250454
125	0x3dd125d9	0.10212297
126	0x3dbfcbb7	0.093650274
127	0xbc560988	-0.013063796
128	0x3dc4e11a	0.09613247
129	0xbe77d929	-0.24203934
130	0xbe95302e	-0.2913832
131	0xbdf60178	-0.12011999
132	0x3e926b96	0.28597707
133	0x3e94076e	0.28911918
134	0xbe52f580	-0.20601463
135	0x3eda51bc	0.42640483
136	0x3e51ef40	0.20501423
137	0xbe36d9b5	-0.17856486
138	0x3bb9a661	0.005665586
139	0xbdfa4cdf	-0.12221693
140	0x3e2ec2b8	0.17066467
141	0xbe00f73e	-0.12594315
142	0xbd6076fc	-0.054800972
143	0xbdf7c1eb	-0.12097534
144	0x3e5e6962	0.21719888
145	0xbc8184f4	-0.015810467
146	0x3d9e5013	0.07730117
147	0x3e7d2cf2	0.24724177
148	0x3e008397	0.12550198
149	0xbc7d3b8a	-0.01545609
150	0xbdb66c42	-0.08907367
151	0x3e62e871	0.22158982
152	0x3e28a698	0.164698
153	0xbe683331	-0.22675778
154	0x3e8e4bdb	0.27792248
155	0x3cec9f12	0.028884444
156	0xbd7459c1	-0.05965591
157	0x3cb2edaa	0.021841843
158	0xbe97445a	-0.29544336
159	0xbd83b89b	-0.06431695
160	0x3e976d00	0.29575348
161	0xbe143b8f	-0.14475845
162	0xbee100ed	-0.4394602
163	0x3e63ea55	0.2225736
164	0x3e0d8048	0.13818467
165	0x3ed5c504	0.41751873
166	0x3e38cb4e	0.18046305
167	0xbcce5fb3	-0.025192117
168	0x3dacf83b	0.08445784
169	0xbebfd96d	-0.3747057
170	0x3e2e0fe7	0.16998254
171	0x3bc97645	0.006148132
172	0xbdfc55b5	-0.12321035
173	0xbcc25862	-0.023723785
174	0xbe0d9a12	-0.13828304
175	0xbea46c15	-0.3211371
176	0x3e46e8f6	0.19424805
177	0xbe3db97a	-0.18527785
178	0xbc87d413	-0.016580617
179	0xbdc4b734	-0.09605256
180	0x3e230e8f	0.15923522
181	0xbd2fc4ea	-0.0429124
182	0xbe5407dd	-0.20706125
183	0x3e5a4482	0.21315196
184	0x3cebe63f	0.028796313
185	0xbe8494b4	-0.258947
186	0xbe2a1c6d	-0.16612406
187	0x3d99bb38	0.07506412
188	0x3e71d1ef	0.2361524
189	0xbd08f118	-0.03343305
190	0x3dfc5366	0.123205945
191	0x3d8686a9	0.06568653
192	0xbe165a0d	-0.14682789
193	0x3ea718f5	0.32636228
194	0xbdc295b3	-0.09501209
195	0xbe60038e	-0.21876356
196	0x3e5d3a52	0.21604279
197	0x3cbc3726	0.022975516
198	0x3c8d8ab4	0.017278053
199	0x3d6f1c51	0.058376614
200	0xbd96cdb0	-0.073634505
201	0xbdf764e8	-0.12079793
202	0xbe9df946	-0.30854243
203	0x3e061193	0.13092642
204	0xbd55be4b	-0.05218343
205	0x3ec925a4	0.3928653
206	0xb94db868	-0.0001961902
207	0x3cde1dc1	0.027113797
208	0x3d1ab1d7	0.037767258
209	0x3eca1e3a	0.39476186
210	0xbdd752fb	-0.10513874
211	0xbee03fb9	-0.43798617
212	0x3e965ace	0.29366153
213	0x3e27b031	0.16375805
214	0x3eba9f1f	0.36449525
215	0x3e1d4115	0.15356858
216	0xbe80da6e	-0.2516665
217	0x3e35ecf5	0.17766173
218	0xbec206bb	-0.3789576
219	0x3e3997c6	0.18124303
220	0x3eaf2028	0.3420422
221	0x3f5d895b	0.8653771
222	0xbc8e5f2f	-0.017379371
223	0x3e6d9f55	0.23205312
224	0xbe3a66f8	-0.18203342
225	0x3e8c5999	0.27412108
226	0x3e18b5c2	0.14913085
227	0xbe934d4e	-0.28769916
228	0x3da24ba5	0.07924584
229	0xbdf51883	-0.11967566
230	0x3de162e9	0.11005194
231	0xbee7cee8	-0.45275044
232	0x3dbb1bdf	0.09136175
233	0x3d9bc466	0.076058194
234	0xbe10943d	-0.14119048
235	0xbe0a2d50	-0.13493848
236	0x3b15afec	0.0022840453
237	0x3e11a78c	0.1422407
238	0x3e328219	0.17432441
239	0x3ea3d5a5	0.31998935
240	0x3f9db1b3	1.2319854
241	0xbe6da549	-0.23207583
242	0xbe6c54db	-0.23079245
243	0x3d8150b3	0.0631422
244	0x3ebad452	0.36490113
245	0x3ea15ef0	0.31517744
246	0x3e917f77	0.2841756
247	0x3d866421	0.06562067
248	0xbe17665e	-0.14785144
249	0x3e86e6df	0.26348016
250	0x3e8aa3f9	0.27078226
251	0x3d004023	0.031311166
252	0xbd05891e	-0.03260147
253	0xbf894375	-1.0723711
254	0xbe3fdce3	-0.18736605
255	0xbc8b6a1b	-0.017018368

backbone_lstm2.bias_ih_l0 f4 [64]
0	0xbecccc9a	-0.3999985
1	0xba30d8c0	-0.00067461655
2	0x3e9f282e	0.31085342
3	0xbc965da0	-0.01835519
4	0x3aeb795a	0.0017965243
5	0xbe15ac14	-0.14616424
6	0x3dde2e74	0.10848704
7	0xbd33a1a8	-0.04385534
8	0x3e792acd	0.24332733
9	0x3e1d66ec	0.15371293
10	0x3e9415a6	0.28922766
11	0x3e375d0b	0.17906587
12	0xbeec3956	-0.46137494
13	0xbe95c472	-0.29251438
14	0xbe8ba406	-0.27273577
15	0xbe1843ed	-0.14869662
16	0x3ebb28f4	0.36554682
17	0xbda28dbb	-0.07937189
18	0x3e8604af	0.26175448
19	0xbd024568	-0.031804472
20	0xbed5dced	-0.41770115
21	0x3c13d84e	0.009023739
22	0xbe145917	-0.1448711
23	0xbe24bc2f	-0.16087411
24	0xbd0b57c4	-0.034019247
25	0x3e8357f9	0.25653055
26	0x3e8708ef	0.26374003
27	0xbdf4bea8	-0.11950427
28	0x3e122df0	0.14275336
29	0x3eb3e0fd	0.3513259
30	0x3e23db88	0.16001713
31	0xbe53b26f	-0.20673536
32	0xbdfce163	-0.123476766
33	0xbd253ba4	-0.04034008
34	0xbe25585a	-0.16146985
35	0xbdb198ec	-0.08671746
36	0x3da0e17e	0.07855509
37	0xbe8d1bf0	-0.27560377
38	0x3c9f109a	0.019417096
39	0xbdd455b9	-0.10367913
40	0x3e04a2df	0.12952755
41	0xbe154cfe	-0.14580151
42	0x3ea8821a	0.3291176
43	0xbddb4547	-0.10706573
44	0xbeab588a	-0.33465987
45	0xbea75c50	-0.32687616
46	0xbdc53e23	-0.09630992
47	0xbc2920f4	-0.010322798
48	0x3e7bd47d	0.24592777
49	0xbf290a5a	-0.6603142
50	0xbe9fd868	-0.31219792
51	0xbe5100b6	-0.20410427
52	0xbe2ca1c1	-0.16858579
53	0xbe50b829	-0.20382752
54	0xbdf8a8bc	-0.121415585
55	0x3e1c1c40	0.15245152
56	0xbedb430b	-0.42824587
57	0xbe68b339	-0.22724618
58	0xbecc5162	-0.3990584
59	0xbd95dcd4	-0.0731751
60	0x3d91b573	0.07114687
61	0x3ec231e0	0.37928677
62	0x3e66d01a	0.22540322
63	0xbd32b713	-0.043631624

backbone_lstm2.bias_hh_l0 f4 [64]
0	0xbebef423	-0.37295637
1	0xbb0e83b6	-0.0021745986
2	0x3e17dca7	0.14830266
3	0xbb47aed9	-0.0030469208
4	0xbb2771fa	-0.0025550113
5	0xbd508158	-0.0509046
6	0x3d6261ec	0.055269167
7	0xbe92929f	-0.28627488
8	0x3e913d38	0.2836702
9	0xbdbecc13	-0.09316268
10	0x3eb2a6c0	0.34892845
11	0xbd528ed6	-0.05140575
12	0xbec00b17	-0.3750846
13	0xbe53bc8c	-0.20677394
14	0xbe902701	-0.28154758
15	0x3bd2429b	0.0064166314
16	0x3efb83c4	0.49123967
17	0x3d8b630c	0.06806001
18	0x3ebf03b0	0.373075
19	0xbd275ab4	-0.040857986
20	0xbe272b3c	-0.16325086
21	0xbe8e604d	-0.27807847
22	0xbecee24f	-0.40407035
23	0xbdefe918	-0.11714381
24	0x3e9be21e	0.3044595
25	0x3ec85bba	0.39132482
26	0x3ee55d73	0.4479786
27	0xbd7574e9	-0.059925947
28	0x3ebe8353	0.37209567
29	0x3ed1076c	0.40825975
30	0xbe6273f6	-0.22114548
31	0xbe7d71bf	-0.24750422
32	0xbe1c66fd	-0.15273662
33	0x3bcabcdc	0.0061870646
34	0x3e5f3b2e	0.21799919
35	0xbec7a404	-0.38992321
36	0x3d4591cc	0.048234746
37	0xbcd84fe9	-0.026405292
38	0x3e919c93	0.2843977
39	0x3e424b30	0.18973994
40	0xbd66ca1a	-0.056345083
41	0xbddcce30	-0.10781515
42	0x3db9c573	0.090708636
43	0xbe1892c4	-0.14899737
44	0xbea05240	-0.31312752
45	0xbd86e533	-0.06586685
46	0x3d56bafe	0.052424423
47	0xbe0dd18e	-0.1384947
48	0x3eb51247	0.35365507
49	0xbf42bd0d	-0.7606972
50	0xbeebadd0	-0.46031046
51	0xbe436d67	-0.19084702
52	0x3db95d3a	0.09050985
53	0xbe1fed5a	-0.15617886
54	0xbe9a3cd7	-0.30124542
55	0x3dfb3e7c	0.12267777
56	0xbee2705e	-0.44226354
57	0xbe4d7b8e	-0.20066664
58	0xbf0dc5c4	-0.5537989
59	0xbe54e613	-0.20790891
60	0x3df93110	0.12167561
61	0x3e823d66	0.25437468
62	0x3e45cd54	0.19316608
63	0xbe591068	-0.21197665

fc.weight f4 [1, 16]
0	0x406bb513	3.682927
1	0xc055c156	-3.3399253
2	0xc0514815	-3.2700245
3	0x40582b37	3.3776376
4	0xc0668b40	-3.6022491
5	0x4059a1d9	3.4005034
6	0xc05c6ea1	-3.4442523
7	0x40613d51	3.5193675
8	0x404e83cb	3.226794
9	0xc04b0763	-3.1723258
10	0x40598d49	3.3992484
11	0x40604742	3.5043492
12	0x406861ca	3.6309686
13	0xc0643b6e	-3.5661273
14	0xc06d5987	-3.7085893
15	0xc04f04d6	-3.2346702
