notebooks/cnn_lstm_backbone.pth (torch, 116569 bytes, 7 tensors)

conv1.weight f4 [32, 32, 3]
0.6799683 0.6704237 0.4778932 0.38599908 0.40975 0.46470603 -0.22448686 -0.13733292
-0.46925718 -0.3738254 -0.43260014 -0.31330466 -0.24687457 -0.3816051 0.12401956 -0.08342174
-0.00935184 0.040362213 -0.033074748 -0.08347922 0.07640212 -0.052354712 -0.14417607 0.024091939
-0.23059848 -0.3275551 0.02420044 0.15983473 0.09747453 0.08227086 -0.15220466 -0.02869112
0.08305561 0.30246392 0.2517832 0.08105757 0.2570222 0.14005925 0.105732664 0.5565362
0.644899 0.40381965 0.049588494 0.1817733 -0.15912896 -0.031732857 -0.117934264 0.011335233
0.080895305 0.12576246 -0.032782838 0.005428727 -0.014370053 0.012988435 0.6086262 0.4278088
0.38760576 0.0144303655 0.095120125 -0.22618747 0.03779434 0.053203695 -0.1402013 0.002704301
-0.08264895 -0.2487532 -0.29223722 -0.2289028 -0.36840662 0.24185622 0.34070757 0.23498483
-0.1154327 -0.07368222 -0.057875454 -0.07288992 0.053224754 0.06114537 0.09842238 0.06332781
0.033933535 -0.10234692 -0.07102091 0.021737497 -0.2953779 -0.23153137 -0.22174501 -0.26307118
-0.1941492 -0.16253082 0.12787507 0.11217054 0.1588924 0.017270764 -0.039325498 -0.10433561
-0.10890065 -0.28171894 -0.21422878 -0.16369219 -0.16746134 -0.16961098 -0.21322662 -0.14348063
-0.29212895 0.23900934 0.08344089 0.09438189 0.52109563 0.4600797 0.46420354 0.049917012
0.13862552 0.047888234 -0.027323563 0.09314068 -0.017325435 -0.4016074 -0.5508125 -0.47446227
-0.0607405 0.14581965 0.050019477 0.32973677 0.16544914 0.20073281 -0.12779054 -0.023000708
0.020949148 -0.37251472 -0.27762267 -0.16438991 0.019453332 0.037730258 0.15315682 0.033826705
-0.15284637 -0.089179315 0.16095278 0.12912112 0.24533513 -0.5984985 -0.62813276 -0.7162534
0.00986191 0.08207289 0.02013106 -0.09089823 -0.12001551 -0.09419942 -0.8826498 -0.944862
-0.90114635 0.028857252 0.025700789 0.10271211 0.038511652 -0.11339562 0.02413743 -0.27580473
-0.18471487 -0.13718976 0.09655007 0.117197104 0.2009305 -0.49378708 -0.48982465 -0.44059664
-0.58374447 -0.6364836 -0.6520168 -0.1840042 -0.020721668 -0.053945187 0.11903009 -0.007233569
0.060351588 0.12298686 0.13935047 0.027047357 -0.23189244 -0.18507451 -0.33959925 -0.3450403
-0.38530472 -0.3377065 -0.21848178 -0.08375333 -0.1211348 -0.021900892 -0.009938543 0.0065282714
0.016875198 0.15226336 -0.04701266 0.55739176 0.4228659 0.7697949 0.06585329 0.11098798
-0.1423577 -0.2065076 -0.3200392 0.061803363 -0.41649154 -0.45748085 0.064687625 0.04289939
0.06600856 0.27359867 0.017053045 0.02115322 0.09196596 -0.0293381 0.037748016 0.050238773
0.1582841 0.12123824 0.07290452 -0.20185104 -0.057252925 -0.21062821 -0.10548129 -0.1370424
-0.10576491 0.39526138 0.32181963 0.05376735 0.049342103 0.046013813 -0.07787034 -0.061358314
-0.12390106 -0.041453518 0.18574706 0.20930575 0.17707507 0.15352094 0.118919045 -0.013976654
0.17325692 0.059986852 -0.08501664 -0.21966708 -0.19291778 0.0019061104 0.579445 0.5410832
0.15345345 0.17315798 0.10159187 -0.058273524 0.0012515327 0.17576957 -0.0005356182 -0.07511752
00000000: 6712 2e3f e3a0 2b3f 6bae f43e aca1 c53e
00000010: c1ca d13e f3ed ed3e e2df 65be 00a1 0cbe
00000020: 7a42 f0be 0b66 bfbe c47d ddbe 7869 a0be
00000030: b0cc 7cbe be61 c3be f8fd fd3d 04d9 aabd
00000040: 7638 19bc d952 253d 6379 07bd 27f7 aabd
00000050: b778 9c3d e571 56bd e4a2 13be 755c c53c
00000060: 0222 6cbe 4db5 a7be 0040 c63c b7ab 233e
00000070: baa0 c73d a07d a83d 8adb 1bbe a409 ebbc
00000080: 0f19 aa3d 8ddc 9a3e bae9 803e 8301 a63d
00000090: 6a98 833e b16b 0f3e 5e8a d83d 2879 0e3f
000000a0: 1a18 253f 73c1 ce3e 4e1d 4b3d c822 3a3e
000000b0: b4f2 22be 50fa 01bd 8587 f1bd 6ab7 393c
000000c0: 70ac a53d e0c7 003e 4c47 06bd 76e3 b13b
000000d0: 5f70 6bbc 72cd 543c edce 1b3f c109 db3e
000000e0: 4374 c63e 576d 6c3c 57ce c23d b09d 67be
000000f0: 3dce 1a3d 1eec 593d ee90 0fbe a43a 313b
00000100: da43 a9bd 29b9 7ebe 1ea0 95be 7f65 6abe
00000110: cb9f bcbe 28a9 773e 3971 ae3e dd9f 703e
00000120: fb67 ecbd b4e6 96bd d00e 6dbd 4f47 95bd
00000130: 3302 5a3d 9173 7a3d ac91 c93d 03b2 813d
00000140: e4fd 0a3d 439b d1bd 6973 91bd d612 b23c
00000150: c63b 97be 8f16 6dbe 2011 63be 44b1 86be
00000160: 0ccf 46be 7b6e 26be aff1 023e abb9 e53d
00000170: b0b4 223e 6b7b 8d3c c613 21bd e9ad d5bd
00000180: 4e07 dfbd 773d 90be ca5e 5bbe ed9e 27be
00000190: fc7a 2bbe 80ae 2dbe 1458 5abe 96ec 12be
000001a0: ed91 95be ddbe 743e 0fe3 aa3d 4b4b c13d
000001b0: 8666 053f 918f eb3e 16ac ed3e c875 4c3d
000001c0: d9f3 0d3e 7426 443d aad5 dfbc 8ac0 be3d
000001d0: 12ee 8dbc 7c9f cdbe 0c02 0dbf b8ec f2be
000001e0: 08cb 78bd bf51 153e 39e1 4c3d 42d3 a83e
000001f0: 806b 293e e78c 4d3e 86db 02be fb6b bcbc
00000200: 8c9d ab3c 40ba bebe 8f24 8ebe d455 28be
00000210: 985c 9f3c 0b8b 1a3d 24d5 1c3e df8d 0a3d
00000220: c283 1cbe a5a3 b6bd ced0 243e 5438 043e
00000230: 2239 7b3e 3337 19bf 4fcd 20bf 625c 37bf
00000240: d993 213c d515 a83d e5e9 a43c da28 babd
00000250: b1ca f5bd a0eb c0bd 56f5 61bf 7ae2 71bf
00000260: 87b1 66bf 0b66 ec3c 768a d23c ba5a d23d
00000270: 65be 1d3d f63b e8bd dcbb c53c 4736 8dbe
00000280: e525 3dbe 797b 0cbe 0bbc c53d 0905 f03d
00000290: bac0 4d3e a9d1 fcbe 4cca fabe e295 e1be
000002a0: 4770 15bf 97f0 22bf 93ea 26bf 996b 3cbe
000002b0: 7dc0 a9bc a1f5 5cbd 0cc6 f33d 9307 edbb
000002c0: 3a33 773d 89e0 fb3d e4b1 0e3e 6b92 dd3c
000002d0: 3675 6dbe 2c84 3dbe f4df adbe 1fa9 b0be
000002e0: a946 c5be dee7 acbe b0b9 5fbe de86 abbd
000002f0: 8615 f8bd 8069 b3bc 45d5 22bc 1ceb d53b
00000300: db3d 8a3c edea 1b3e 5990 40bd 3ab1 0e3f
00000310: e181 d83e 4711 453f 17de 863d ab4d e33d
00000320: 38c6 11be ba76 53be 2edc a3be 8625 7d3d
00000330: 613e d5be ee3a eabe f27a 843d 45b7 2f3d
00000340: 7f2f 873d 2015 8c3e d4b2 8b3c 8549 ad3c
00000350: a658 bc3d 7556 f0bc aa9d 1a3d 2cc7 4d3d
00000360: 3a15 223e c14b f83d f74e 953d 0ab2 4ebe
00000370: 0b82 6abd ecae 57be 9306 d8bd d854 0cbe
00000380: 469b d8bd b35f ca3e 8bc5 a43e 273b 5c3d
00000390: f21a 4a3d fb78 3c3d 7c7a 9fbd db52 7bbd
000003a0: d7bf fdbd 2acb 29bd 7a34 3e3e 3f54 563e
000003b0: 2b53 353e 9834 1d3e d48b f33d 56fe 64bc
000003c0: 436a 313e c6b4 753d 341d aebd 68f0 60be
000003d0: 3d8c 45be 74d6 f93a 8256 143f 6e84 0a3f
000003e0: e722 1d3e 5350 313e 660f d03d 38b0 6ebd
000003f0: 780a a43a f0fc 333e bb68 0cba 37d7 99bd

conv1.bias f4 [32]
0.056406338 -0.011775993 0.12568873 0.30293307 0.0983026 0.16090915 0.028149653 0.09429113
0.31922016 0.22153927 0.06383798 -0.036829922 -0.007036291 -0.17667593 0.28675416 0.19811387
-0.05933699 0.11257032 -0.07829633 0.3394798 0.095342495 0.14133613 0.172954 0.28057984
0.040686067 -0.022094859 0.22648956 -0.0011360123 0.15093803 0.2307856 0.09475297 0.11572036
00000000: 550a 673d 18f0 40bc 8cb4 003e 0b1a 9b3e
00000010: e052 c93d 5ec5 243e 1a9a e63c b51b c13d
00000020: d370 a33e 31db 623e 7dbd 823d f9da 16bd
00000030: b090 e6bb 89ea 34be 71d1 923e 5dde 4a3e
00000040: 580b 73bd 458b e63d d459 a0bd 4cd0 ad3e
00000050: ed42 c33d 6bba 103e da1a 313e 29a8 8f3e
00000060: 6fa6 263d 4700 b5bc e1ec 673e 3fe6 94ba
00000070: 808f 1a3e 0f53 6c3e d80d c23d ccfe ec3d

lstm.weight_ih_l0 f4 [256, 32]
-0.05355551 -0.35127917 0.042425282 0.1243623 0.5235418 0.30943558 0.27979308 0.6902722
0.24305807 -0.07237 0.12832844 0.069305204 0.24071516 0.08702648 0.46675354 0.71663517
-0.22269027 -0.19929713 0.14641586 0.067075625 0.7074769 0.6107874 0.22228932 0.4724743
-0.0021214357 0.1004755 0.2492867 -0.25701195 0.373078 0.02520681 0.3767938 0.021496747
-0.052825596 -0.27574092 -0.3915446 0.09940268 -0.1215536 0.031936113 0.27044377 -0.2941521
-0.14395995 -0.028636066 -0.22619477 -0.042002883 0.036590368 0.09853293 -0.22602805 -0.28110698
-0.29255128 -0.013385238 0.326811 0.45131215 0.12576616 -0.04984634 -0.15826339 0.03448158
-0.10173162 0.089374565 0.022687512 -0.22204478 1.3613987 0.048102833 -0.24197362 0.39176136
-0.19481598 -0.15788312 0.16911441 -0.3292707 -0.47467843 0.2653932 0.594918 0.4556488
-0.2322597 -0.10871411 0.102148876 0.07318252 0.13957165 -0.07319425 0.0264724 0.44062716
-0.11973756 -0.052635092 0.8472724 -0.654403 0.027961455 0.31980243 0.4134662 -0.38351378
0.016342381 0.21813701 -0.009083549 -0.28092614 0.24765451 -0.6113623 -0.27125612 -0.13315718
-0.20084563 0.2797687 0.0507391 0.15115385 0.29963544 0.17901531 0.027764888 0.070636004
0.21236435 0.41218382 0.021960104 0.010813322 0.29560718 0.0070207887 0.30071107 0.1943098
0.22465177 0.28746015 -0.086595066 0.21941204 0.15028083 0.22533338 0.17446512 0.1501703
0.29805207 0.31254554 0.1671879 0.27263802 0.21867788 0.15779513 0.2890909 -0.22982198
-0.13223277 -0.0006118723 0.05901136 0.061728604 -0.030178338 0.1302512 -0.03363174 0.02970595
-0.048265602 -0.0271494 -0.064584024 -0.00067446835 0.62022257 -0.048943818 -0.19512561 0.16664107
-0.01382648 -0.4190226 0.13737781 0.06345862 -0.0042164987 0.18575604 0.2488523 -0.11266157
-0.045730982 0.31867155 -0.065684885 -0.38057 -0.2126485 0.16522026 0.01094903 -0.41425204
0.007284574 0.22007175 -0.108975776 0.30149183 0.079730645 0.47176015 0.20114085 0.3693891
0.117252074 0.057138253 -0.11055555 0.06165156 0.30099612 0.12538297 0.13462362 0.24681094
0.29794604 0.18655774 -0.06364838 0.3035595 -0.08283499 0.2942532 0.32516834 0.02481471
0.15125626 -0.08040092 0.23599026 0.67187667 0.68450177 0.024044361 0.23722969 0.271092
-0.39831662 -0.08368266 -0.06057648 0.24131364 0.24829344 0.15190065 0.2454924 -0.34480342
-0.37941214 -0.21232131 0.35014784 0.07331099 -0.40517643 -0.25365618 -0.24519196 0.37264216
-0.2282231 -0.28066728 -0.32715273 0.09910764 0.3650964 -0.10148781 0.35893235 -0.03507317
-0.058919795 -0.16497803 0.39025316 -0.21217524 0.017005846 0.15117009 0.14477421 0.030074468
-0.73942953 0.066237874 0.23908408 -0.16482256 0.067238756 0.07908343 0.13021001 0.03513337
0.027628237 0.27175677 0.094016284 -0.0014285218 0.077945575 0.06541374 -0.07487331 0.0896521
0.17109394 -0.11991998 0.047743194 -0.04404579 0.28958994 0.25558814 0.14032379 -0.14415285
-0.1479902 0.29727322 -0.47423407 -0.072271354 0.1728004 -0.3298789 -0.079306655 -0.08650468
00000000: 065d 5bbd ddda b3be 22c6 2d3d a9b1 fe3d
00000010: d606 063f 576e 9e3e 0a41 8f3e aeb5 303f
00000020: 37e4 783e b936 94bd 8868 033e e3ef 8d3d
00000030: 097e 763e f03a b23d 52fa ee3e 6775 373f
00000040: eb08 64be 8c14 4cbe 0aee 153e f25e 893d
00000050: 351d 353f 905c 1c3f d09f 633e 27e8 f13e
00000060: c907 0bbb 19c6 cd3d 0345 7f3e 1297 83be
00000070: 1404 bf3e 837e ce3c 1eeb c03e f219 b03c
00000080: a75f 58bd ea2d 8dbe 8978 c8be a293 cb3d
00000090: 18f1 f8bd 71cf 023d 9b77 8a3e 1b9b 96be
000000a0: 3d6a 13be 2f96 eabc 9a9f 67be 370b 2cbd
000000b0: c8df 153d a2cb c93d e673 67be 41ed 8fbe
000000c0: 48c9 95be c24d 5bbc c553 a73e 6312 e73e
000000d0: d8c8 003e ad2b 4cbd cc0f 22be 8f3c 0d3d
000000e0: ab58 d0bd 030a b73d 29db b93c b55f 63be
000000f0: 5042 ae3f 7a07 453d efc7 77be f294 c83e
00000100: d77d 47be 1dac 21be 542c 2d3e 2b96 a8be
00000110: 0d09 f3be 9ee1 873e 8c4c 183f cd4a e93e
00000120: 7dd5 6dbe 81a5 debd 6e33 d13d b8e0 953d
00000130: dfeb 0e3e dee6 95bd a6dc d83c e299 e13e
00000140: f738 f5bd e597 57bd d8e6 583f f486 27bf
00000150: 6c0f e53c 25bd a33e d7b1 d33e eb5b c4be
00000160: 75e0 853c 4f5f 5f3e 2ad3 14bc 8dd5 8fbe
00000170: 2599 7d3e 3d82 1cbf 15e2 8abe 5b5a 08be
00000180: 7aaa 4dbe d83d 8f3e cdd3 4f3d 13c8 1a3e
00000190: d169 993e ca4f 373e 3173 e33c 9ca9 903d
000001a0: 0a76 593e c209 d33e ade5 b33c 5c2a 313c
000001b0: d359 973e a50e e63b cdf6 993e 26f9 463e
000001c0: 1d0b 663e fa2d 933e c158 b1bd 8dad 603e
000001d0: 38e3 193e cbbd 663e fca6 323e 3ec6 193e
000001e0: 489a 983e f805 a03e 4e33 2b3e 3697 8b3e
000001f0: 18ed 5f3e 0c95 213e b903 943e 7456 6bbe
00000200: 0768 07be 0e66 20ba e5b5 713d 22d7 7c3d
00000210: 9038 f7bc 9260 053e 6fc1 09bd e459 f33c
00000220: 27b2 45bd 6b68 debc a144 84bd cece 30ba
00000230: e8c6 1e3f 5079 48bd 02cf 47be f5a3 2a3e
00000240: 7688 62bc 218a d6be c5ac 0c3e 98f6 813d
00000250: 8e2a 8abb d536 3e3e 23d3 7e3e 1cbb e6bd
00000260: 6950 3bbd eb28 a33e cc85 86bd 12da c2be
00000270: 87c0 59be 802f 293e 8f63 333c d818 d4be
00000280: 70b3 ee3b 7d5a 613e b12e dfbd 235d 9a3e
00000290: d249 a33d 8c8a f13e def7 4d3e 9120 bd3e
000002a0: db21 f03d cd09 6a3d f36a e2bd 5986 7c3d
000002b0: 2a1c 9a3e 6564 003e c6da 093e 02bc 7c3e
000002c0: 628c 983e fe08 3f3e 155a 82bd 276c 9b3e
000002d0: 64a5 a9bd 5ba8 963e 777c a63e 3848 cb3c
000002e0: ece2 1a3e 3da9 a4bd 6ea7 713e 1c00 2c3f
000002f0: 823b 2f3f aef8 c43c 57ec 723e 92cc 8a3e
00000300: 28f0 cbbe d061 abbd 0b1f 78bd ec1a 773e
00000310: a340 7e3e d88b 1b3e 5c62 7b3e 138a b0be
00000320: 4f42 c2be c26a 59be 9446 b33e 1324 963d
00000330: 4973 cfbe 39df 81be 9a13 7bbe f4ca be3e
00000340: 51b3 69be 9fb3 8fbe 9080 a7be f2f8 ca3d
00000350: eaed ba3e d7d8 cfbd fbc5 b73e e2a8 0fbd
00000360: e255 71bd 00f0 28be 43cf c73e 7744 59be
00000370: d84f 8b3c 55cc 1a3e b13f 143e bb5e f63c
00000380: 414b 3dbf b9a7 873d 75d2 743e 3fc7 28be
00000390: 79b4 893d 7ef6 a13d c655 053e 02e8 0f3d
000003a0: 9d54 e23c b423 8b3e 9c8b c03d 3d3d bbba
000003b0: eea1 9f3d a4f7 853d 2e57 99bd 859b b73d
000003c0: 4033 2f3e 9b98 f5bd 5e8e 433d 5c69 34bd
000003d0: 2245 943e 73dc 823e 0ab1 0f3e ce9c 13be
000003e0: be8a 17be 3234 983e cfce f2be 0103 94bd
000003f0: 97f2 303e e3e5 a8be 876b a2bd 5e29 b1bd

lstm.weight_hh_l0 f4 [256, 64]
0.25673434 -0.15519133 -0.14974016 0.12804888 0.05641623 0.114666425 0.17603584 -0.10308271
-0.15950206 0.01188861 0.07875312 0.20288464 -0.17702827 0.0867943 -0.000311521 0.0516287
-0.044998556 -0.21807356 0.2142225 0.03810413 0.096552655 -0.26791653 -0.094339 0.16077808
-0.1422557 0.24776551 -0.018504046 0.10080598 -0.07882875 -0.25550878 -0.021614822 -0.15276831
0.12696575 0.003796817 0.12381008 0.123709746 -0.16865572 -0.08728727 -0.0075060283 0.027010193
-0.09879787 -0.09790569 -0.19159389 -0.09927839 0.16437925 0.014101876 0.1874671 -0.12194847
0.03740651 0.043646913 -0.18200405 -0.11832369 -0.035791457 -0.009512762 -0.18001744 0.121094406
-0.021782141 0.15242277 0.1463927 -0.06495109 -0.45803058 0.06273552 -0.006289502 0.14768687
0.31118423 0.050910972 0.13785365 -0.26358718 -0.56149846 -0.27514532 -0.11860966 0.09698306
0.5838835 0.24660172 -0.30458024 -0.2609915 0.18039848 -0.29963523 -0.6317085 -1.2959551
0.020068243 0.40813524 -0.18792471 0.597375 -0.5258425 -0.15204051 0.03598268 -0.40261346
0.45392346 -0.25348878 -0.16022053 -0.4438974 -0.075688645 0.18740298 0.2256185 0.53550327
-0.36589518 -0.3264355 0.06487039 -0.07889017 0.37061873 0.96471834 -0.0711959 0.08591158
-0.46767825 0.17447814 0.20495859 0.18390398 -0.21223131 0.3422764 -0.15638156 -0.21903263
-0.2075468 -0.08162934 0.038556445 0.16120009 0.21952255 -0.27151203 -0.009345238 -0.17819129
-0.24924244 0.1624107 -0.14178623 -0.18037167 -0.12101173 -0.038707405 -0.040072255 -0.11899971
-0.27568 -0.1686946 -0.0014218402 -0.253845 -0.4120896 0.17431688 0.108915724 0.07500923
0.026987944 0.42150465 0.19334117 -0.03089124 -0.040052325 -0.09755191 0.05990495 0.04634186
-0.22108112 -0.029848844 0.07074869 -0.11791537 -0.16862649 -0.1890561 0.3478395 0.010734857
0.19329971 -0.03639591 0.13888004 -0.1754801 -0.048946105 -0.040807813 0.001013561 -0.14540473
-0.10772634 0.06827907 -0.097935185 -0.016993647 0.2889339 0.17373985 0.2510048 0.23122153
-0.03942987 -0.13777296 0.14797723 -0.2172901 -0.06299864 -0.024518821 -0.18943927 -0.23097757
-0.06502929 -0.2506786 0.31938365 0.28286123 0.010491735 0.0272782 0.06705284 -0.004566553
-0.082540065 -0.054930344 -0.015432009 -0.0126624415 -0.033006065 -0.04283751 0.14985533 0.007184756
-0.2526523 -0.093211174 -0.10363986 -0.40037033 -0.043434557 0.011392814 -0.028242623 -0.08505237
-0.0144131305 0.26707956 0.098544404 0.07136722 -0.0016380385 0.08075409 0.04678978 0.0138589
0.005813977 -0.119714804 -0.17195891 0.14547627 -0.0853694 0.039172877 0.082683146 0.09601781
0.038976017 -0.07747845 0.1204089 -0.081425376 -0.12759268 -0.22457547 0.083711326 -0.19248079
-0.26127315 0.025514182 0.23215616 -0.22698013 0.15713918 0.07936462 0.08667403 0.10491184
0.025928417 -0.011759312 0.48488668 -0.10485979 0.110146984 -0.18691495 -0.06577963 0.06308294
0.12259753 -0.08672733 -0.009202398 0.196656 -0.10816693 0.025209436 -0.02226086 0.027996134
-0.001423317 -0.24213094 -0.23986302 0.046860497 0.12510209 -0.09726886 0.09634587 -0.004902865
00000000: af72 833e 7aea 1ebe 7c55 19be 3f1f 033e
00000010: b414 673d 3bd6 ea3d bd42 343e 071d d3bd
00000020: 8254 23be 72c8 423c 5149 a13d fec0 4f3e
00000030: e646 35be 36c1 b13d a453 a3b9 9e78 533d
00000040: 6850 38bd ad4e 5fbe 255d 5b3e 1413 1c3d
00000050: 66bd c53d 5b2c 89be ce34 c1bd 02a3 243e
00000060: 7aab 11be 3eb6 7d3e cc95 97bc 5e73 ce3d
00000070: f870 a1bd 0cd2 82be 9111 b1bc 4c6f 1cbe
00000080: 4f03 023e 05d4 783b 2490 fd3d 895b fd3d
00000090: 16b4 2cbe abc3 b2bd 21f5 f5bb 7b44 dd3c
000000a0: 8a56 cabd c782 c8bd 3031 44be 7852 cbbd
000000b0: 0953 283e 8e0b 673c 60f7 3f3e 1fc0 f9bd
000000c0: 9237 193d 1bc7 323d 455f 3abe b153 f2bd
000000d0: 109a 12bd 6adb 1bbc 7e56 38be 5800 f83d
000000e0: 7670 b2bc b714 1c3e f8e7 153e 1405 85bd
000000f0: fc82 eabe 7b7b 803d 2b18 cebb 3a3b 173e
00000100: 8a53 9f3e 0688 503d 8229 0d3e e6f4 86be
00000110: 5dbe 0fbf d9df 8cbe 9fe9 f2bd 0e9f c63d
00000120: 6479 153f 2985 7c3e f1f1 9bbe aea0 85be
00000130: 61ba 383e ca69 99be a6b7 21bf dbe1 a5bf
00000140: 2866 a43c 1af7 d03e 566f 40be 91ed 183f
00000150: 9d9d 06bf 82b0 1bbe 9362 133d 5a23 cebe
00000160: a868 e83e 48c9 81be da10 24be 8546 e3be
00000170: a602 9bbd 91e6 3f3e 8908 673e be16 093f
00000180: 9d56 bbbe 8e22 a7be c4da 843d 2b91 a1bd
00000190: bdc1 bd3e c8f7 763f 28cf 91bd 69f2 af3d
000001a0: 8673 efbe 66aa 323e aae0 513e 5351 3c3e
000001b0: 2a53 59be da3e af3e 7d22 20be 174a 60be
000001c0: 2687 54be 492d a7bd 5ded 1d3d a311 253e
000001d0: 85ca 603e a003 8bbe c51c 19bc c777 36be
000001e0: 6939 7fbe fe4e 263e 6930 11be 5ab3 38be
000001f0: ffd4 f7bd a88b 1ebd ce22 24bd 1fb6 f3bd
00000200: ee25 8dbe 47be 2cbe 0a5d baba f9f7 81be
00000210: 68fd d2be 2080 323e 350f df3d 709e 993d
00000220: d215 dd3c 75cf d73e 3afb 453e a00f fdbc
00000230: e80d 24bd 4cc9 c7bd e55e 753d f6d0 3d3d
00000240: 1763 62be 9085 f4bc b0e4 903d 9d7d f1bd
00000250: 6cac 2cbe ec97 41be 0518 b23e 41e1 2f3c
00000260: 5cf0 453e e113 15bd 9236 0e3e 0eb1 33be
00000270: b67b 48bd 1826 27bd 77d9 843a fae4 14be
00000280: a19f dcbd e6d5 8b3d 3e92 c8bd 4336 8bbc
00000290: 25ef 933e dce8 313e b383 803e 56c5 6c3e
000002a0: 3781 21bd 5b14 0dbe 5887 173e 4c81 5ebe
000002b0: 6e05 81bd b2db c8bc 5efc 41be 6285 6cbe
000002c0: 142e 85bd f258 80be 4186 a33e 30d3 903e
000002d0: 87e5 2b3c 8876 df3c 0053 893d 06a3 95bb
000002e0: c40a a9bd a4fe 60bd 89d6 7cbc 2176 4fbc
000002f0: 5e31 07bd 6376 2fbd ad73 193e 1a6e eb3b
00000300: a45b 81be 80e5 bebd 2341 d4bd 57fd ccbe
00000310: 6fe8 31bd eda8 3a3c 135d e7bc f02f aebd
00000320: 0d25 6cbc a7be 883e a6d1 c93d fa28 923d
00000330: 74b3 d6ba 6662 a53d a4a6 3f3d 7110 633c
00000340: 2d83 be3b 092d f5bd ff15 30be bbf7 143e
00000350: 27d6 aebd bd73 203d c855 a93d fca4 c43d
00000360: 51a5 1f3d 06ad 9ebd f198 f63d 59c2 a6bd
00000370: a8a7 02be 1df7 65be d870 ab3d af19 45be
00000380: 98c5 85be 1e03 d13c 58ba 6d3e 7b6d 68be
00000390: 18e9 203e eb89 a23d 2782 b13d 05dc d63d
000003a0: d567 d43c 21aa 40bc 1143 f83e bbc0 d6bd
000003b0: be94 e13d a266 3fbe 78b7 86bd a131 813d
000003c0: 6a14 fb3d 199e b1bd a8c5 16bc 3160 493e
000003d0: a086 ddbd 0584 ce3c 685c b6bc 2658 e53c
000003e0: 988e baba 2cf1 77be a79e 75be cbf0 3f3d
000003f0: c31a 003e e534 c7bd fc50 c53d 36a8 a0bb

lstm.bias_ih_l0 f4 [256]
-0.27215856 -0.13492806 -0.19524013 0.17093152 -0.16628218 0.14235166 -0.17407447 0.1607481
0.46545202 -0.18404028 0.048431974 0.028126078 0.10811819 -0.29308555 -0.44567227 -0.44663602
-0.1573264 0.094011486 0.25644863 -0.2930135 -0.3314731 -0.0060607726 -0.40610296 -0.4735715
-0.25890252 -0.21427791 0.029817954 -0.26400766 -0.37256625 0.39534023 -0.30295926 -0.114313036
-0.19072977 -0.38093507 -0.15858231 -0.00068711455 -0.3448457 0.067359634 0.02875558 -0.28250897
-0.32116777 -0.01624386 -0.30110714 -0.023219349 -0.09579666 -0.0813124 -0.096937396 -0.22371279
-0.018777229 -0.26343986 -0.012196989 -0.03124418 -0.36417508 0.18605514 -0.07101168 -0.20818649
0.14302118 -0.05986288 0.02788839 -0.29811257 -0.12203316 -0.10723969 0.14329535 0.0048747687
-0.11776215 -0.027913518 0.01911213 0.015150406 0.19253682 0.34208268 0.28153262 -0.12688734
-0.2109588 -0.291587 0.19562791 0.14259976 0.12523077 0.02341413 0.4644736 0.48584628
0.13072857 -0.23389833 -0.2835366 0.18325877 0.45584282 0.35649845 -0.094431736 0.36885297
0.1815894 0.2846265 -0.10646106 0.15228343 0.2794202 0.25385508 0.5798007 0.31619817
0.11573394 0.28183168 0.28651455 -0.095350206 0.036356114 0.19554172 0.20991908 0.011324888
0.4102957 0.16148423 0.13467611 0.153988 0.14081374 0.17255609 -0.07580105 -0.1412703
0.3799723 0.0791271 0.16439378 0.24724782 0.06405942 -0.08713764 0.23175049 0.1674461
0.112384506 0.2948836 -0.1891696 0.120458625 0.18299615 -0.15562631 0.41881073 0.41664705
-0.17046058 -0.15559027 0.041894007 0.1510394 -0.13365518 -0.1215942 -0.12205344 0.062065683
-0.13780543 -0.05557795 -0.03112346 -0.13581641 0.15678899 -0.16212487 -0.026140718 -0.10605266
-0.0026716983 -0.06633231 -0.25908467 -0.082177095 0.10034512 0.25248688 0.036932353 0.037939977
0.0007573676 -0.10029236 -0.26770192 0.010391063 0.18525465 0.1877988 0.32088113 0.13740319
-0.073817 0.14525905 -0.16813205 -0.02532546 -0.005748299 -0.021194078 -0.059790403 -0.042702656
0.019751433 0.1631749 -0.0128440345 0.11117834 -0.24241164 -0.0768695 -0.015744727 0.25637615
-0.009920356 0.11743411 0.06944485 0.0517042 0.013226558 -0.14521159 0.1409659 0.08692779
-0.27194163 0.06502887 0.14434907 0.021819925 0.30753317 0.021839712 0.011207829 -0.15331207
0.13385215 -0.04044939 -0.13473411 -0.08192883 -0.12366205 -0.08347866 0.16143002 -0.13109846
-0.08360812 -0.0019288382 0.028300032 0.2775659 0.07632467 -0.019913295 -0.094730355 0.0073570376
-0.07925555 0.063936934 -0.04395451 -0.11413881 0.057921756 0.32482255 0.03719515 0.068682164
-0.08426444 -0.08270654 -0.124777555 0.005768397 -0.04981762 -0.16485201 -0.017607508 0.012604229
0.023435699 -0.11356912 0.01715418 -0.057698727 -0.20940012 0.04255268 -0.081362434 0.18296902
-0.22546577 -0.15426058 0.14078057 0.01915688 -0.031625018 0.032274354 0.1006594 -0.0802065
0.009066343 -0.09927875 -0.43201151 0.017056972 0.08158618 -0.110645734 0.0089839855 0.09745484
-0.1792682 -0.0893864 0.10420467 -0.027195184 0.7063444 -0.13605297 0.022157377 -0.051960252
00000000: 5e58 8bbe 952a 0abe 07ed 47be ac08 2f3e
00000010: e045 2abe a2c4 113e 9440 32be 269b 243e
00000020: ba4f ee3e 0e75 3cbe 9b60 463d a968 e63c
00000030: 126d dd3d 4f0f 96be 282f e4be 7aad e4be
00000040: 2c1a 21be 1889 c03d 3c4d 833e de05 96be
00000050: d8b6 a9be 7299 c6bb baec cfbe f777 f2be
00000060: df8e 84be ab6b 5bbe c844 f43c 032c 87be
00000070: 01c1 bebe 096a ca3e 7a1d 9bbe f41c eabd
00000080: aa4e 43be ec09 c3be 6763 22be 7a1f 34ba
00000090: 9e8f b0be d9f3 893d d290 eb3c 04a5 90be
000000a0: 1a70 a4be d811 85bc b72a 9abe 8136 bebc
000000b0: 0a31 c4bd 1e87 a6bd 1d87 c6bd f714 65be
000000c0: b4d2 99bc 97e1 86be e1d5 47bc cbf3 ffbc
000000d0: 2875 babe 3d85 3e3e 926e 91bd d72e 55be
000000e0: 2574 123e c732 75bd 3176 e43c 36a2 98be
000000f0: 85ec f9bd 7ca0 dbbd 04bc 123e 86bc 9f3b
00000100: 482d f1bd e4aa e4bc 0b91 9c3c 6939 783c
00000110: 5f28 453e 7625 af3e 0b25 903e c1ee 01be
00000120: 9505 58be e44a 95be af52 483e ac05 123e
00000130: 7f3c 003e fdce bf3c 7ccf ed3e d8c0 f83e
00000140: b6dd 053e 0b83 6fbe b62b 91be 30a8 3b3e
00000150: 3b64 e93e f786 b63e 6d65 c1bd 4cda bc3e
00000160: 92f2 393e 91ba 913e 4208 dabd 30f0 1b3e
00000170: 2a10 8f3e 4bf9 813e d26d 143f bae4 a13e
00000180: ea05 ed3d 3e4c 903e 09b2 923e f846 c3bd
00000190: 26ea 143d 173c 483e 07f5 563e 068c 393c
000001a0: 4712 d23e 1f5c 253e 89e8 093e 08af 1d3e
000001b0: 7a31 103e 8bb2 303e 953d 9bbd 29a9 10be
000001c0: bb8b c23e 640d a23d d856 283e 882e 7d3e
000001d0: 9631 833d 3875 b2bd 0050 6d3e fe76 2b3e
000001e0: d929 e63d fcfa 963e adb5 41be 03b3 f63d
000001f0: 5863 3b3e 815c 1fbe 5c6e d63e c352 d53e
00000200: 388d 2ebe 0e53 1fbe 0d99 2b3d 13aa 1a3e
00000210: e7dc 08be 6106 f9bd 27f7 f9bd 9638 7e3d
00000220: de1c 0dbe b4a5 63bd a0f6 febc 7513 0bbe
00000230: 4b8d 203e 1004 26be 0f25 d6bc 2332 d9bd
00000240: a917 2fbb 3cd9 87bd bfa6 84be 774c a8bd
00000250: be81 cd3d f645 813e 6146 173d f366 1b3d
00000260: 148a 463a 1566 cdbd 3a10 89be 473f 2a3c
00000270: 65b3 3d3e 544e 403e 884a a43e 6cb3 0c3e
00000280: 5e2d 97bd cabe 143e cf2a 2cbe 5777 cfbc
00000290: 3a5c bcbb 349f adbc c8e6 74bd fbe8 2ebd
000002a0: c2cd a13c 5217 273e c96f 52bc 78b1 e33d
000002b0: c23a 78be c26d 9dbd 16fb 80bc bc43 833e
000002c0: fd88 22bc 4b81 f03d 1a39 8e3d c9c7 533d
000002d0: 35b4 583c 59b2 14be 5d59 103e 3207 b23d
000002e0: ef3b 8bbe db2d 853d 3ed0 133e b3bf b23c
000002f0: fd74 9d3e 32e9 b23c 0ba1 373c d7fd 1cbe
00000300: 8a10 093e 42ae 25bd bdf7 09be 4dca a7bd
00000310: 8742 fdbd dcf6 aabd e94d 253e ad3e 06be
00000320: bc3a abbd 12d1 fcba 78d5 e73c 1e1d 8e3e
00000330: 1c50 9c3d 3521 a3bc fd01 c2bd 4e13 f13b
00000340: bc50 a2bd 5ef1 823d a509 34bd 9cc1 e9bd
00000350: 5d3f 6d3d 244f a63e f159 183d 3ca9 8c3d
00000360: d692 acbd 0c62 a9bd 608b ffbd d204 bd3b
00000370: 900d 4cbd f7ce 28be 9f3d 90bc f881 4e3c
00000380: 39fc bf3c ed96 e8bd ec86 8c3c 8055 6cbd
00000390: fc6c 56be b84b 2e3d 59a1 a6bd 3b5c 3b3e
000003a0: 80e0 66be 7cf6 1dbe c828 103e e4ee 9c3c
000003b0: 3c89 01bd 1d32 043d 8426 ce3d 4e43 a4bd
000003c0: 008b 143c a852 cbbd 9d30 ddbe 10bb 8b3c
000003d0: a816 a73d 3b9a e2bd 9131 133c 6796 c73d
000003e0: 1592 37be 3810 b7bd 4269 d53d 6fc8 debc
000003f0: fdd2 343f 7851 0bbe 6383 b53c 46d4 54bd

lstm.bias_hh_l0 f4 [256]
-0.07342462 -0.049704418 -0.09212301 0.261211 -0.2437267 0.1338169 -0.22020559 0.002718686
0.33306462 -0.11057909 0.06901179 -0.036030635 0.10726371 -0.082574315 -0.39166692 -0.40779164
-0.0015383108 -0.004325028 0.10242259 -0.30388737 -0.4230264 -0.079267025 -0.44954976 -0.40495053
-0.32450387 -0.1605421 0.051326007 -0.35909545 -0.2147493 0.33776823 -0.19318569 -0.014374877
-0.30297834 -0.1651231 -0.1433659 0.04116673 -0.40320244 -0.11862247 -0.074794136 -0.43213055
-0.3576199 -0.14097062 -0.32685015 -0.24853638 -0.11940361 -0.11677223 -0.2642857 -0.124743775
-0.014071342 -0.2363501 0.0065783523 0.005149093 -0.15306447 0.07501217 0.083339885 -0.15592934
0.19979133 -0.19044715 0.074872956 -0.110831335 -0.03865209 -0.12739499 0.01778791 0.13867627
-0.11889359 -0.03532444 -0.04415389 0.16140576 0.16051573 0.3651552 0.0697239 -0.015373761
-0.19587581 -0.21814293 0.08865206 0.28552043 0.013303821 0.2133124 0.4228455 0.5045433
0.1498782 -0.25608012 -0.21382543 0.23104066 0.43783578 0.28771767 -0.12618831 0.26073754
0.07751121 0.43443382 -0.12678793 0.102549486 0.20369579 0.21630275 0.5217772 0.23570733
0.03240743 0.34592226 0.21706739 -0.037104588 0.075122565 0.32535678 0.04218363 -0.0684544
0.29247195 0.2665021 0.16831627 0.056791127 0.18773654 -0.05645065 -0.1462696 -0.11595772
0.42547736 -0.027441833 0.27524188 0.089820385 0.15497369 -0.29251587 0.36587185 0.032588497
0.10142226 0.44530392 -0.16042744 0.16446143 0.14835857 -0.04065508 0.4461204 0.3211932
-0.06718427 -0.08618321 0.14905027 0.16991806 -0.08712604 -0.00893462 -0.30551526 0.01116763
-0.080786854 -0.09271629 -0.029336264 -0.2221643 0.036311835 -0.10117784 -0.016897496 -0.17768438
0.10869466 0.10710637 -0.18728036 0.08761517 -0.08192293 0.36266875 0.114084065 -0.07113721
-0.13083145 -0.054976046 -0.2637698 -0.13030994 0.11859224 0.29455456 0.2976678 0.19129941
0.012951421 0.1964056 -0.011819705 0.08110267 0.0038771133 -0.052928105 0.05501299 -0.0997723
0.11005622 0.16116981 0.06335404 0.1565667 -0.056112695 0.10072278 -0.04472679 0.12084935
0.031089144 0.107410304 0.030119214 -0.080353506 0.09401283 -0.3156358 0.24855392 0.015853671
-0.06978618 -0.03159305 0.009297037 0.18513238 0.28316703 0.09616828 -0.12650886 -0.013051391
0.055246755 -0.13631772 -0.16418682 -0.0560305 -0.18298846 0.0028692284 0.091682516 -0.13240609
0.07154505 -0.15738405 -0.10996158 0.055145025 0.06888169 0.07460497 -0.051352497 -0.018714359
-0.19305171 0.0974275 0.053365886 -0.0063173114 -0.040272553 0.40662622 0.012403965 0.072612144
-0.04903678 -0.040876277 -0.063455105 -0.16860679 -0.09921935 -0.097023346 0.046775416 -0.09001476
-0.10730827 -0.083499864 0.062431023 0.014222028 -0.23581257 0.05967987 -0.09268916 0.20436805
-0.01395094 -0.06804632 0.11940541 0.056033086 -0.02704477 -0.040605534 0.01148499 -0.1689617
0.1448574 -0.046060756 -0.2075612 0.053714585 0.21132913 -0.07007567 0.019331388 0.13929462
0.028828124 -0.12518448 0.07139937 -0.045910627 0.7277475 -0.02470662 -0.071615845 -0.051770248
00000000: a65f 96bd dc96 4bbd fdaa bcbd 73bd 853e
00000010: 7e93 79be 4c07 093e 937d 61be fb2b 323b
00000020: 7287 aa3e 4a77 e2bd 0e56 8d3d dc94 13bd
00000030: 13ad db3d b91c a9bd 9188 c8be 11ca d0be
00000040: 25a1 c9ba f7b8 8dbb efc2 d13d 2097 9bbe
00000050: eb96 d8be c056 a2bd 632b e6be ad55 cfbe
00000060: 5f25 a6be 2665 24be 383b 523d 5cdb b7be
00000070: 3ee7 5bbe f5ef ac3e 78d2 45be 9b84 6bbc
00000080: fa1f 9bbe 0816 29be 83ce 12be 729e 283d
00000090: 8d70 cebe 56f0 f2bd ab2d 99bd 3740 ddbe
000000a0: f519 b7be 9a5a 10be e758 a7be 5280 7ebe
000000b0: e189 f4bd 4726 efbd 7550 87be aa79 ffbd
000000c0: 7c8b 66bc c305 72be 388f d73b b9b9 a83b
000000d0: efbc 1cbe fb9f 993d 1aae aa3d f1ab 1fbe
000000e0: 1996 4c3e 9404 43be fe56 993d 8afb e2bd
000000f0: a751 1ebd d573 02be f3b7 913c 2701 0e3e
00000100: 7c7e f3bd 5cb0 10bd b6da 34bd 8d47 253e
00000110: 3c5e 243e 9ff5 ba3e 67cb 8e3d 3ae2 7bbc
00000120: ab93 48be dc60 5fbe 368f b53d bc2f 923e
00000130: 45f8 593c 916e 5a3e 357f d83e c029 013f
00000140: ac79 193e ef1c 83be 0ef5 5abe ec95 6c3e
00000150: 032c e03e bb4f 933e 8237 01be 647f 853e
00000160: 33be 9e3d 1c6e de3e b2d4 01be 7705 d23d
00000170: a195 503e 787e 5d3e 3193 053f 435d 713e
00000180: a7bd 043d b91c b13e ea46 5e3e fbfa 17bd
00000190: dcd9 993d 2a95 a63e bec8 2c3d d231 8cbd
000001a0: e2be 953e f772 883e 1a5b 2c3e d09d 683d
000001b0: 023e 403e cc38 67bd b3c7 15be 3e7b edbd
000001c0: 2bd8 d93e b2cd e0bc 81ec 8c3e c0f3 b73d
000001d0: 6cb1 1e3e a4c4 95be 8e53 bb3e 847b 053d
000001e0: 79b6 cf3d e0fe e33e 1747 24be 9468 283e
000001f0: 4feb 173e f185 26bd e569 e43e 6f73 a43e
00000200: e897 89bd d380 b0bd a2a0 183e 00ff 2d3e
00000210: 236f b2bd 8362 12bc 7f6c 9cbe 6ff8 363c
00000220: 9473 a5bd 0ae2 bdbd 9b52 f0bc 0a7f 63be
00000230: b8bb 143d 5436 cfbd 9e6c 8abc e5f2 35be
00000240: 4e9b de3d 965a db3d 6cc6 3fbe 956f b33d
00000250: 36c7 a7bd b8af b93e e8a4 e93d 63b0 91bd
00000260: aef8 05be 902e 61bd d60c 87be f86f 05be
00000270: 7de0 f23d dbcf 963e ea67 983e fee3 433e
00000280: 3232 543c 8d1e 493e 70a7 41bc 2819 a63d
00000290: 2b17 7e3b 24cb 58bd 4d55 613d 6b55 ccbd
000002a0: 2865 e13d b309 253e c3bf 813d 0553 203e
000002b0: 6dd6 65bd bf47 ce3d 7033 37bd dd7f f73d
000002c0: a9ae fe3c eff9 db3d 92bc f63c 6190 a4bd
000002d0: cc89 c03d 049b a1be eb84 7e3e 8fdf 813c
000002e0: 0fec 8ebd b767 01bd 9952 183c 5893 3d3e
000002f0: 45fb 903e e0f3 c43d 8a8b 01be 80d5 55bc
00000300: 6c4a 623d df96 0bbe 9720 28be 3d80 65bd
00000310: 5461 3bbe aa09 3c3b 0bc4 bb3d 7695 07be
00000320: 3686 923d 4929 21be 8933 e1bd c0df 613d
00000330: d811 8d3d 7eca 983d ff56 52bd db4e 99bc
00000340: 59af 45be 1288 c73d 3096 5a3d 7301 cfbb
00000350: d5f4 24bd 5031 d03e 003a 4b3c adb5 943d
00000360: cada 48bd e26d 27bd c0f4 81bd 42a7 2cbe
00000370: 8433 cbbd 2db4 c6bd 9497 3f3d a959 b8bd
00000380: 70c4 dbbd fa01 abbd acb7 7f3d 8203 693c
00000390: da78 71be e172 743d d0d3 bdbd dc45 513e
000003a0: 7c92 64bc de5b 8bbd d38a f43d f382 653d
000003b0: fe8c ddbc fd51 26bd 8a2b 3c3c 4c04 2dbe
000003c0: 8055 143e 34aa 3cbd ec8a 54be d303 5c3d
000003d0: aa66 583e d583 8fbd dc5c 9e3c 40a3 0e3e
000003e0: f528 ec3c 5c30 00be d539 923d c80c 3cbd
000003f0: a94d 3a3f 8a65 cabc 54ab 92bd 0a0d 54bd

fc.weight f4 [1, 64]
1.4929827 1.1315557 1.1689922 -1.047245 -0.53055155 -1.0400116 -1.1016636 1.2607921
1.0592139 0.30764675 -1.1432104 -1.0717998 0.9878446 -1.0072126 -1.1145017 -1.0723312
1.1196152 1.0710438 -1.349385 1.0658238 -1.0971417 0.54579955 1.2456672 -1.119607
1.1338419 1.4220744 -0.8085442 -1.1932954 -1.0543379 0.9639181 0.9968948 1.1926948
-1.0264239 -1.2829005 -1.0556581 -1.2158966 1.2550094 1.0408853 -1.0806607 1.1856835
-1.2616388 1.0434133 1.0675746 1.0492338 -1.1619453 1.1069071 -1.2564658 -1.3464478
0.14736788 -1.0603967 1.1347326 1.2363828 1.3069853 -1.2033769 1.2986652 -1.0821751
-1.0156375 1.2767088 -1.0782621 -1.1410753 0.5249211 -1.1445129 1.1384882 -1.0422235
00000000: 0f1a bf3f d1d6 903f 89a1 953f 200c 86bf
00000010: 3ad2 07bf 1a1f 85bf 5003 8dbf a361 a13f
00000020: 5294 873f e083 9d3e b854 92bf bc30 89bf
00000030: 62e3 7c3f 58ec 80bf fea7 8ebf 2642 89bf
00000040: 8d4f 8f3f f717 893f a6b8 acbf ea6c 883f
00000050: 246f 8cbf 85b9 0b3f 0672 9f3f 484f 8fbf
00000060: bb21 913f 8906 b63f c1fc 4ebf e7bd 98bf
00000070: 8bf4 86bf 56c3 763f 7f34 7f3f 39aa 983f
00000080: dc61 83bf 1536 a4bf ce1f 87bf 80a2 9bbf
00000090: 26a4 a03f bb3b 853f 1753 8abf 7ac4 973f
000000a0: 617d a1bf 918e 853f 49a6 883f 4b4d 863f
000000b0: a0ba 94bf 22af 8d3f dfd3 a0bf 6758 acbf
000000c0: 9be7 163e 14bb 87bf eb3e 913f cb41 9e3f
000000d0: 4b4b a73f 4108 9abf a93a a63f b784 8abf
000000e0: 6900 82bf 326b a33f 7e04 8abf c10e 92bf
000000f0: 3b61 063f 667f 92bf fbb9 913f 9467 85bf
