notebooks/lstm_backbone.pth (torch, 50789 bytes, 9 tensors)

backbone_lstm1.weight_ih_l0 f4 [128, 32]
000000 9e 76 0d be 7f 6f fe 3c ae b5 31 bf 8a d0 45 bf
       -0.1381478 0.031059025 -0.69417846 -0.7727133
000010 61 bc ce be 48 d2 3e 3f eb 03 6a bf 64 d7 e7 3e
       -0.40378097 0.74539614 -0.9141223 0.45281518
000020 58 66 98 bd 92 46 3b 3f b5 95 07 3f bb 90 58 bf
       -0.074413955 0.73154557 0.5296281 -0.8459584
000030 25 7b b9 be 01 70 86 3e 4b 72 71 3f fb 44 3d be
       -0.36226764 0.26257327 0.9431502 -0.18483345
000040 9b b0 34 bf c9 ef ca 3e 13 a6 32 3f 76 94 85 3e
       -0.7058198 0.39636067 0.6978466 0.2608983
000050 2e 47 25 be f3 7f 35 3f c5 ab e0 be 17 4c 92 be
       -0.16140434 0.7089836 -0.4388105 -0.28573677
000060 d9 40 e3 3e cf 9a 29 3f 07 8b 56 bf 06 ca 23 3d
       0.44385412 0.66251844 -0.8380589 0.039987586
000070 e0 88 a9 3c 01 49 18 3f 64 b8 86 3e 52 7d dd be
       0.02069515 0.59486395 0.26312554 -0.43259674
000080 7b 51 81 be ca cd c9 bd 98 99 2f bf 5e 4c 1d be
       -0.25257477 -0.09853704 -0.6859374 -0.15361163
000090 69 ab 67 3e 5f 5b 36 be 48 c1 2c 3e 6c 22 14 be
       0.22623982 -0.17808293 0.16870606 -0.14466256
0000a0 bd af 36 bf 7f e8 73 be f0 93 4d be c8 2c 90 be
       -0.71361905 -0.23819159 -0.20075965 -0.28159165
0000b0 97 36 8f be 50 d4 ef 3e 63 3d 9c bc 53 27 35 bc
       -0.27971336 0.4684167 -0.01907224 -0.011056739
0000c0 19 44 ee bd ea 6b 01 be 1f 9a 88 3e 7c 03 48 3e
       -0.11634082 -0.12638822 0.26680085 0.19532579
0000d0 b4 54 ce 3d 42 ca bb 3d 2b 9e 5f 3e 9d be 9c bd
       0.100747496 0.09169437 0.2183768 -0.07653544
0000e0 4f c1 b5 3e 2b b6 62 be aa 75 64 be c6 71 14 bf
       0.35499045 -0.22139804 -0.2231051 -0.57986104
0000f0 18 a1 9e 3c ab cf 97 be 55 71 8d 3e 7c 04 a2 be
       0.019363925 -0.29650626 0.27625528 -0.31644046
000100 4e 2b 2d 3f 21 ba 22 bc 22 24 ea 3e 6f 6c f1 3d
       0.676442 -0.009932072 0.45730692 0.1178826
000110 94 fc b7 bd ff 41 16 bf c6 bb 1d 3d 26 ab c2 bd
       -0.08983722 -0.5869445 0.038509153 -0.095053
000120 69 27 af bd 92 88 22 bd e9 ec 9a 3c 36 36 a0 bf
       -0.08552439 -0.039681025 0.018911796 -1.2516544
000130 3a fb 22 bc 1b fa 84 bf 39 ff a5 3e c5 2a e7 3e
       -0.009947592 -1.0388826 0.32421282 0.45149818
000140 1d fc f0 3d f2 df f4 3d a1 93 f5 3e 3f 5b d3 3e
       0.11766837 0.11956777 0.47964194 0.41280553
000150 f2 5a cd be 13 44 56 3d f1 9c 7a 3f d5 ed ce 3e
       -0.40108448 0.052311014 0.97895724 0.40415826
000160 6e bb 89 3e d0 3d 58 b8 b1 ca 49 bd 03 b4 8d bf
       0.2690081 -5.155598e-05 -0.049265567 -1.107056
000170 d9 c5 61 3e 20 27 bc be 37 d7 08 3e be 2f d3 3e
       0.22048129 -0.367486 0.13363348 0.41247362
000180 33 d5 a5 be 56 1e a9 bd 9d 26 6c be 3a bc 89 be
       -0.3238922 -0.08257739 -0.23061605 -0.26901418
000190 33 83 87 be f5 5e ab 3e a7 d9 c6 be 16 36 84 bd
       -0.26467285 0.33470884 -0.3883793 -0.064556286
0001a0 d2 d0 4b be d7 03 5f 3e 4d ee 4a 3e 2c 64 64 bf
       -0.19903877 0.21778809 0.19817467 -0.8921535
0001b0 9e bc 2b 3c f9 bf 20 3e 6e f6 3f 3f 84 64 a8 bd
       0.010481982 0.15698232 0.74985397 -0.08222297
0001c0 31 91 97 be f5 54 7e 3e 02 a2 07 3f 51 8b 92 3d
       -0.2960296 0.24837096 0.5298158 0.07155479
0001d0 88 8c 6d 3c 7a 94 0d 3f 30 40 a0 3d 1f 15 de be
       0.014498837 0.5530468 0.07824743 -0.4337549
0001e0 71 db 17 3f 1a cb bc 3d 13 e0 ea be 7d 87 52 be
       0.59319216 0.09218426 -0.4587408 -0.20559497
0001f0 7e 00 c3 3e d0 4b be 3e 24 5a bd 3e 65 1d 07 be
       0.38086313 0.37167215 0.36982834 -0.13194807
000200 0d 16 3c be a0 44 33 be 96 7f 02 bf 0c 92 a4 be
       -0.18367787 -0.17506647 -0.5097593 -0.32142675
000210 bc 38 a2 be ed c0 10 3f 1c 63 34 bf a5 51 85 bd
       -0.3168391 0.5654438 -0.7046373 -0.06509713
000220 a5 63 a2 be 58 36 29 3f 1c 7e dd 3e 52 2c 65 bf
       -0.31716648 0.66098547 0.43260276 -0.8952075
000230 98 a7 bf bd 0d da d2 3d f5 72 20 3f 86 b8 b4 be
       -0.09358138 0.10295496 0.6267541 -0.3529703
000240 73 9c d5 be 96 29 73 3e 71 89 31 3e fc 9b a7 3c
       -0.41720924 0.23746333 0.17337586 0.020460121
000250 91 41 cb bd 77 47 45 3f 21 1f 12 bf 06 2b 2b bd
       -0.09924615 0.7706217 -0.5707875 -0.041789077
000260 69 fe 2f 3f 90 dd b7 3e 05 ae c8 bd 8d 71 5e 3e
       0.68747574 0.35911226 -0.097988166 0.21723004
000270 af e9 e9 bd f6 36 26 3f f4 08 a8 3e 5c e8 8e 3c
       -0.11421525 0.64927614 0.3281933 0.017444782
000280 f5 2e 3b 3f 08 ef 30 be 97 cf 9c 3c e8 1f f7 3d
       0.73118526 -0.17278683 0.019141955 0.120666325
000290 c5 5f d1 3e 1d 50 4b 3e e1 55 e8 3d dd ae 00 bf
       0.4089338 0.1985478 0.11344505 -0.5026682
0002a0 d1 47 b6 3e 54 f1 aa bd 92 03 ef bd 14 0f 1f be
       0.35601667 -0.08346811 -0.11670603 -0.15533096
0002b0 40 ea 54 be 89 56 e0 bd 8f eb 5d be b5 e8 57 3d
       -0.20792484 -0.10954005 -0.2167189 0.05271216
0002c0 19 c5 97 3e 4a d4 3a be b7 13 7d 3e ea 3d 11 bf
       0.2964256 -0.18245044 0.24714552 -0.567351
0002d0 d1 7d 05 3f 26 de 34 3d 9a bc 8b bc 13 bf b4 be
       0.52145106 0.04415717 -0.017057706 -0.35302028
0002e0 24 38 a8 be cd ce 05 be 6c f5 59 be 2d a8 5a 3f
       -0.32855332 -0.1306717 -0.21285027 0.85412866
0002f0 14 f3 21 bf ff 5b 6a 3c 63 17 0c 3c 45 6c 00 3e
       -0.6326153 0.01430416 0.008550498 0.12541302
000300 ec 10 2a 3e 72 31 8c be d8 8d fd be ce 56 7f bf
       0.16608018 -0.27381474 -0.4952228 -0.9974183
000310 c1 01 7a be fd 5b 94 bd e4 3f 2b 3d 2c 32 fd bd
       -0.24414732 -0.07244108 0.041808978 -0.12363085
000320 de 50 aa 3f 1a 57 da 3c 8c f7 2d 3d 9a e6 ab 3e
       1.3305929 0.026652861 0.042472407 0.33574373
000330 1c 88 b9 be 7f a1 a5 be 78 8a 24 bf 54 b1 1e 3f
       -0.36236656 -0.32349774 -0.64273787 0.6198933
000340 e4 a7 eb bd 60 b5 f9 bd 28 6e 18 be 0f af 9e be
       -0.11506632 -0.12192798 -0.14885771 -0.30992934
000350 61 23 0b 3f a5 24 87 be 62 36 8f 3e 63 7b c9 be
       0.5435086 -0.26395145 0.27971178 -0.3935195
000360 2f 26 1f bf df 74 66 bc c0 07 11 bf e9 92 e0 3d
       -0.6216764 -0.01406595 -0.5665245 0.10965521
000370 e2 54 4c bf 37 6f 64 bc 23 7f 29 3e 6b 7f 6d bf
       -0.7981702 -0.013942531 0.16552405 -0.9277255
000380 fe fb bc be 0f da bb 3e 06 a9 f5 be 23 f8 9c be
       -0.36911005 0.36689803 -0.47980517 -0.30658063
000390 1e e5 1b bf 2a cf 40 3f 65 c1 53 bf 60 68 d1 3e
       -0.6089648 0.7531611 -0.8271697 0.40899944
0003a0 66 d1 f8 3d 11 f0 46 3f 73 3f 07 3f f2 b2 9e be
       0.121493146 0.7771006 0.5283119 -0.309959
0003b0 a0 1c 98 bc 53 28 d1 3e 3e 11 4b be 7f 5c e7 be
       -0.018568337 0.40851077 -0.19830796 -0.45187756
0003c0 01 48 09 bf de 3c 07 3f f6 7d 8e 3d 28 62 12 be
       -0.53625494 0.5282725 0.06957619 -0.14295256
0003d0 b0 d4 7a 3e 03 cf 5a 3f 81 ab 41 bf 62 1e 99 be
       0.24495196 0.85472125 -0.7565232 -0.29905993
0003e0 53 90 22 3c 32 e3 16 3f d6 b5 c1 bd bf b2 0d 3f
       0.009922105 0.5894042 -0.094585106 0.5535087
0003f0 ce d1 15 bf 0f 7e 79 3f 41 c8 77 3c 8d 10 60 be
       -0.5852326 0.97457975 0.015123428 -0.21881314

backbone_lstm1.weight_hh_l0 f4 [128, 32]
000000 5b c5 24 3f 29 48 d0 3e 74 0a aa be c7 7f f5 be
       0.6436364 0.40680054 -0.332111 -0.4794905
000010 29 c8 c2 3e ab 9c e9 be 05 83 ed 3e f1 a6 8c be
       0.38043335 -0.4562734 0.46389022 -0.27471116
000020 d1 08 fb 3e f1 fa 0d 3f 2f 19 3a 3f 08 54 a0 3e
       0.49030164 0.5546103 0.7269468 0.3131411
000030 75 4a 62 3f 22 4c db be 91 4f 78 be 7a 01 4a 3f
       0.8839486 -0.42831522 -0.24249102 0.78908503
000040 31 45 3e 3f df 92 ac 3e ae 6b d6 be 47 1a 21 3f
       0.7432433 0.33705804 -0.41879028 0.6293072
000050 db d7 02 bf f5 6b d4 3e d0 8e dd be 01 4a f0 3e
       -0.5111062 0.41488615 -0.4327302 0.4693146
000060 96 8f 15 bf f7 b7 bc be 44 61 c4 be 0e eb b0 be
       -0.5842222 -0.36859104 -0.38355458 -0.34554332
000070 e4 c1 03 3f a7 39 8c 3e b9 b5 01 3f e0 ae cc 3e
       0.5146773 0.27387735 0.5066791 0.3997717
000080 bb 2b 91 bd 56 75 80 be b5 ab 01 3f 62 e9 3d be
       -0.07088419 -0.2508952 0.5065263 -0.1854606
000090 14 c5 06 bd 83 19 2b 3e 18 86 40 3e 7d e8 b6 bd
       -0.032902792 0.1670895 0.18801153 -0.08931062
0000a0 13 50 1e 3e 33 ea 5f bc c7 8e bd 3d 4e 45 36 be
       0.15460233 -0.013666677 0.09255748 -0.17799875
0000b0 39 a4 b5 3e 04 29 56 be d6 40 cd bd a9 52 fd bd
       0.35476854 -0.20914084 -0.10022132 -0.12369282
0000c0 d4 8e ed be 42 46 34 3e 96 4f 60 be 81 fb 18 3e
       -0.46398032 0.17604926 -0.2190536 0.14939691
0000d0 c7 04 1a 3f eb 0f fe 3d 12 92 60 be 7e 8f 81 3e
       0.6016354 0.1240538 -0.21930721 0.25304788
0000e0 a5 53 db bd 1d dd cf bd 11 75 14 3b 39 9d 32 be
       -0.10709313 -0.10149596 0.0022652785 -0.17442788
0000f0 6b 9c 9c 3d b8 00 d3 3c b9 16 5c 3c 97 64 0d be
       0.07647022 0.025757179 0.013433152 -0.13807903
000100 8f a8 0e 3d 0c 91 fa bb 1b fc 6e bc 9a 92 e1 bd
       0.03482872 -0.0076466855 -0.014586474 -0.1101429
000110 8e c7 84 bc 6e 67 5d 3e 97 9b ab 3c f5 af b8 bd
       -0.016208436 0.21621487 0.020948214 -0.09017936
000120 c9 76 26 bd a0 5d c6 3c b6 2a f1 3e 01 6c 8c 3f
       -0.040640626 0.024214566 0.47102898 1.097046
000130 27 ea 3f 3e e1 77 1a be a4 4d 33 be 09 83 d8 3d
       0.18741666 -0.15084793 -0.17510086 0.10571868
000140 eb ff f2 bd 53 12 c1 bd 46 9e 0c be d8 a3 34 3d
       -0.11865219 -0.09427323 -0.13732252 0.044101566
000150 cc 3c 92 3c 24 91 4f be 48 2f 3e be d0 26 d7 bd
       0.017851256 -0.2027021 -0.18572724 -0.1050545
000160 2a 6a 81 be ed 8b 4e 3e d2 c6 4f be c1 24 d4 bb
       -0.2527631 0.20170565 -0.20290688 -0.006474108
000170 8c 91 91 bc 86 45 7c 3f fc 63 b8 3d cc 8c ea 3d
       -0.017769597 0.98543584 0.090034455 0.11452636
000180 17 fd f2 3e 27 29 cc 3e c9 fb 32 be dd 10 18 bf
       0.47458717 0.39875147 -0.17478861 -0.5940073
000190 a7 a4 c7 3e 85 89 ef bd 49 98 fd 3e 6f 2e bd be
       0.38992807 -0.11696152 0.49530247 -0.3694949
0001a0 51 b8 f8 3e 0a 51 82 3e 5b 34 25 3f 91 c1 da 3e
       0.48578122 0.25452453 0.64533013 0.42725804
0001b0 8d 55 e7 3e c7 99 3c be 86 f9 3a be f3 25 c9 3e
       0.45182458 -0.18418036 -0.18259248 0.39286765
0001c0 ff 4d 36 3f e9 6c b9 3e db 7a c9 be 73 39 e5 3e
       0.7121276 0.36215904 -0.39351544 0.44770393
0001d0 d7 47 64 be 2a 9e 81 3e 3e 4e a9 be cd cf e0 3e
       -0.2229303 0.25315982 -0.33067507 0.4390854
0001e0 32 74 99 be a3 c8 81 be 33 ab 92 be 46 44 fd be
       -0.29971462 -0.25348386 -0.2864624 -0.4946615
0001f0 35 47 f4 3e 18 f7 cb 3e a0 7a 29 3e 88 58 b0 3e
       0.47710577 0.39836955 0.16550684 0.34442544
000200 22 6e f9 3e a9 9c be 3e c6 81 0c be e6 67 fe be
       0.48716837 0.37228897 -0.1372138 -0.49688643
000210 27 9e 18 3f 5b 0a 02 be 3c 37 cd 3e c2 25 c7 bd
       0.5961632 -0.12699263 0.40081203 -0.097239986
000220 03 33 2a 3f f8 5d 20 3f db ed 33 3f 94 78 02 3f
       0.6648409 0.62643385 0.70284814 0.5096524
000230 ff 46 e1 3e 15 51 fc be 91 48 e7 bd 63 be a7 3e
       0.43999478 -0.4928061 -0.11293138 0.3276244
000240 03 0c 1d 3f a4 21 99 3e 97 57 45 be 6b 0d c8 3e
       0.61346453 0.29908478 -0.19271694 0.39072737
000250 2c 41 ae be 2e 7f 7a 3e 43 95 b2 be 77 5b 07 3f
       -0.34034097 0.24462578 -0.34879503 0.5287394
000260 c8 3d 22 bf 64 b8 c0 be e1 c0 c4 be 4b 12 01 bf
       -0.6337552 -0.3764068 -0.38428405 -0.5041854
000270 55 03 b7 3e 02 7d ad 3d 50 c2 0c 3f 79 4b 00 3f
       0.3574473 0.08471109 0.54984 0.5011516
000280 a9 aa 13 3d a6 85 11 bf af 66 09 3e 59 36 d1 3d
       0.036051426 -0.56844556 0.13418077 0.10215444
000290 35 b8 9f bd 87 81 b6 3d 6c 9f af 3c da 6f 2e be
       -0.077988066 0.08911424 0.021438323 -0.17034855
0002a0 80 e0 88 3d c2 14 9c 3a 5d dd 0c ba 71 8c 5b bd
       0.06683445 0.0011908042 -0.0005373562 -0.053600732
0002b0 f2 7b 33 be 73 6c 49 bd 4f f3 96 be bf dc bf 3d
       -0.1752775 -0.04917569 -0.29482505 0.09368276
0002c0 a7 f2 68 3e 1c 60 43 bd 8e 2c 49 be 37 30 1c 3d
       0.22748815 -0.04769908 -0.19645903 0.03813192
0002d0 b1 0e fa 3e 10 d9 73 3e 82 77 57 3a 86 58 f7 3b
       0.48839334 0.23813272 0.0008219407 0.0075483946
0002e0 81 63 23 3d 7d a6 62 bf 35 87 92 3e da 4c 9a 3d
       0.039889816 -0.8853529 0.2861878 0.075341895
0002f0 77 d3 dc bc c7 25 37 be 67 c3 5c be 3c 26 50 3d
       -0.026956303 -0.17885505 -0.21558915 0.050817713
000300 bf 9b 8c 3e 7a e2 9c 3b b4 23 26 bf 92 a6 5f bd
       0.27462575 0.0047877403 -0.6489823 -0.054602213
000310 29 71 3c 3d 30 72 ff bd 8b d6 9d 3d 8d 14 52 3d
       0.046006355 -0.124729514 0.077069364 0.05128913
000320 35 57 7d 3e e8 f4 ba 3d f6 6c 45 3e d9 51 54 be
       0.24740298 0.091287434 0.19279847 -0.20734347
000330 a3 f1 db be 0c a1 ab bd 75 a6 c2 3e 0d 16 5f 3e
       -0.42957792 -0.08380327 0.38017622 0.21785755
000340 6d 9f b7 3e e2 3a 29 be 19 de a3 3e c2 c9 0a 3e
       0.3586382 -0.16526368 0.32005385 0.13553527
000350 a7 e8 fa be 3b 17 39 bd ab 32 89 be 0c 8e 6b 3e
       -0.49005625 -0.04518817 -0.2679647 0.23003405
000360 94 43 0f be c7 0c 91 bf 61 92 6f be ef 4f 2a be
       -0.13990623 -1.1332024 -0.23395683 -0.16632055
000370 23 0c f6 3c db 18 35 bf ca cb 85 bd 26 28 0f be
       0.030035084 -0.7074105 -0.0653301 -0.13980159
000380 27 3c 02 3e 80 3c 8c 3e 53 fd c0 be 1a fd c7 be
       0.12718259 0.27389908 -0.3769327 -0.3906029
000390 8e 34 c0 3e e1 4e e3 bd 18 fd f9 3e 9b 3a 0f bf
       0.37540096 -0.11099029 0.48825908 -0.559488
0003a0 2e d7 13 3f 6b 42 8c 3e 44 75 c0 3e 0d 7a cb 3e
       0.57750213 0.27394423 0.37589467 0.39741555
0003b0 8d 7c ce 3e 89 f0 02 bf a8 f5 b1 be dd b6 7e 3e
       0.403294 -0.5114828 -0.34757733 0.24874444
0003c0 9b 1b eb 3d 30 38 db 3e 6d 45 4a bf 90 27 df 3e
       0.11479875 0.42816305 -0.79012185 0.4358487
0003d0 9e d9 29 be b2 bb 27 be 22 37 3c bf 6e cd b6 3e
       -0.1658692 -0.16380194 -0.73521626 0.35703605
0003e0 59 96 d9 be 76 2f 26 bf c4 8b 04 bf 72 5c de bd
       -0.4249752 -0.6491617 -0.51775765 -0.10857476
0003f0 f5 ba 73 3e d3 79 96 3e f2 ea 01 3f 27 55 ee 3e
       0.23801787 0.2938982 0.50749123 0.4654934

backbone_lstm1.bias_ih_l0 f4 [128]
000000 bb 2f 61 3f bd a5 30 be 83 02 cf bd 0c 64 e9 3e
       0.87963456 -0.17250724 -0.10107901 0.45584142
000010 a1 5e 48 3f b0 7f 1c bd a7 0f 14 3e 4d 80 1f 3f
       0.7826939 -0.03820771 0.14459096 0.62305146
000020 46 22 28 3f fc 63 2b 3f 20 41 5b 3f 0e db 55 3e
       0.656773 0.6694944 0.8564625 0.20884344
000030 da 6e bf bd 65 2b 25 3f 92 44 4f bd 72 c3 10 3f
       -0.09347315 0.6451934 -0.050602503 0.56548226
000040 a1 30 45 3f 1d e4 1f 3f f5 c1 8b bd b2 69 41 3f
       0.77027327 0.6245745 -0.06824104 0.75551903
000050 4b 6e b8 3d e8 f6 0c 3f 9c 53 a1 3e b6 a8 45 3f
       0.09005412 0.5506425 0.315091 0.7721056
000060 42 8e 4c 3f ec 1a 08 be de 7f dc 3e c0 8e 0a 3f
       0.7990457 -0.1329152 0.43066305 0.5412407
000070 76 2e 8f 3d b1 9b 8d 3f 93 f8 0a 3f 7e db b3 bc
       0.069912836 1.1063138 0.54285544 -0.021955248
000080 b9 00 da 3e bb 34 6c bd 40 86 8b bd 59 c3 3f 3e
       0.42578676 -0.057667475 -0.068127155 0.18726863
000090 a6 db a4 3e 60 b6 b4 bd be 41 05 3f a4 05 05 be
       0.32198828 -0.08823848 0.5205344 -0.12990433
0000a0 a4 69 b4 3e eb a7 b1 3e f6 ef 0a 3f dd 65 bb 3d
       0.35236847 0.34698424 0.542724 0.09150288
0000b0 e6 dc b5 bd f3 f1 cd 3e ff c9 5a 3e 29 22 e5 3e
       -0.08880024 0.40223655 0.21366118 0.44752625
0000c0 b1 c1 29 3f f0 2d 73 3c 0e c1 5e 3e b8 35 f4 3e
       0.66311175 0.014842495 0.21753332 0.47697234
0000d0 a0 98 3d 3e 9d 5e e0 3e 6f 1e 28 3e a0 eb 9a 3e
       0.18515253 0.43822184 0.1641786 0.30257893
0000e0 42 ff c0 3e 0b 22 6b 3e 0d 64 98 3d 3b 25 ba 3b
       0.37694746 0.22962205 0.07440958 0.0056807077
0000f0 2b ee 72 3d 2d de c2 3d 58 7c 89 3e 73 f3 97 bc
       0.059309166 0.09515033 0.2685268 -0.018548703
000100 a1 91 54 3f 37 39 60 3e bf e0 11 bf 08 2a 09 bf
       0.8303471 0.21896826 -0.5698356 -0.5357976
000110 3a 40 12 3f 3d 6e 90 bd 0b c9 a7 3e a0 2c bd be
       0.5712925 -0.07052276 0.3277057 -0.3694811
000120 9a 86 15 3f 13 b1 0e 3f 6f 6b ce 3e de 98 e6 3d
       0.5840851 0.55738944 0.4031634 0.11259626
000130 9b 3a dc 3e 88 9e e5 be 32 8c 12 bb 53 fe 1f 3f
       0.43013462 -0.44847512 -0.0022361395 0.6249744
000140 16 12 27 3f 8b a1 15 3e e4 27 b0 3d c0 ab 02 3f
       0.6526197 0.14612405 0.086013585 0.5104332
000150 0a 5a 0c be 66 2c f2 3d a6 53 3f be d7 e3 23 3f
       -0.13706222 0.118248746 -0.18684253 0.6401953
000160 ff dc 06 bf 7d 4a 9b ba 6b 1f 12 bf ad 2b 1b bf
       -0.52680963 -0.0011847761 -0.5707919 -0.6061352
000170 4f e8 2d 3e 86 aa 89 3e bf fc ca 3e 9b 8e 85 3e
       0.1698315 0.26887912 0.39645955 0.26085362
000180 b1 22 22 3e e1 ec c4 3d 72 6a ce bd 37 70 eb bd
       0.15833546 0.096154936 -0.100788966 -0.11496013
000190 7c 17 fc bc 69 04 93 3e dd 7e 41 3e fd fa 0c 3c
       -0.030772917 0.28714302 0.18896051 0.008604762
0001a0 0e 0f 37 3e c7 df a7 3c ad b3 f3 bd 1b 31 9e 3d
       0.17876837 0.020492448 -0.11899505 0.0772421
0001b0 fd 0c 3f 3d d7 5b 5f 3d 13 8d 60 bd c4 e3 11 3e
       0.046643246 0.054530945 -0.05482204 0.14247042
0001c0 7e e1 f8 3c 57 11 0e be 0c 63 f2 3a 02 92 ad 3c
       0.03038096 -0.13873802 0.0018492653 0.021187786
0001d0 e3 d9 5b 3d 04 a5 29 3d b9 bb 4d 3e e5 ab c8 bd
       0.05367459 0.041417137 0.20091142 -0.09798411
0001e0 62 23 03 3e 2e 4a 13 3d 65 56 43 3e 67 6c c5 bd
       0.12806466 0.035959415 0.19075926 -0.09639817
0001f0 a5 87 f6 bd f5 d7 42 be 92 eb 30 3e 2e 78 b8 bd
       -0.12037591 -0.19027694 0.17277363 -0.090072975

backbone_lstm1.bias_hh_l0 f4 [128]
000000 50 e1 60 3f 9a 53 8e be 0f 0e ff 3d e7 7d ee 3e
       0.878438 -0.27798158 0.12453853 0.4658043
000010 40 a3 47 3f f9 49 c0 3d e0 eb 9c 3e 1a cc 26 3f
       0.77983475 0.09389109 0.30648708 0.65155184
000020 0d a0 e7 3e 61 e4 73 3f 5d c3 60 3f 57 1f 1b 3e
       0.45239297 0.95270354 0.877981 0.15148674
000030 f2 30 42 3e 80 18 24 3f 31 42 6f 3c 24 e3 12 3f
       0.18963984 0.64099884 0.014603184 0.5737784
000040 8e 17 57 3f 6f f4 3e 3f 13 6b 68 bd fa 0e 3e 3f
       0.84020317 0.74591726 -0.05674274 0.742416
000050 33 48 1b be b4 5c ed 3e 6e 80 03 3f bd 50 25 3f
       -0.1516426 0.4635979 0.51367843 0.6457632
000060 f8 98 52 3f 3d 8c 9a 3c d8 4c af 3e 08 2d 39 3f
       0.8226466 0.018865699 0.34238315 0.7233434
000070 74 77 70 3d 05 b5 7d 3f 5e 93 08 3f 0d df 95 3e
       0.05870767 0.9910434 0.53349864 0.29271737
000080 8c 76 f7 3e 0e 8f 8b bd ca cc a4 bd c4 93 74 3e
       0.48332632 -0.06814395 -0.08046873 0.23884493
000090 0f 6e df 3e c4 4d 95 3d 9d 62 0c 3f ab 49 0b bd
       0.43638656 0.07290223 0.5483797 -0.034005802
0000a0 bf e2 ca 3d 77 3d 9d 3e 90 c3 1b 3f d3 41 bd 3c
       0.0990653 0.30710956 0.6084528 0.023102676
0000b0 b5 3d e6 3d 95 a3 d6 3e 73 9b 29 3e b7 0d fa 3e
       0.112422384 0.41921678 0.16563205 0.4883859
0000c0 a7 cd 33 3f 81 d1 f9 3d 61 1e 6b ba 57 47 e1 3e
       0.70235676 0.12198163 -0.00089690654 0.4399974
0000d0 18 62 39 3d be f7 d1 3e 71 c6 70 3e f3 67 11 3f
       0.045259565 0.41009325 0.235132 0.5679924
0000e0 13 23 0b 3f 3d 7c 3a 3e df 85 be 3d 4c 8b 69 3e
       0.54350394 0.18211456 0.09302878 0.22807044
0000f0 da c4 44 3e e9 1a 07 3e 12 58 92 3e a4 b8 76 3e
       0.19215718 0.13193859 0.28582817 0.24093872
000100 b3 6c 64 3f 21 87 40 3e 98 2d 88 be ab 7c 1c bf
       0.8922836 0.18801548 -0.26597285 -0.6112773
000110 a2 ea d2 3e 35 b3 ab be e3 73 82 3e e9 4b 9e bd
       0.41194636 -0.33535162 0.2547904 -0.077293225
000120 24 45 1b 3f c8 10 3f 3f 72 de d7 3e 69 fd e0 3d
       0.60652375 0.7463498 0.421619 0.10985834
000130 5d 26 0c 3f 8e 19 dd be 0e 44 34 3e 06 38 d4 3e
       0.5474604 -0.4318356 0.17604086 0.41448992
000140 f1 f2 1c 3f 7e c1 a5 3e f2 f3 30 3c 81 5a 14 3f
       0.613082 0.32374185 0.010800349 0.579506
000150 e5 9c 76 be 90 c4 53 3d b2 fe 16 3d ec 24 14 3f
       -0.24083288 0.05170113 0.03686399 0.5786884
000160 13 77 1d bf eb 35 8e be 38 17 f4 be 8f 5b d1 be
       -0.6150982 -0.2777551 -0.47673965 -0.40890166
000170 d8 d8 e7 3d 4b 70 80 3e 53 13 1b 3f 5f f8 ad 3e
       0.113206565 0.25085673 0.6057636 0.33978555
000180 a8 b1 43 3e 17 3c dc bd f4 88 8e 3d eb 09 81 bd
       0.19110739 -0.10753649 0.069597155 -0.0630072
000190 5c f4 3e 3d 91 b0 70 3d 8e d4 fb 3c 6d b3 2f 3e
       0.046619758 0.058762137 0.030741002 0.17158289
0001a0 56 be a5 bd 8b f1 43 3d fb c1 47 be 82 34 ff 3d
       -0.08092944 0.047837775 -0.19507591 0.12461187
0001b0 dd 06 5d 3e 51 9a 2b 3d 7f 19 5f 3d 21 35 69 3c
       0.2158465 0.041895214 0.054467674 0.014233858
0001c0 66 e8 8a bd ec 79 5f be 2e 6b 29 be 64 31 1a 3e
       -0.06782608 -0.21823853 -0.16544792 0.15057904
0001d0 e4 57 11 be d7 da 1c be fc 6a 24 3e 92 bb 57 3e
       -0.14193684 -0.15317856 0.16056436 0.21067646
0001e0 8d 14 01 bd 4d 81 43 be 1b a4 4f 3d 4f fe c1 bd
       -0.03151374 -0.19092293 0.050693613 -0.09472334
0001f0 91 ca 92 3d 31 c4 4a be 2e 4f 98 3d 41 2a 27 be
       0.07167543 -0.19801404 0.07436977 -0.16324712

backbone_lstm2.weight_ih_l0 f4 [64, 32]
000000 1b 50 06 be 4a d5 6a 3e 94 a2 ef 3d fa e6 9e 3d
       -0.13116495 0.22932926 0.11700931 0.07758899
000010 0b 49 04 3e 3d e2 aa 3d ab 09 94 be a9 6a 8e 3e
       0.12918489 0.08343933 -0.28913626 0.2781575
000020 5a 5c 53 bd 32 f9 8a be 3f 68 af 3d f3 d8 b8 3e
       -0.051601745 -0.27143246 0.08564805 0.3610302
000030 6c 7d 1b be 7c a8 2b 3e 91 2c eb 3c ef ef 53 3d
       -0.15184563 0.1676349 0.028707774 0.05174249
000040 ac 90 db bd 45 ca 9e be d5 69 22 3d f7 ce 14 be
       -0.10720953 -0.31013694 0.03965171 -0.14532076
000050 70 25 94 3e d9 fc 9d bd 4d 70 a0 3d eb 32 62 be
       0.28934813 -0.077142425 0.0783392 -0.22089736
000060 b6 fe 14 3e ec 2f 80 3e 35 68 99 3e 80 b6 e5 3d
       0.1455029 0.2503656 0.29962316 0.1121645
000070 b3 53 38 be 80 3c d1 bb 15 38 7e be 4e 64 c3 be
       -0.18000679 -0.006385386 -0.24826081 -0.38162464
000080 cb ed 18 3e 75 aa 20 bf 99 59 69 3e 76 ab 20 be
       0.14934461 -0.62760097 0.22788085 -0.15690407
000090 c0 b9 41 3e de 4b 07 3f b4 c2 9d be 39 ce 45 be
       0.18918514 0.5285014 -0.3081261 -0.19316949
0000a0 d9 7d 6a 3c ae ee 28 3d 8a 25 05 be c6 60 62 be
       0.014312231 0.041243248 -0.13002601 -0.22107229
0000b0 82 ee 56 3e b3 9a 03 be 6a fc c1 be 3a eb 5a 3e
       0.20989421 -0.12851982 -0.3788789 0.21378794
0000c0 25 11 1c be 07 e4 4a 3e 22 15 42 bd 5d ae eb 3d
       -0.15240915 0.19813548 -0.047383435 0.115078665
0000d0 44 2c 59 3f 4d 45 15 3d 47 82 69 3c ee c4 73 bd
       0.8483317 0.036443044 0.014252252 -0.05951398
0000e0 f5 96 3d 3d c2 c6 d9 3e cc b4 6e 3c 24 4c d6 bd
       0.046286542 0.42534453 0.0145694725 -0.104637414
0000f0 7b 3b 2d bf 65 a3 ee bb c9 7f de 3d df f3 3e be
       -0.67668885 -0.0072826617 0.10864217 -0.18647717
000100 60 5d 66 3d 29 eb 0e 3e 5b 60 a2 be 3c dc ef bd
       0.056241393 0.13956894 -0.31714138 -0.11711928
000110 43 59 bb 3e c6 51 ae be c5 4c 71 3c 52 58 2e be
       0.3659154 -0.34046763 0.014727776 -0.17025879
000120 ae 66 da bc 7c ab 84 3e c2 95 59 be 8f a8 16 be
       -0.02666029 0.25912082 -0.21248534 -0.14712738
000130 4e 07 c6 3c 91 a6 41 3d 0b 29 94 3c cd 55 16 bd
       0.024173405 0.04727799 0.018085977 -0.03670292
000140 e7 0b 01 3e 4a 56 fd 3b c9 16 d5 bd 5c ab 12 be
       0.12602197 0.0077312337 -0.104047365 -0.14323181
000150 f3 e9 fd bd 9e 77 2e 3e 66 4e 13 be 96 c8 8a bd
       -0.12398138 0.17037818 -0.14385375 -0.0677654
000160 85 21 2d 3d 73 f2 87 3e 9a a4 06 3e 23 ed 2e be
       0.042268295 0.26552162 0.13148728 -0.17082648
000170 d5 1b 59 3d ed f5 d8 be e1 6e e6 bd 94 62 71 3d
       0.05300506 -0.42375126 -0.11251617 0.058931902
000180 30 5b 40 be bc bf 08 3e fa c6 26 3d 9f cb bb 3e
       -0.18784785 0.13354391 0.040717103 0.36678788
000190 de a1 28 3e ee d7 7e 3e eb bd 5c be 64 f8 dc 3e
       0.16467997 0.24887058 -0.21556823 0.43158257
0001a0 eb 69 46 bd 25 bf f0 bd 2d 53 f1 be 53 a4 6b 3f
       -0.048440855 -0.11755208 -0.4713377 0.92047614
0001b0 02 f5 94 bc d2 0e a4 3e 20 6f 7d 3e c1 82 c5 3d
       -0.018183235 0.32042557 0.24749422 0.0964408
0001c0 9a b0 18 be 83 f5 34 be cc 00 20 3e 1e 12 07 be
       -0.14911118 -0.1767178 0.15625304 -0.13190505
0001d0 cc ef 00 3f 80 9b a8 be a8 f0 6e 3e 49 71 4b bd
       0.503659 -0.32931137 0.2333399 -0.049668584
0001e0 69 ca 17 3e 1f 70 80 3e f7 2a 08 be b7 51 10 3e
       0.14823307 0.25085542 -0.1329764 0.14093672
0001f0 eb 9e 8b be bb 2b 5c bd e4 85 b3 be 6d 71 34 be
       -0.27269682 -0.053752642 -0.35063088 -0.17621394
000200 47 0f 8d 3e f4 b8 47 be 04 d2 85 3d cb c8 1f be
       0.27550718 -0.19504148 0.06534198 -0.1560394
000210 0a 74 52 3e 6e 20 a9 3e c3 8c 95 3e ab 11 47 be
       0.20552078 0.33032554 0.29208955 -0.19440334
000220 01 38 c5 3d ab af de bc e1 50 76 bd a9 ab b1 be
       0.096298225 -0.027183374 -0.060135726 -0.3470128
000230 a2 43 ac 3e 47 6b 93 be 4b be 38 bf 6e e2 12 3e
       0.3364535 -0.28792784 -0.72165364 0.14344189
000240 f0 90 51 3d 29 b7 3a 3d 1d 98 d7 be 2f a7 86 ba
       0.051163614 0.04558483 -0.4210824 -0.0010273213
000250 8e 24 88 bd 03 8e e2 3d 1e 76 8f 3d 4e 29 a6 3e
       -0.06647597 0.11062243 0.07004951 0.32453388
000260 39 3f 4e bd 0e b9 3d be 07 4c d9 be d5 88 09 3e
       -0.050353263 -0.18527624 -0.42440817 0.13431104
000270 0d 17 86 bd 9c 7d cd be b0 4e 64 3e 1b 38 58 3e
       -0.06547365 -0.40134895 0.22295642 0.21115153
000280 7d f2 28 3e 2a 04 86 be 0e c1 78 bd db 34 b9 bd
       0.16498752 -0.26175052 -0.060730986 -0.090432845
000290 bf b5 42 3d 6d 14 ac 3d 8a d8 af 3e a6 b5 26 be
       0.047536608 0.084023334 0.34344894 -0.16280231
0002a0 14 2a 8f 3d f0 11 f2 bd c9 5f 92 be 40 1a f8 3d
       0.06990448 -0.118198276 -0.28588703 0.12114382
0002b0 31 b1 31 3e 3a b1 98 bd a1 ed 14 be 68 ff da be
       0.1735275 -0.07455678 -0.14543773 -0.42772985
0002c0 1c e7 61 be 3e 81 15 3e e2 81 de be ad 6a b6 3d
       -0.22060817 0.14600083 -0.43458468 0.089070655
0002d0 c6 28 11 be ad 0f 1d 3e 48 22 15 bc 1b dd 50 bc
       -0.1417571 0.15338011 -0.009102412 -0.012748028
0002e0 1b 75 87 3d bc 1b 3c 3e fa 66 ae be 7d 53 8a be
       0.06614133 0.18369955 -0.3406294 -0.27016822
0002f0 88 e9 49 3e 79 f5 6d bd 1e 69 b7 3e 58 38 0d 3e
       0.19717991 -0.05809543 0.35822386 0.13791025
000300 f6 38 b8 be ea e5 a9 bf 65 96 16 3f ce ec 6b 3e
       -0.35980958 -1.3273289 0.58823234 0.23039553
000310 f7 07 d4 be 4b 6a 65 3e 5f 06 09 bf b8 56 3a bd
       -0.41412327 0.22403829 -0.53525347 -0.045492858
000320 22 9a ab be a7 7a 98 bd 4d fe 1c bf db c0 74 bf
       -0.33516032 -0.07445269 -0.6132553 -0.95606774
000330 85 48 a1 3e 3d 5f 04 3f 1e dd 09 bf 85 e7 a2 be
       0.3150064 0.5170782 -0.53853023 -0.3181726
000340 b2 02 2e bf 0c c4 4a 3e 51 bb 9b be bf 9b f8 be
       -0.6797286 0.19801348 -0.3041635 -0.48556325
000350 2a 21 04 3e 45 ed 9d be 39 85 12 3e 2d 63 18 be
       0.12903276 -0.30845085 0.14308633 -0.14881583
000360 a3 ef 1a 3f 74 23 3f bf ed 4c e9 3d 6e 16 57 3c
       0.60521907 -0.7466347 0.113916256 0.013127906
000370 7e b0 e1 bd ae 65 99 be c6 95 bd bc 1e 08 98 bc
       -0.11019991 -0.29960388 -0.023142707 -0.018558558
000380 15 d3 97 be 59 f0 72 3d b6 9c 80 3f ba 5f 91 3e
       -0.2965323 0.059311245 1.0047824 0.28393346
000390 18 b6 d9 be 27 58 dc 3e ef 85 cb bd 85 0e 39 3e
       -0.4252174 0.43036005 -0.09937655 0.18071945
0003a0 77 4c 7e be 40 85 a9 be f2 69 35 bf b2 ff e2 bf
       -0.24833857 -0.33109474 -0.70864785 -1.7734282
0003b0 0e 00 d8 be 65 3d a2 3e dd a3 7c 3d a7 21 6b be
       -0.42187542 0.31687465 0.06167971 -0.22962056
0003c0 92 1e a2 be 6a 59 e8 bd 64 34 e7 3d 3c a5 d6 be
       -0.31663948 -0.113451794 0.112892896 -0.4192294
0003d0 f7 ea a0 3c 11 e7 02 be 99 cc 98 3d ec 51 80 be
       0.01964329 -0.12783457 0.07460899 -0.250625
0003e0 0c d9 78 3e 24 f5 b1 3e 58 83 bd 3e 96 15 48 3e
       0.24301547 0.3475734 0.3701427 0.19539484
0003f0 82 90 8a bc b1 1a db bf da a5 c1 be e6 62 15 be
       -0.01691461 -1.711752 -0.37821847 -0.14588508

backbone_lstm2.weight_hh_l0 f4 [64, 16]
000000 25 54 23 bf d4 0b 8f 3e 22 de f2 3e 3b 22 9c 3e
       -0.6380027 0.27938712 0.474351 0.30494866
000010 37 12 9b bd d4 6b a6 3e 2c c3 b9 be db b9 81 bf
       -0.075718336 0.3250414 -0.36281717 -1.0134844
000020 50 56 35 bf 93 8a 64 3e 3c f9 59 3e 9b 6b c7 3e
       -0.7083483 0.22318487 0.21286482 0.38949284
000030 6a 36 a8 bd 6b 12 3a 3f 3d f9 86 3e 3b 4f 9f be
       -0.08213504 0.72684354 0.2636203 -0.31115136
000040 53 bc 3f be cd 9e 29 bd 40 b3 f8 be 99 49 c4 be
       -0.18724184 -0.04141121 -0.48574257 -0.383374
000050 44 c7 2d 3e 73 3b af 3e a7 f6 8e 3c 82 4a 3e bf
       0.16970545 0.34225044 0.017451597 -0.7433244
000060 d6 76 77 3e ba cb d2 bd 69 ed 45 bd 97 69 ac 3e
       0.24166426 -0.10292764 -0.048322115 0.3367431
000070 5e 9f c1 3d af 84 98 3d cc 89 06 bb 2d 42 96 3e
       0.09454225 0.074471824 -0.002052891 0.29347363
000080 19 fa a2 3e f7 8a 7c be 26 de 03 bf 90 04 39 bd
       0.31831434 -0.24662386 -0.51510847 -0.045170367
000090 b4 a9 64 bd 8f 7b d2 3d d2 19 30 3f b7 8c 11 3f
       -0.055825904 0.10277473 0.687894 0.5685534
0000a0 7b 7d 6c be ff be d5 3e 4a 9a 8e 3f c9 ea 2b 3e
       -0.23094742 0.4174728 1.1140835 0.16788782
0000b0 21 2b 84 be e7 7a 58 3f ff be 71 3e 20 d4 7a 3d
       -0.25814155 0.84562534 0.23608015 0.061237454
0000c0 bd 1e bd bc 5e d5 cf 3e 5b d0 19 bd 78 5d bc bd
       -0.023085946 0.40592474 -0.03755222 -0.09197515
0000d0 55 e1 81 be 66 b2 d9 3c 99 cc e5 3e 2b 5c 31 3e
       -0.25367227 0.026574325 0.44882658 0.17320316
0000e0 ad 96 20 be f5 9b 1a 3e e5 7e 28 3f 1f d7 22 3e
       -0.15682478 0.15098555 0.65818626 0.15902375
0000f0 43 81 e3 bd d3 e1 39 3f f9 de d0 3d ec 5f 60 3e
       -0.11108639 0.72610205 0.10198779 0.21911591
000100 93 04 35 be c2 0f 98 be 94 da da bc c6 48 aa be
       -0.17677526 -0.29699522 -0.026715554 -0.33258647
000110 68 8a d1 bd 4f 6a 2a bf c7 3c 89 3f fd 3b cd be
       -0.10231477 -0.66568464 1.0721673 -0.4008483
000120 dd e5 8d 3c 50 fc 57 3e fc 51 3a 3e 57 15 e2 3e
       0.017321521 0.21092343 0.18195337 0.44156906
000130 08 7d 0c b9 83 c7 f7 3e 65 14 fc 3e f1 4a 30 be
       -0.00013398018 0.48394403 0.4923431 -0.17216088
000140 76 c3 5d 3e 17 eb 1a be 09 61 88 be 6c a5 6a be
       0.21656594 -0.15128742 -0.26636532 -0.22914666
000150 bf 9f 3a be b9 c4 0f be 7c 2b 53 3f 1d a6 a6 3d
       -0.18225001 -0.14039887 0.82488227 0.08137152
000160 1e d0 94 be de 76 06 3d 5e 2c 92 be 04 e8 33 3e
       -0.2906503 0.032828204 -0.28549474 0.17568976
000170 b0 16 a7 be 7d 7f f4 bc 67 49 59 bd 4c 38 82 be
       -0.32634497 -0.029845947 -0.053048518 -0.25433576
000180 ae 48 04 3f 39 ca b2 bd 19 f7 eb 3d d6 a6 14 3e
       0.516734 -0.08729977 0.115217395 0.14516768
000190 56 fd e1 be 00 60 f0 be 1f 65 12 3e a6 e1 53 bf
       -0.44138592 -0.46948242 0.14296387 -0.8276619
0001a0 3c 9e 3f 3e e3 ab 0e be 21 07 e6 be 60 af 4b 3f
       0.18712705 -0.13932757 -0.44927314 0.79564476
0001b0 53 dc a9 3e f2 90 77 be aa c8 a3 be 74 a1 6f 3d
       0.33175907 -0.24176386 -0.31989032 0.058503583
0001c0 dd f2 c7 be 91 c0 75 bf 0e 0b 04 bd 08 8e 8d bd
       -0.39052477 -0.9599696 -0.032237105 -0.06911856
0001d0 77 c2 de 3c ef 32 12 3e dd 2f 86 3d 26 5b 4e 3f
       0.027192337 0.14277242 0.06552098 0.8060783
0001e0 21 ed 62 bc 9d 27 da 3d 54 30 37 bf ab ed 45 3e
       -0.013850481 0.10652087 -0.7155812 0.19328944
0001f0 88 cf 60 be 04 05 16 bf 84 92 1c bd 97 87 c0 3d
       -0.21954167 -0.58601403 -0.038225666 0.09400862
000200 d6 26 ba be a5 e1 a5 bd c1 30 90 3d 68 98 7e be
       -0.36357754 -0.08099679 0.07040549 -0.24862826
000210 80 96 3d 3e 93 df f4 3e 00 29 06 be f8 46 2b 3d
       0.18514442 0.47826824 -0.13101578 0.041815728
000220 e4 d8 96 3e 2f dd 0b 3e 1a 38 85 3f b4 f4 c3 3e
       0.2946235 0.13658594 1.0407746 0.3827263
000230 cf c4 28 be 24 6e 31 3f 45 1e 94 bd 02 8f b3 3d
       -0.16481327 0.69308686 -0.07232336 0.08767511
000240 f8 35 7e 3e b9 92 5c 3e 33 96 85 3e 70 49 a2 3d
       0.24825275 0.21540345 0.26091155 0.07924163
000250 0b ae 8e bd 1e 87 eb be a9 6f 21 3f 0d 52 34 bf
       -0.0696679 -0.46001524 0.63061005 -0.704377
000260 35 bd 2c be 23 6b d5 3e 27 51 91 3e d1 0f 1e 3f
       -0.16869052 0.416833 0.28382227 0.61742884
000270 8c 96 00 3f e6 c3 9d 3e d6 e2 fe 3e 55 ab 4f bc
       0.50229716 0.3081352 0.49782437 -0.012675126
000280 7e 52 25 bd 3e cd f6 be fd a7 e8 be f0 a0 cd bd
       -0.040361874 -0.48203462 -0.45440665 -0.10040462
000290 f6 26 6a 3e 95 98 bd 3e d2 7a 8d 3e e5 4b d8 bf
       0.22866425 0.37030473 0.27632767 -1.6898161
0002a0 6c b8 d9 3e e9 0e d1 bd a4 d0 ec 3e 03 f4 e6 3e
       0.42523515 -0.10207922 0.4625293 0.4510804
0002b0 20 37 45 be 8a 4b 32 bc c5 5b c2 be d9 4b 90 3e
       -0.1925931 -0.010882268 -0.3796064 0.28182867
0002c0 08 01 47 be 0c 43 a7 be d1 ff d5 bd f8 16 95 be
       -0.19433987 -0.3266834 -0.10449184 -0.29119086
0002d0 68 52 c7 bc de c2 c3 3d 0f 6e ee 3e 22 cb 08 be
       -0.024331287 0.09558652 0.46568343 -0.13358739
0002e0 1d 12 8c be 6a 55 c1 bd e5 2f ba be ee 41 09 3f
       -0.2735757 -0.094401196 -0.36364666 0.53616226
0002f0 54 2b 86 be 6a 85 9c be fe 4a bd bb fa ef 1c 3d
       -0.26204932 -0.30570537 -0.005776762 0.038314797
000300 57 7a 72 be 8f dd 9b 3e 64 fe a7 bd 4e 4b 36 be
       -0.23679481 0.30442473 -0.08202818 -0.17802164
000310 ed c4 aa 3d 6a 8c 2e 3c 9b f9 57 3f 86 11 39 be
       0.08338342 0.0106535945 0.8436524 -0.18073091
000320 95 09 13 be 2f ee ab 3d ad 98 5f be 3a fc af 3e
       -0.14359124 0.08395039 -0.21835585 0.3437212
000330 0c 15 a3 bd d4 48 6b be 71 56 90 be 3d 17 bf 3d
       -0.07962999 -0.22977 -0.2819095 0.09330604
000340 3e b4 dc be 1e d5 08 bf 5c e5 9b be 2f bc 78 be
       -0.43106264 -0.5345019 -0.30448425 -0.24290536
000350 c6 fc ae 3e 97 e3 82 3f 14 27 9c bd 35 58 f9 bf
       0.34177226 1.0225705 -0.07624641 -1.9480044
000360 88 e8 6c bd f7 25 01 bf 15 fd 1b 3f 73 50 47 3f
       -0.057838947 -0.50448555 0.6093305 0.7785713
000370 5d 6d 06 bf b7 5e 4c 3f ee 9d b9 be 39 30 f6 3e
       -0.52510625 0.79832023 -0.36253303 0.48083666
000380 b2 cb 45 be 2a c4 14 3c 81 d4 85 be 2f 76 23 bf
       -0.19315985 0.009079972 -0.2613869 -0.6385221
000390 2d 3a 87 be 6d d9 1a 3e a7 57 77 3e 90 36 ae be
       -0.26411572 0.15122004 0.2415453 -0.34026003
0003a0 77 c4 02 3f e5 be cc be 3a 0b 4e 3e 3f b8 61 3f
       0.5108103 -0.3998939 0.2012147 0.8817176
0003b0 84 67 5e 3d 78 1a 4b be fc ef 80 bd 86 32 71 3d
       0.05429794 -0.19834316 -0.062957734 0.058886074
0003c0 8c d0 f7 bd 93 a5 84 3e 0c ad e5 bd 07 83 1b be
       -0.12100324 0.25907573 -0.11214647 -0.15186702
0003d0 90 54 86 be a2 89 42 bd 4e 7d d3 3d 23 41 77 bd
       -0.2623639 -0.047494538 0.10326634 -0.060364854
0003e0 9e 3f 5e bd ad 2b 22 3e c9 d9 a2 3f e2 0c ce 3e
       -0.05425989 0.15836973 1.2722713 0.40244204
0003f0 16 62 05 bc 18 e5 2e 3f 5b 97 55 be 9e 04 23 3f
       -0.008141061 0.6831832 -0.20858519 0.6367892

backbone_lstm2.bias_ih_l0 f4 [64]
000000 f5 31 b2 be b5 ac bd be 47 ad 3e be ee 7f 17 bf
       -0.3480374 -0.37045828 -0.18620788 -0.5917958
000010 89 9f 41 3d 26 d8 fd be f3 ba 0b 3e 82 4e 7c be
       0.047271285 -0.4957897 0.13645534 -0.24639323
000020 44 f9 36 be 62 81 6e bc 27 47 3e be 66 76 1e bf
       -0.17868525 -0.014557214 -0.1858183 -0.6189941
000030 1d b7 1d bf f5 97 83 be 7c df f0 be cb 4c 61 3d
       -0.61607534 -0.25701872 -0.47045505 0.055004876
000040 35 04 9a 3e 81 7c 22 3f 21 98 2b be bb f5 4c 3d
       0.30081335 0.6347123 -0.16757251 0.050039034
000050 61 ba 23 be 85 1b 98 be c3 ed 06 3f 39 38 ae 3e
       -0.15989067 -0.29708496 0.52706546 0.3402727
000060 3e 33 2e 3e fa 70 a2 3e 00 c9 02 be c5 6f 8b 3e
       0.17011735 0.3172682 -0.12771988 0.2723371
000070 2c a8 da bd f4 7a 6b be 0e f4 a8 3e 3a 6b 9c bc
       -0.106766075 -0.22996122 0.329987 -0.019094098
000080 7a 60 0f bb f4 be 70 be 35 a2 16 3e 47 02 b4 bc
       -0.0021877573 -0.23510343 0.14710315 -0.021973742
000090 88 c8 8f bb 6a 7a 88 3d a0 6f 0f be f7 39 b3 3e
       -0.004387919 0.06663974 -0.14007425 0.3500516
0000a0 2c 66 d2 bd d2 60 5d bc d6 b8 f5 bc 4d 68 67 3e
       -0.10273394 -0.013511853 -0.029995363 0.22598381
0000b0 9d 57 96 bd a1 cf 85 3e 9a 80 81 3c e4 5e 21 3e
       -0.0734093 0.2613497 0.015808392 0.15758854
0000c0 8b 55 82 3e dd f6 54 bf 64 95 ce 3c 6d 66 51 3f
       0.2545589 -0.83189183 0.02521772 0.81796914
0000d0 d4 23 f9 be 6e 3f a4 be a5 d3 89 be d1 91 0d be
       -0.48660147 -0.32079643 -0.26919284 -0.13825156
0000e0 06 4f 9e bd 2d ef fc be c4 e8 06 bf ce 79 b2 bd
       -0.07729916 -0.49401227 -0.5269892 -0.08714639
0000f0 f8 22 de be 39 99 f5 be 43 37 ab be db c3 b5 bd
       -0.43386054 -0.47968462 -0.334406 -0.08875247

backbone_lstm2.bias_hh_l0 f4 [64]
000000 9b 82 07 bf 25 17 74 be 34 bc 33 3c cc fa 05 bf
       -0.52933663 -0.23836954 0.010970164 -0.5233581
000010 e1 40 63 be 5a 05 05 bf b7 5d 8e be 21 ba af be
       -0.22192718 -0.5196129 -0.27805874 -0.34321693
000020 cd 85 80 bd b4 af cf 3e 95 2b e7 be 90 0e 09 bf
       -0.062755205 0.40563738 -0.45150438 -0.53537846
000030 80 e1 2d be ec 10 c2 be b2 85 71 bd 86 f7 bd be
       -0.16980553 -0.37903535 -0.058965392 -0.37102908
000040 08 2a a0 3d 99 7d 05 3f 4a c0 99 3c 9c 65 3c 3d
       0.07820517 0.5214477 0.018768448 0.04599534
000050 f6 10 eb ba 4d c0 9b 3d 21 34 41 3f 5d be 91 3e
       -0.0017934132 0.07605038 0.7547017 0.28465548
000060 2b 9c d7 3e 27 bf 7f 3e 73 3d b3 3e f2 55 8d 3e
       0.42111334 0.24975263 0.3500782 0.27604634
000070 d7 8f 06 be 1c de bf bd 74 6f b3 3e 9f 29 2f bd
       -0.13140808 -0.09368536 0.3504597 -0.042764302
000080 18 c2 16 3d 5c ca 65 be 37 1e 8e 3d fd 34 a1 3e
       0.036806196 -0.22440475 0.06939357 0.3148574
000090 9b 9d 06 3e c0 af 8f 3e c2 aa 7a 3d 9c 3a 38 3e
       0.13146059 0.28063774 0.061198004 0.17991108
0000a0 a0 da 68 bd 78 87 ae 3e 6a 5e b1 3e da 7a df bc
       -0.056849122 0.3408773 0.34642345 -0.02728026
0000b0 a0 91 78 be 94 c5 3b 3e 66 0e a3 be 6d 69 54 be
       -0.24274302 0.18337089 -0.31846923 -0.20743342
0000c0 c6 a1 88 3e d2 47 15 bf ad 52 1a 3d 39 c2 38 3f
       0.26685923 -0.58312714 0.037676502 0.7217136
0000d0 4d a0 2c bf ed eb d3 bd cc c7 d7 be 5e 48 e7 bd
       -0.674321 -0.10347734 -0.4214462 -0.112931
0000e0 42 26 71 3c dd 4e eb be b2 72 0a bf 24 3a 74 3c
       0.014718594 -0.45958605 -0.5408126 0.01490644
0000f0 f4 19 0f 3d a9 0d e2 be 69 f8 00 bf cf 06 50 be
       0.03493686 -0.44151047 -0.50379044 -0.20315097

fc.weight f4 [1, 16]
000000 b7 e0 6b 40 03 10 78 40 c5 4f 7d 40 58 bf 75 40
       3.6855905 3.8759773 3.9579937 3.8398037
000010 9b 23 84 c0 32 3a 25 c0 62 1a 0b c0 4a 5a 75 bf
       -4.1293464 -2.581677 -2.1734853 -0.95840895
000020 2a 7e b4 c0 b1 7e 82 40 01 b8 bf 40 8d 1c 23 c0
       -5.640401 4.0779653 5.9912114 -2.5486176
000030 6a ab 28 40 ec 06 b3 40 81 36 74 40 22 42 7d c0
       2.6354623 5.594595 3.8158267 -3.9571614
