notebooks/lstm_backbone.pth (torch, 50789 bytes, 9 tensors)

backbone_lstm1.weight_ih_l0 f4 [128, 32]
0	0x3d1b8d48	0.037976533
1	0x3e77c9e6	0.24198112
2	0x3e38becc	0.18041533
3	0xbe308220	-0.17237139
4	0x3d24a038	0.04019186
5	0xbdf1f13f	-0.11813592
6	0x3e14a448	0.14515793
7	0xbd2b6a2d	-0.041849304
8	0xbda1889c	-0.07887384
9	0xbea4e804	-0.32208264
10	0xbe706daa	-0.23479334
11	0x3e650c28	0.22367918
12	0x3d1944cf	0.037419137
13	0xbe531524	-0.20613533
14	0xbe89a6a6	-0.26884955
15	0x3d38f40a	0.04515461
16	0x3d7e51e9	0.062089834
17	0xbab46237	-0.001376218
18	0x3e12a51e	0.143208
19	0x3dc82a15	0.097736515
20	0x3ea7a99d	0.32746592
21	0xbeab76c8	-0.3348906
22	0x3dbd387b	0.092392884
23	0x3d556328	0.052096516
24	0xbda13873	-0.07872095
25	0xbd1a0bbe	-0.037608854
26	0xbe574232	-0.21021345
27	0x3b85cae3	0.004083024
28	0x3c915775	0.017741898
29	0x3e778d49	0.2417499
30	0xbdf8c4c2	-0.121469036
31	0xbe1bd8df	-0.15219449
32	0x3e8c603f	0.2741718
33	0x3c55fadc	0.013060298
34	0x3ea0677b	0.3132895
35	0xbd0e38ff	-0.034722324
36	0x3e84e627	0.25956842
37	0xbea3656b	-0.31913313
38	0x3ea92d01	0.33042148
39	0x3e2a09d8	0.16605318
40	0xbe889862	-0.2667876
41	0xbe2c4154	-0.16821796
42	0xbd847777	-0.064680986
43	0x3e5369ea	0.20645872
44	0x3e1fec2f	0.1561744
45	0xbed8481a	-0.4224251
46	0xbe2d1ba9	-0.16905083
47	0xbddccf80	-0.10781765
48	0xbeed9392	-0.4640165
49	0x3ea5a2ff	0.3235092
50	0x3e7472e7	0.23871957
51	0x3e0e7412	0.13911465
52	0x3dcaa226	0.098942086
53	0xbe8d2268	-0.27565312
54	0x3f0a7008	0.54077196
55	0x3e0cfaf5	0.13767608
56	0x3e677738	0.22604072
57	0xbe8cccbd	-0.27499953
58	0xbe3246a3	-0.17409758
59	0xbce1583c	-0.027507894
60	0x3e1e6270	0.15467238
61	0x3e62909b	0.22125475
62	0xbea501a8	-0.32227826
63	0xbe9ea838	-0.30987716
64	0x3da8a7e6	0.08235149
65	0x3d828b6c	0.06374249
66	0xbc724d18	-0.014788888
67	0x3e3fc60c	0.18727893
68	0x3e6b59a1	0.2298341
69	0x3e8290b7	0.25501034
70	0xbe13a497	-0.14418255
71	0xbd2a39fe	-0.041559212
72	0x3ed1643c	0.40896785
73	0x3d2bf2a8	0.041979462
74	0xbe086cc1	-0.13322736
75	0xbc21998f	-0.009863271
76	0xbe66bef2	-0.22533777
77	0x3ea56647	0.32304594
78	0x3e90862b	0.28227362
79	0xbe3f9465	-0.18708952
80	0xbd7719e9	-0.060327444
81	0xbdc6d7fd	-0.09709165
82	0xbe4341b3	-0.19068031
83	0xbe3d8f7c	-0.18511766
84	0x3c97f481	0.018549206
85	0x3caf3c63	0.0213911
86	0xbdb7dfa5	-0.08978204
87	0xbd502513	-0.050816607
88	0x3edbb509	0.42911556
89	0xbe69d9a0	-0.22836924
90	0x3e6226d2	0.22085121
91	0x3e65b29c	0.22431415
92	0xbe355c11	-0.17710902
93	0x3ce0baf7	0.027432902
94	0xbe5f0086	-0.21777543
95	0xbdea9730	-0.11454618
96	0xbe910322	-0.28322703
97	0x3f125140	0.5715523
98	0xbefdd262	-0.49574572
99	0x3cf09fcd	0.029373074
100	0x3e15faf2	0.1464651
101	0xbecff935	-0.40619817
102	0x3c05c2c6	0.008164113
103	0xbeb45d30	-0.35227346
104	0xbdaaa74f	-0.08332693
105	0x3e31846a	0.17335668
106	0xbe67d000	-0.2263794
107	0xbe1818d8	-0.14853227
108	0xbd0d0bd3	-0.034435105
109	0x3da82d22	0.082117334
110	0xbe15b9ef	-0.1462171
111	0x3ea29216	0.3175208
112	0x3cc7f994	0.024411
113	0xbd984c41	-0.07436419
114	0xbf195ff0	-0.59912014
115	0xbe32c0b7	-0.17456327
116	0x3e0dc5cd	0.13844986
117	0x3d3509d9	0.044198845
118	0xbdb05670	-0.08610237
119	0xbd8ef172	-0.06979646
120	0x3eae7c66	0.34079283
121	0xbe8d0dc0	-0.27549553
122	0xbe91429d	-0.28371134
123	0x3e77b4fd	0.24190135
124	0xbb585f55	-0.0033015807
125	0xbea4028b	-0.3203319
126	0xbd3921e4	-0.045198336
127	0x3e2ecb87	0.17069827
128	0x3dbfad05	0.09359173
129	0x3e84e393	0.25954875
130	0xbd7eac92	-0.062176295
131	0xbe53a481	-0.20668222
132	0x3e461408	0.19343579
133	0xbdcf6414	-0.1012651
134	0x3e692317	0.22767292
135	0x3e3894d3	0.18025522
136	0xbc6544ee	-0.013993485
137	0xbe2a987d	-0.16659732
138	0x3c929ed9	0.01789801
139	0x3e545197	0.20734249
140	0x3e8166a2	0.25273615
141	0x3c47dace	0.012198163
142	0xbe3d8a00	-0.18509674
143	0x3d252fef	0.040328916
144	0xbd5b4b5d	-0.05353867
145	0x3e0d1136	0.13776097
146	0x3dedfaf8	0.11620134
147	0x3e3a132b	0.18171374
148	0x3dd48d3e	0.10378502
149	0xbe022bdd	-0.12712045
150	0x3e0fbb98	0.14036405
151	0x3e7723d0	0.24134755
152	0x3c80bbab	0.015714487
153	0x3cfa5832	0.030559633
154	0xbe471d7a	-0.19444838
155	0xbe030372	-0.12794283
156	0x3caf1c09	0.021375673
157	0x3da00a1d	0.07814429
158	0xbdffc1e9	-0.12488157
159	0x3d838ac5	0.064229526
160	0x3f00051c	0.50007796
161	0xbec61902	-0.38690954
162	0x3e927a3c	0.28608882
163	0x3c770df8	0.015079014
164	0x3c42b752	0.011884527
165	0x3eb8fd3b	0.361307
166	0xbed49b2a	-0.4152463
167	0x3e84647b	0.2585791
168	0x3efe9e16	0.49729985
169	0x3d984bc8	0.07436329
170	0xbd424dc0	-0.04743743
171	0xbd6e4dca	-0.058179654
172	0x3dec42f7	0.1153621
173	0x3ee0253a	0.43778402
174	0x3d182cac	0.037151977
175	0xbf077515	-0.5291303
176	0x3ebb6c64	0.36606133
177	0xbe6e1c56	-0.23252997
178	0x3e0ac18d	0.13550396
179	0xbd902663	-0.07038572
180	0xbcb0c3d3	-0.021577751
181	0x3cead707	0.028666986
182	0xbe41c4b8	-0.18922698
183	0xbece96e3	-0.40349492
184	0x3ee13222	0.4398356
185	0x3ddc8446	0.10767417
186	0x3ef6c7c8	0.48199296
187	0x3ec41efe	0.38304895
188	0xbe791ec0	-0.24328136
189	0x3d3306b7	0.043707576
190	0xbe8d919a	-0.27650148
191	0x3d41362d	0.047170807
192	0x3d396d7d	0.04527043
193	0xbd08b335	-0.03337403
194	0x3df2f7f6	0.11863701
195	0xbd0e9dc9	-0.034818444
196	0xbee6a67d	-0.45048895
197	0xbd2120ee	-0.039338045
198	0xbd9f08b8	-0.07765335
199	0x3e7f10f0	0.24908805
200	0xbe651e59	-0.22374858
201	0x3e64e7a8	0.22353995
202	0x3e13f907	0.14450465
203	0x3dfd5d70	0.123713374
204	0xbea2e3bd	-0.31814376
205	0xbea7eced	-0.32797948
206	0x3e2ed3b9	0.17072953
207	0xbdef650e	-0.116891965
208	0xbd95161d	-0.072796084
209	0x3e7010a0	0.23443842
210	0x3a86bdfa	0.0010280006
211	0x3c95e8bc	0.018299453
212	0xbe444bf0	-0.19169593
213	0x3ca45c96	0.02006368
214	0xbd89708d	-0.067109205
215	0x39513314	0.00019950821
216	0xbf11b938	-0.56923246
217	0x3dde108d	0.108430006
218	0xbdc0bfb2	-0.09411563
219	0xbebb77a0	-0.36614704
220	0xbd8d2a84	-0.06892875
221	0xbe33efb9	-0.17571916
222	0x3f112f5a	0.5671288
223	0x3e82762c	0.25480783
224	0xbcf201f1	-0.029541941
225	0x3e5a9de3	0.21349292
226	0x3da84941	0.08217097
227	0x3e4f4817	0.20242344
228	0xbe0719fd	-0.13193507
229	0xbe1cd29e	-0.15314719
230	0x3e879d60	0.26487255
231	0xbdc1862c	-0.094494194
232	0xbe0bc923	-0.13650946
233	0xba946c90	-0.0011323858
234	0xbd8bd413	-0.06827559
235	0x3ddea5bd	0.10871456
236	0x3da02cad	0.07821021
237	0xbeb64957	-0.3560283
238	0x3bcc041d	0.0062260763
239	0xbe146dba	-0.14494982
240	0xbebfc6b7	-0.37456295
241	0x3ea9612e	0.33081955
242	0x3e86ae44	0.2630483
243	0xbe09356c	-0.13399285
244	0xbd90c263	-0.07068326
245	0xbca72ff5	-0.02040861
246	0x3e836097	0.2565963
247	0x3e1acbae	0.1511676
248	0xbd543a67	-0.05181351
249	0xbdc309b9	-0.09523339
250	0xbe00250d	-0.12514134
251	0x3d399909	0.04531196
252	0x3e9be510	0.30448198
253	0x3e6d9d73	0.23204593
254	0xbdcec9b8	-0.100970685
255	0xbc52a8a8	-0.012857594

backbone_lstm1.weight_hh_l0 f4 [128, 32]
0	0x3e166ca4	0.1468988
1	0xbd9c4764	-0.07630804
2	0x3dfd3eb4	0.12365475
3	0xbd113624	-0.035452023
4	0x3e7b34e7	0.245319
5	0xbba236d3	-0.004950383
6	0xbdf2763e	-0.11838959
7	0x3de23373	0.110449694
8	0xbc93d78b	-0.018047115
9	0x3d045db1	0.032315914
10	0xbdaf07ff	-0.08546447
11	0xbdf0dc45	-0.11760763
12	0x3e33793b	0.17526715
13	0x3daf4c27	0.08559447
14	0x3e03fb60	0.1288886
15	0x3d4442c2	0.047915228
16	0xbd509392	-0.050921984
17	0xbdaaa9d1	-0.08333171
18	0x3d38da55	0.045130093
19	0x3da252a5	0.079259194
20	0x3d85793f	0.065172665
21	0x3c9ef86d	0.019405568
22	0x3d94df27	0.072691254
23	0x3e3169af	0.17325471
24	0xbe529898	-0.20566022
25	0xbdf5c21e	-0.119999155
26	0xbdf6f605	-0.12058643
27	0xbbfbfbfb	-0.0076899505
28	0xbe3fc581	-0.18727686
29	0xbd7c72b5	-0.06163283
30	0xbe0557e1	-0.13021804
31	0xbd68c963	-0.056832682
32	0x3e86de66	0.26341552
33	0xbc50469e	-0.012712149
34	0xbc8d8d43	-0.017279273
35	0xbb725ecb	-0.003698277
36	0x3e194232	0.14966658
37	0x3d1a6970	0.03769821
38	0x3e3a08bc	0.18167394
39	0x3e2eeb77	0.1708201
40	0xbdd2512f	-0.10269391
41	0x3f0a9d14	0.5414593
42	0x3c9dc1dd	0.01925748
43	0x3df119e2	0.11772515
44	0xbd8dd9d1	-0.06926311
45	0xbc715473	-0.014729607
46	0x3e828aa1	0.2549639
47	0xbe28994e	-0.16464731
48	0xbde4fd7b	-0.1118116
49	0xbecc0ab2	-0.3985191
50	0xbe97ebd1	-0.296721
51	0x3da17d4e	0.07885228
52	0xbd543b7c	-0.05181454
53	0xbeb90f66	-0.3614456
54	0xbd66430c	-0.056216285
55	0x3db41f90	0.087950826
56	0x3d1a6c39	0.037700865
57	0x3db51916	0.088426754
58	0xbc54dc15	-0.012991925
59	0x3e4d9e5b	0.20079939
60	0xbee525f5	-0.4475552
61	0x3c565b5a	0.013083303
62	0xbec3876d	-0.3818926
63	0xbebfbfd0	-0.3745103
64	0xbe604b48	-0.21903718
65	0xbec82052	-0.39087158
66	0xbe24c54b	-0.16090886
67	0x3e80ccd0	0.2515626
68	0xbd83b2ea	-0.064306095
69	0x3e6e3602	0.2326279
70	0xbca3e1f2	-0.0200052
71	0x3e54d9c4	0.20786196
72	0xbbd0dcf6	-0.006373997
73	0xbe3d2d4d	-0.18474312
74	0x3e9333dd	0.28750506
75	0x3e745978	0.23862255
76	0xbd84ee41	-0.06490756
77	0xbe2d00da	-0.16894856
78	0xbe1a2e4a	-0.1505672
79	0x3e0ecf9c	0.13946384
80	0x3e9c0403	0.3047181
81	0xbeff57ff	-0.49871823
82	0x3ec194ce	0.3780884
83	0xbeacabd5	-0.33724847
84	0xbe55195f	-0.2081046
85	0xbd9b4f21	-0.07583452
86	0x3ea4d672	0.3219486
87	0x3ebac4c7	0.36478254
88	0x3e81bf40	0.25341225
89	0x3df48f97	0.1194145
90	0xbeaaeb73	-0.33382758
91	0xbe2d83de	-0.16944835
92	0x3cdcf931	0.026974292
93	0xbe49eada	-0.19718495
94	0xbf2103b0	-0.6289625
95	0x3e9f49e9	0.31111076
96	0xbdd6df57	-0.104918174
97	0xbdcf923c	-0.10135314
98	0x3d8eb8f7	0.06968873
99	0xbe826858	-0.25470233
100	0x3c85d1c2	0.016335372
101	0xbd6779a4	-0.05651249
102	0x3edee723	0.43535718
103	0xbe142acd	-0.14469452
104	0x3e15165d	0.14559312
105	0xbdf58e02	-0.119899765
106	0x3e85cd3e	0.2613315
107	0x3d9c6366	0.07636146
108	0x3dbfc72e	0.093641624
109	0x3e8bb47d	0.2728614
110	0x3dba50df	0.09097456
111	0xbda381d7	-0.07983749
112	0xbdd769f1	-0.105182536
113	0xbe74a47f	-0.23890875
114	0x3d911d47	0.07085662
115	0x3dd42417	0.10358446
116	0x3e70437c	0.23463243
117	0x3dc53fc7	0.09631305
118	0xbe2b5f9b	-0.1673569
119	0x3cff5666	0.031169128
120	0x3d74cecc	0.05976753
121	0xbe970460	-0.29495525
122	0x3eaea792	0.3411222
123	0x3eb8e5d6	0.3611285
124	0x3eea2055	0.45727792
125	0x3e5f14eb	0.21785323
126	0x3d8e1484	0.06937507
127	0xbce5d084	-0.02805353
128	0x3ed85df4	0.4225918
129	0xbdb0a20d	-0.08624659
130	0xbd8a995c	-0.06767532
131	0xbde1d4ee	-0.11026941
132	0x3ec6ed06	0.3885271
133	0xbd9f3d63	-0.077753805
134	0xbceddf00	-0.029036999
135	0x3d3a46e1	0.04547775
136	0xbdc6b592	-0.097026005
137	0x3e568e36	0.20952687
138	0xbe091a0f	-0.13388847
139	0x3ded5a0e	0.11589442
140	0x3dda5644	0.10660985
141	0x3b622fc5	0.0034513336
142	0x3e64ce44	0.22344309
143	0x3dd4d674	0.10392466
144	0xbe64169d	-0.22274251
145	0xbdbfcc79	-0.09365172
146	0xbdba6b70	-0.09102523
147	0x3df9ba1f	0.12193703
148	0x3d904c90	0.07045853
149	0xbdfff5ee	-0.12498079
150	0xbdfadcea	-0.12249167
151	0x3e4c6130	0.19958949
152	0xbe569fc0	-0.20959377
153	0xbe2c7367	-0.16840898
154	0x3e2382aa	0.15967813
155	0xbdeb5f0b	-0.114927374
156	0xbe406cca	-0.187915
157	0xbe3dda29	-0.18540253
158	0xbdf92584	-0.12165359
159	0xbece8c0a	-0.40341216
160	0xbe7471ef	-0.23871587
161	0xbf12476f	-0.5714025
162	0x3c1059e8	0.008810498
163	0x3db90b06	0.09035306
164	0x3d51d4f3	0.051228475
165	0x3eb0e09f	0.34546372
166	0xbe18d06a	-0.14923254
167	0xbe251007	-0.16119395
168	0xbe77e6ce	-0.24209139
169	0x3bd3a566	0.006458926
170	0x3d81cf61	0.063383825
171	0xbdccad56	-0.09993999
172	0x3cd57a75	0.026059369
173	0xbe02e202	-0.12781528
174	0xbe9963c6	-0.29958934
175	0x3e375a37	0.17905508
176	0x3eedca3c	0.46443355
177	0xbf28c9a4	-0.6593268
178	0xbd9c641c	-0.07636282
179	0xbcb6ecb6	-0.02232967
180	0xbe940c9e	-0.28915876
181	0x3df4e5ef	0.11957919
182	0xbdf1876f	-0.1179341
183	0x3e0e502b	0.13897769
184	0x3b4908d1	0.003067542
185	0xbe82438e	-0.25442165
186	0xbea6814c	-0.3252052
187	0xbc0487c8	-0.008089013
188	0x3dc82954	0.09773508
189	0xbe81618e	-0.2526974
190	0xbebdbce9	-0.3705819
191	0x3e8e21c3	0.27760133
192	0xbc4e6c3a	-0.012599045
193	0x3e0d356f	0.13789915
194	0xbe19fe93	-0.15038519
195	0xbebbc2c9	-0.36672047
196	0xbc8b7db9	-0.017027723
197	0x3e0cba52	0.1374295
198	0x3aa2bf32	0.00124166
199	0x3b0e086e	0.0021672505
200	0x3e2ddbcc	0.16978377
201	0xbcd4da8f	-0.025983123
202	0x3e9245e0	0.28568935
203	0xbd9f3af0	-0.07774913
204	0x3e265c3b	0.1624612
205	0x3cab9805	0.020946512
206	0x3eaf69fd	0.3426055
207	0x3db0258d	0.08600912
208	0xbe8cbcae	-0.274877
209	0xbce4267e	-0.027850386
210	0xbcb76fdb	-0.022392204
211	0x3dc02518	0.09382075
212	0x3daf448b	0.085579954
213	0x3d4c9b5b	0.049952846
214	0xbdd47777	-0.103743486
215	0xbbdf2895	-0.0068102577
216	0x3e9a4875	0.30133405
217	0x3da0b1f7	0.07846444
218	0x3e248266	0.16065368
219	0x3e23bac9	0.15989222
220	0x3e1ded32	0.15422514
221	0xbdc9206e	-0.098206386
222	0xbdc1d948	-0.09465271
223	0x3cde9a5b	0.027173212
224	0xbcba08c3	-0.022709256
225	0x3d4559ed	0.048181463
226	0xbe52c374	-0.20582372
227	0xbddfb623	-0.10923412
228	0x3d35b79a	0.04436455
229	0x3d8f8ca5	0.07009248
230	0x3ed6c14c	0.4194435
231	0xbe3b6009	-0.18298353
232	0x3e76af9c	0.24090427
233	0x3ee9b13d	0.45643035
234	0x3de3cd63	0.11123159
235	0xbe20177c	-0.15633959
236	0x3de00aab	0.10939535
237	0x3e8cb327	0.27480432
238	0x3eaac690	0.33354616
239	0xbe8d2921	-0.2757044
240	0xbe5855dc	-0.21126503
241	0xbf2fdbed	-0.68694955
242	0xbe14cbdb	-0.1453089
243	0x3e0aa30a	0.13538757
244	0x3e9552af	0.29164645
245	0xbdba467b	-0.09095474
246	0xbecd716c	-0.40125597
247	0x3e69a2b1	0.22815968
248	0xbe92a5aa	-0.28642017
249	0xbe9e406c	-0.30908525
250	0x3db28baa	0.08718045
251	0x3e91384d	0.28363267
252	0xbe3be67b	-0.1834964
253	0xbe11948f	-0.14216827
254	0xbebc8448	-0.36819673
255	0xbe91b814	-0.28460753

backbone_lstm1.bias_ih_l0 f4 [128]
0	0x3eb54335	0.35402837
1	0x3e9880f5	0.29785886
2	0x3d8df065	0.06930617
3	0xbdcab7de	-0.09898351
4	0x3ea9f1c3	0.33192262
5	0xbdafb800	-0.08580017
6	0xbe9c7869	-0.30560616
7	0x3e854431	0.26028588
8	0x3e12a4f0	0.14320731
9	0x3e45bede	0.19311091
10	0x3e6e4a1e	0.23270461
11	0xbee2e8c6	-0.44318217
12	0x3da409c4	0.08009675
13	0x3c9cfb9e	0.01916295
14	0x3d55aa4f	0.052164372
15	0xbdacf453	-0.08445039
16	0x3d9fa8bc	0.077958554
17	0x3f05b436	0.52228105
18	0x3e550ee7	0.20806466
19	0x3e80e917	0.25177833
20	0xbcf93388	-0.03042008
21	0x3e9e43cc	0.309111
22	0x3ca9b09b	0.020714095
23	0x3efddfac	0.4958471
24	0xbcd146a0	-0.025546372
25	0x3e86ac7b	0.26303467
26	0xbd0debce	-0.03464871
27	0x3d457910	0.048211157
28	0x3ebb3fff	0.36572263
29	0x3ef0e7f0	0.47051954
30	0x3e910d3f	0.28330418
31	0x3ecd0cd1	0.4004884
32	0x3e7e0dab	0.24809901
33	0x3d985b3c	0.074392766
34	0x3d085550	0.033284485
35	0x3e2165ff	0.15761565
36	0x3e62726e	0.22113964
37	0x3de84fa3	0.113433145
38	0xbc8c682e	-0.01713952
39	0x3e3e9176	0.18610176
40	0x3e595fe9	0.21227993
41	0xbd326566	-0.043553732
42	0x3dbe391d	0.09288237
43	0x3d7fa29c	0.062410936
44	0xbdee7e3f	-0.11645173
45	0x3e2bbe15	0.1677173
46	0x3d59d161	0.053178195
47	0xbd871547	-0.06595855
48	0xbddf5217	-0.10904329
49	0x3eb8babd	0.3607997
50	0x3e9a2a4b	0.30110392
51	0x3d4088fa	0.04700563
52	0x3e1741f7	0.14771257
53	0x3ebce774	0.36895335
54	0x3d85deed	0.0653666
55	0x3d9a9a0e	0.07548915
56	0x3c8c9d05	0.017164716
57	0x3d1ec5a2	0.038762696
58	0x3e461c33	0.19346695
59	0xbe140d50	-0.14458203
60	0x3ea046ad	0.3130392
61	0x3e7d5680	0.24740028
62	0x3eb9acee	0.36264747
63	0x3dd3d9b5	0.10344259
64	0x3e6feca8	0.23430121
65	0xbe55f70d	-0.20895024
66	0xbe67eecd	-0.22649689
67	0x3caf7f5b	0.021423033
68	0x3e73daf1	0.23813988
69	0x3e4d1612	0.2002795
70	0x3e20ea1f	0.1571431
71	0xbdd58c81	-0.104271896
72	0x3e767e7f	0.24071692
73	0x3dee3868	0.116318524
74	0x3e820499	0.25394133
75	0x3d8af1fb	0.06784435
76	0x3dd6d728	0.104902565
77	0xbd0cadd4	-0.034345463
78	0x3e0c34bb	0.1369199
79	0x3d9d2533	0.07673111
80	0xbdce5916	-0.100755855
81	0xbdaa9eb2	-0.0833105
82	0xbe0e00d0	-0.13867497
83	0x3d55308c	0.05204825
84	0x3e833447	0.25625822
85	0xbe73675d	-0.23769899
86	0xbd665df8	-0.05624196
87	0x3ebdedcb	0.37095484
88	0xbe67a588	-0.22621739
89	0xbe938018	-0.28808665
90	0x3e1d30dd	0.15350671
91	0xbd9bfe96	-0.07616918
92	0xbea583f2	-0.3232723
93	0xbea07a4f	-0.31343314
94	0xbe462528	-0.19350111
95	0xbec4179f	-0.3829927
96	0x3cf59413	0.029977834
97	0x3dbee273	0.093205355
98	0x3d0c472e	0.03424757
99	0x3ab105a2	0.0013505707
100	0x3d9025f0	0.07038486
101	0x3d096260	0.033541083
102	0xbe20550f	-0.15657447
103	0x3e3f8c32	0.18705824
104	0xbc960822	-0.018314425
105	0x3d0f594f	0.03499728
106	0x3d966748	0.07343918
107	0xbe54481e	-0.20730636
108	0x3e171381	0.14753534
109	0x3dc9d6d9	0.09855432
110	0x3e0440b7	0.12915312
111	0x3dae28fd	0.08503912
112	0x3c2267dd	0.009912458
113	0x3df12fdd	0.11776707
114	0x3e6d4d90	0.23174119
115	0x3db33efa	0.08752246
116	0xbe126f25	-0.14300211
117	0xbcff27d3	-0.03114692
118	0x3d427be5	0.047481436
119	0x3eb94662	0.3618651
120	0xbd112338	-0.035433978
121	0xbdb514a5	-0.08841828
122	0xbd5e82e4	-0.054324046
123	0x3d1c5625	0.03816809
124	0xbdc6f48a	-0.09714611
125	0x3c13c1da	0.009018386
126	0x3d6bfc45	0.05761363
127	0x3ece40f3	0.40283927

backbone_lstm1.bias_hh_l0 f4 [128]
0	0x3e83bbb6	0.2572915
1	0x3ed0677d	0.40703955
2	0x3d30dec1	0.043181185
3	0xbb84f4a4	-0.0040574837
4	0x3ddad963	0.106859945
5	0xbdc2701b	-0.09494039
6	0xbd12f819	-0.035881136
7	0x3db886c5	0.0901008
8	0x3dc45d0b	0.09588059
9	0x3e0530d9	0.13006915
10	0x3e4872b2	0.19575003
11	0xbea868ad	-0.3289236
12	0x3e46f991	0.1943114
13	0xbcaa1b09	-0.020764844
14	0xbd809419	-0.062782474
15	0xbe16fd4f	-0.14745067
16	0xbd0e5417	-0.034748163
17	0x3f05af4a	0.52220595
18	0x3ea8dbd0	0.32980204
19	0x3ec048e6	0.37555617
20	0xbe0b788e	-0.13620207
21	0x3e038813	0.12844877
22	0xbc40a1d3	-0.011757332
23	0x3e1f1a6c	0.15537423
24	0xbdaf37cb	-0.085555635
25	0x3e693ee2	0.22777894
26	0x3d88194b	0.06645449
27	0xbe7a95ab	-0.24471156
28	0x3ea6f221	0.32606605
29	0x3ee8acdc	0.4544438
30	0x3f19e1f0	0.6011038
31	0x3ebd04fb	0.36917862
32	0x3e6a984f	0.22909664
33	0x3d07b028	0.03312698
34	0x3e9617eb	0.29315123
35	0xbda25ea2	-0.07928206
36	0x3e289837	0.16464315
37	0x3e9101c4	0.2832166
38	0xbbf6dd97	-0.00753374
39	0xbd9e780e	-0.07737742
40	0x3cca8f1a	0.02472644
41	0x3e6add81	0.2293606
42	0x3d877f9e	0.06616138
43	0x3e42ad85	0.19011505
44	0x3a8f8273	0.0010948911
45	0x3d538378	0.05163905
46	0x3e8889e1	0.26667693
47	0x3e6de60d	0.23232289
48	0x3dc35112	0.09536947
49	0x3e9e909d	0.30969706
50	0x3db70e7a	0.08938308
51	0x3ebfd2f8	0.37465644
52	0x3e561eec	0.20910233
53	0x3def1135	0.11673204
54	0xbb986c73	-0.0046516
55	0x3e085822	0.1331487
56	0x3d547685	0.05187084
57	0x3e7835e6	0.2423931
58	0xbdb20288	-0.08691889
59	0x3d37075a	0.044684745
60	0x3e54e225	0.20789392
61	0x3d6c1a1f	0.0576421
62	0x3edac9a3	0.42731962
63	0x3eb79f9c	0.3586396
64	0x3d6f6297	0.058443632
65	0xbe70ad55	-0.23503621
66	0xbdd8e6a3	-0.105908655
67	0x3ddf576e	0.10905348
68	0x3e93f5b6	0.288984
69	0xbd4113c0	-0.047137976
70	0x3e7ee87e	0.24893376
71	0xbdcd3611	-0.10020078
72	0x3e5db2e5	0.21650274
73	0x3e9edb26	0.31026572
74	0x3e8a4708	0.27007318
75	0xbd1d554e	-0.03841143
76	0x3eb5acc9	0.35483387
77	0x3e22eb52	0.1591008
78	0x3e8767ca	0.26446372
79	0xbd56e0e7	-0.052460577
80	0xbc1a8228	-0.009430446
81	0xbdf3a49d	-0.11896632
82	0xbe86f16f	-0.26356074
83	0x3e5fce18	0.21855962
84	0x3e2f7afa	0.17136756
85	0xbeae6067	-0.34057924
86	0xbe5224c2	-0.20521834
87	0x3e32d85a	0.17465344
88	0xbd1b0db5	-0.03785487
89	0xbdd2ddc6	-0.10296206
90	0x3dfefa41	0.12450076
91	0x3e6ff139	0.23431863
92	0xbd8ff374	-0.07028857
93	0xbee526fe	-0.4475631
94	0xbe810787	-0.25201055
95	0xbe1a9737	-0.15096746
96	0x3d99db34	0.07512513
97	0x3e240f34	0.16021425
98	0x3e337c08	0.17527783
99	0xbe0bc04c	-0.13647574
100	0x3e5584dc	0.20851463
101	0x3de52363	0.1118839
102	0xbe171d1e	-0.14757201
103	0x3e8a0639	0.26957873
104	0xbe13922b	-0.14411227
105	0x3e7be49b	0.24598925
106	0xbde96190	-0.11395562
107	0xbdf5bec5	-0.11999277
108	0xbd061934	-0.03273888
109	0xbd9b7172	-0.07589997
110	0x3e2961af	0.1654117
111	0xbc72356c	-0.014783245
112	0x3dc3d0da	0.0956132
113	0xbc25b5b6	-0.010114124
114	0x3e990304	0.29885113
115	0x3d0e3a52	0.034723587
116	0x3dcdb83b	0.10044905
117	0x3c100d92	0.008792298
118	0xbe2da69c	-0.16958088
119	0x3dc7bf94	0.097533375
120	0xbdb43655	-0.087994255
121	0x3c868427	0.016420437
122	0xbe2581f4	-0.16162854
123	0xbdf5cc65	-0.12001876
124	0x3d3aa5f3	0.045568418
125	0x3d792811	0.060829226
126	0xbc0bedea	-0.00854061
127	0x3e88d0f1	0.2672191

backbone_lstm2.weight_ih_l0 f4 [64, 32]
0	0xbeaf28ae	-0.34210724
1	0xbd49b16d	-0.049241472
2	0xbe6da7ec	-0.23208588
3	0x3b47524f	0.003041405
4	0xbeb16054	-0.34643805
5	0x3efc8d12	0.49326378
6	0xbedf058e	-0.43558925
7	0x3e16df51	0.14733626
8	0xbeb48c90	-0.3526349
9	0xbea306db	-0.31841168
10	0xbdd68339	-0.104742475
11	0x3e27587c	0.16342348
12	0xbe465ab0	-0.19370532
13	0xbd62af0e	-0.055342726
14	0xbe0f675a	-0.14004269
15	0x3e9c7124	0.3055507
16	0xbe056d42	-0.1302996
17	0xbe250483	-0.16115002
18	0x3e04791c	0.12936825
19	0xbd804697	-0.06263464
20	0xbe4e3b64	-0.20139843
21	0x3e173340	0.14765644
22	0x3e97fa62	0.29683214
23	0x3cb7eb26	0.022450995
24	0x3ebf5e12	0.37376457
25	0x3defc622	0.11707713
26	0xbef6b2d4	-0.4818331
27	0xbe17183b	-0.14755337
28	0x3d44b1df	0.048021194
29	0x3d031446	0.032001756
30	0xbe00242e	-0.12513801
31	0x3e2ce8d0	0.16885686
32	0xbea5ba5b	-0.3236874
33	0xbe313b09	-0.17307676
34	0xbe8f21a8	-0.27955365
35	0x3dcbbbe4	0.09947947
36	0xbeafbe1b	-0.34324726
37	0x3f18a235	0.5962251
38	0xbdc5760e	-0.09641658
39	0x3e449071	0.19195725
40	0xbdbb92e2	-0.09158875
41	0xbdf3ed8d	-0.119105436
42	0x3e770305	0.24122246
43	0x3e0b0e2e	0.13579628
44	0xbe8da5ee	-0.27665657
45	0xbee00393	-0.43752727
46	0xbed6561d	-0.41862574
47	0x3e8ab30b	0.27089724
48	0x3f074304	0.5283663
49	0xbee70bb4	-0.45126116
50	0x3db62aaa	0.08894856
51	0xbeae4d78	-0.3404348
52	0xbe3e2b54	-0.18571216
53	0x3e2ba2e4	0.16761357
54	0x3e60b3d7	0.21943603
55	0xbe1827f3	-0.1485899
56	0x3f07808d	0.5293053
57	0x3cf194ea	0.029489953
58	0xbebc69ca	-0.3679946
59	0xbdcc6fb3	-0.099822424
60	0xbe464a3a	-0.19364253
61	0xbd3b5a0e	-0.04574018
62	0xbe939702	-0.28826147
63	0x3e25ef78	0.16204631
64	0x3c044131	0.0080721835
65	0xbd8f9ea5	-0.07012681
66	0x3e435667	0.19075929
67	0x3dced1ba	0.10098596
68	0xbe069ccb	-0.1314575
69	0x3e7c44fd	0.24635692
70	0x3b1373f8	0.0022499543
71	0x3ba2659c	0.0049559604
72	0xbe01e41b	-0.12684672
73	0xbcd91579	-0.026499497
74	0xbe136203	-0.14392857
75	0xbe6b62ee	-0.22986957
76	0xbe69abda	-0.22819462
77	0x3d6e23cd	0.05813961
78	0x3e4e60d1	0.2015412
79	0x3db1dae9	0.08684332
80	0xbe654835	-0.22390826
81	0xbde397ad	-0.11112914
82	0x3e395b44	0.18101221
83	0xbe31ae8d	-0.17351742
84	0xbdf482e7	-0.1193903
85	0x3e3ad5a9	0.18245567
86	0x3e9ff825	0.31244007
87	0x3df93a73	0.121693514
88	0x3e8e9b79	0.2785299
89	0x3c077e16	0.008269807
90	0x3e69145a	0.2276167
91	0xbe23f4de	-0.16011378
92	0xbe3591c7	-0.17731391
93	0xbd87d530	-0.06632459
94	0x3cd5a535	0.026079753
95	0xbe0ea910	-0.1393168
96	0xbe8ac26d	-0.2710146
97	0xbd3963f3	-0.045261335
98	0xbe100774	-0.14065343
99	0xbcb2085a	-0.021732498
100	0x3e7db398	0.24775541
101	0x3eb34280	0.35011673
102	0xbe75ce87	-0.24004565
103	0xbe32215b	-0.17395537
104	0x3d0c0452	0.034183808
105	0x3d11956d	0.035542894
106	0xbea02d4c	-0.3128456
107	0x3d97635b	0.073919974
108	0xbdad4846	-0.08461051
109	0xbde800a6	-0.11328249
110	0xbeb286d1	-0.34868482
111	0xbd0fcb8a	-0.03510622
112	0xbe9611b7	-0.2931039
113	0xbe79c61c	-0.24391979
114	0x3e1b84da	0.15187398
115	0x3e1d8022	0.1538091
116	0x3e21632f	0.15760492
117	0xbe855f5c	-0.26049316
118	0x3ee11a1e	0.43965238
119	0xbe6867a3	-0.22695784
120	0xbdc1c1bc	-0.0946078
121	0x3dab52dc	0.083654135
122	0xbe5afab5	-0.213847
123	0xbdaf933e	-0.08573006
124	0x3d89a115	0.06720177
125	0xbe39bd42	-0.18138602
126	0xbe965d35	-0.29367986
127	0xbe397fd1	-0.18115164
128	0xbe234d28	-0.15947402
129	0xbdca5294	-0.09879032
130	0xbd78e84d	-0.060768414
131	0x3e7eb735	0.24874575
132	0x3d33ab5a	0.043864585
133	0x3dd50730	0.104017615
134	0xbe2630c3	-0.16229539
135	0x3d86f403	0.0658951
136	0x3c1b4781	0.009477497
137	0xbe779136	-0.24176487
138	0x3e7a76b5	0.24459346
139	0x3df6e4cc	0.12055358
140	0x3e472eb1	0.19451405
141	0x3df40493	0.11914935
142	0x3d1feae7	0.03904238
143	0xbe2360b1	-0.15954854
144	0xbdff53dd	-0.124671675
145	0xbce18bbb	-0.027532449
146	0xbe6ca096	-0.23108134
147	0xbdbd429d	-0.09241221
148	0xbe866ebc	-0.2625636
149	0x3e128c2c	0.14311284
150	0xbc599977	-0.013281218
151	0x3e88f9eb	0.26753172
152	0x3e05516e	0.13019344
153	0xbd8ba91c	-0.068193644
154	0xbf09c3bd	-0.538143
155	0xbe1e4218	-0.154549
156	0xbe0f48ce	-0.13992617
157	0xbddfa87d	-0.109208085
158	0xbed76110	-0.4206624
159	0xbe33711d	-0.17523618
160	0xbead713e	-0.3387546
161	0xbe3ecb4d	-0.1863224
162	0xbe905f32	-0.28197628
163	0x3e3a0aa4	0.18168122
164	0xbd3e1ed8	-0.046416134
165	0x3f02562a	0.50912726
166	0xbe8ade9c	-0.27122962
167	0x3d94f502	0.07273294
168	0xbe0e68c5	-0.13907154
169	0x3c0acd74	0.008471835
170	0xbd2ede76	-0.042692624
171	0x3d68a7e5	0.05680074
172	0xbe9f84af	-0.31155917
173	0xbe520a33	-0.20511703
174	0xbd84f920	-0.06492829
175	0x3e2d9ea1	0.16955043
176	0xbda9f9dd	-0.08299611
177	0xbe36714d	-0.17816658
178	0x3e10f638	0.14156425
179	0xbe111090	-0.14166474
180	0xbeaf2b90	-0.34212923
181	0x3db28a24	0.087177545
182	0x3eccd1ed	0.4000391
183	0x3e3b1c23	0.18272452
184	0x3d943b95	0.07237927
185	0xbe6491e3	-0.22321276
186	0xbeafc63f	-0.34330937
187	0xbe63d668	-0.22249758
188	0x3d5d40f8	0.054017037
189	0x3dce0ef0	0.10061443
190	0xbee76978	-0.45197654
191	0x3e820d6d	0.25400868
192	0xbcbcf326	-0.023065161
193	0xbd8957da	-0.067062095
194	0xbe25043d	-0.16114898
195	0x3e286cb0	0.16447711
196	0xbd8a3ff2	-0.06750478
197	0xbde15626	-0.1100276
198	0xbc9306de	-0.01794761
199	0x3e11d3c8	0.14240944
200	0xbe05c74c	-0.13064307
201	0x3bf38356	0.007431428
202	0xbd4f7a04	-0.050653473
203	0x3ee8d6ff	0.4547653
204	0xbea346fc	-0.31890094
205	0xbdfa6592	-0.12226404
206	0x3e6eaa8e	0.23307249
207	0xbcca7d28	-0.024717882
208	0x3b5bb448	0.0033524204
209	0xbee1e7d3	-0.4412218
210	0xbe808d6d	-0.251079
211	0xbe1b0567	-0.1513878
212	0x3cbfee8a	0.023429174
213	0x3d9b6e08	0.07589346
214	0x3ed03c9f	0.4067125
215	0x3d649bb6	0.05581256
216	0x3d95663b	0.072948895
217	0xbe19723d	-0.14984985
218	0x3dbe3e81	0.092892654
219	0xbe9d930f	-0.3077626
220	0xbd703f6a	-0.058654226
221	0xbd91ce2b	-0.071194015
222	0xbf016b41	-0.5055428
223	0x3d956840	0.07295275
224	0xbec491a4	-0.38392365
225	0x3ea7a9bd	0.32746688
226	0xbec3afb0	-0.38219976
227	0x3dfb2d2b	0.122644745
228	0xbe814b0e	-0.25252575
229	0x3f04593b	0.51698655
230	0xbe587af1	-0.21140648
231	0x3e45576a	0.19271627
232	0xbe32c2c7	-0.17457114
233	0xbd71ceca	-0.0590351
234	0xbc9feaf4	-0.019521214
235	0x3e8e7b4b	0.2782844
236	0xbe2cbd6d	-0.16869135
237	0xbee753bc	-0.45181072
238	0xbdb79500	-0.08963966
239	0x3db1eaff	0.086874
240	0x3dc33e57	0.09533375
241	0x3db8dd1b	0.090265475
242	0x3eb29ce3	0.3488532
243	0xbe197cfd	-0.14989085
244	0xbe2ad78e	-0.1668379
245	0x3ee47a8e	0.44624752
246	0x3e7517c1	0.23934843
247	0xbea978d6	-0.33100003
248	0x3e1b436f	0.15162443
249	0xbc2b5011	-0.010456101
250	0xbf0263e4	-0.5093367
251	0xbe0db042	-0.13836768
252	0xbc39f143	-0.011349025
253	0x3e0efad1	0.13962866
254	0x3e3594f0	0.17732596
255	0x3ecb00d9	0.39649084

backbone_lstm2.weight_hh_l0 f4 [64, 16]
0	0xbd703f0b	-0.058653872
1	0x3e381f21	0.17980625
2	0xbdcdd40f	-0.100502126
3	0xbe72ae5e	-0.23699328
4	0xbdb81f77	-0.089903764
5	0x3e1778f7	0.14792238
6	0xbe9422c2	-0.28932768
7	0xbdef5fa1	-0.11688162
8	0xbe52d08f	-0.20587371
9	0x3c77aa24	0.015116248
10	0x3ea48bca	0.321379
11	0xbe1fd375	-0.15608008
12	0x3d8b45a9	0.06800396
13	0x3d9bd90e	0.07609759
14	0x3e2ba16a	0.16760793
15	0xbda15ff3	-0.07879629
16	0x3dc83060	0.09774852
17	0x3e6d2f73	0.23162632
18	0x3e9064ca	0.28201896
19	0xbda65ad1	-0.081227906
20	0xbe23b586	-0.15987214
21	0xbd23ffc7	-0.04003885
22	0xbcfdd527	-0.030985428
23	0xbe5dd5e4	-0.21663624
24	0xbe414b27	-0.18876325
25	0xbe25f21d	-0.1620564
26	0x3eb43848	0.3519919
27	0xbe631fd1	-0.22180106
28	0xbe6cd836	-0.23129353
29	0x3b4ff0c3	0.0031729199
30	0xbdf0eed5	-0.117643036
31	0x3d559131	0.05214042
32	0xbcc88aec	-0.024480306
33	0x3eab51ff	0.33460996
34	0x3e709d42	0.23497489
35	0x3c9aec10	0.018911391
36	0x3c5b5350	0.0133865625
37	0x3f036cc1	0.5133782
38	0x3e8d33e9	0.27578667
39	0xbdeaa0d8	-0.1145646
40	0x3e483c56	0.19554266
41	0xbed03e58	-0.40672565
42	0xbe1a7d8e	-0.15086958
43	0xbe62a36b	-0.22132652
44	0xbd96c250	-0.07361281
45	0x3e21a395	0.15785058
46	0x3ea97093	0.330937
47	0x3de27235	0.110569395
48	0xbe06f37e	-0.13178822
49	0x3ea68376	0.32522172
50	0x3e64a07b	0.22326843
51	0x3c9c9753	0.019115126
52	0xbcb2c5ed	-0.021822894
53	0x3ee4a631	0.44658044
54	0xbe628408	-0.22120678
55	0xbdaf852d	-0.08570323
56	0x3d3b5f66	0.045745276
57	0xbdeea709	-0.11652953
58	0x3d54e333	0.051974487
59	0x3da9769c	0.08274576
60	0x3d04beaa	0.032408394
61	0x3ebc2cd3	0.36752948
62	0xbe85373e	-0.2601871
63	0xbd1dd42c	-0.03853242
64	0x3d73f630	0.059560955
65	0x3e970bec	0.29501283
66	0x3c1149b1	0.008867667
67	0x3e005b13	0.12534742
68	0x3d69568e	0.05696731
69	0x3f012bea	0.5045763
70	0xbe910f61	-0.28332046
71	0xbd3f9c78	-0.04678008
72	0x3e17d6e6	0.14828071
73	0xbd9832c0	-0.07431555
74	0xbdda6a05	-0.10664753
75	0x3e457623	0.19283347
76	0xbe1c14ca	-0.15242305
77	0xbd143201	-0.0361805
78	0xbe60a0d5	-0.21936353
79	0x3e16ad99	0.1471466
80	0xbd6c84a0	-0.05774367
81	0x3c397897	0.011320255
82	0x3d86b5a3	0.06577613
83	0x3d1d8c60	0.03846395
84	0x3df98ca7	0.121850304
85	0xbf3e9a32	-0.74454033
86	0xbd1b8eb8	-0.037977904
87	0xbef3bc55	-0.47604623
88	0xbd53ef90	-0.051742136
89	0xbe2ba940	-0.16763783
90	0x3e8727b4	0.2639748
91	0xbe7a2a3e	-0.24430177
92	0xbe01e89f	-0.12686394
93	0xbf0f026f	-0.5586309
94	0xbdb00e89	-0.08596522
95	0x3d4d46d6	0.050116383
96	0x3ebdf760	0.37102795
97	0x3ec9d4b3	0.3942009
98	0xbe5e3c97	-0.217028
99	0xbea55e70	-0.32298613
100	0x3d1a634a	0.037692346
101	0xbe1175bd	-0.1420507
102	0x3eb03416	0.34414738
103	0xbdae8d63	-0.08523061
104	0xbd7afcd4	-0.061276272
105	0x3df9ea54	0.12202898
106	0x3e37f26b	0.17963569
107	0xbeaf6a28	-0.34260678
108	0xbe3bb62c	-0.18331212
109	0x3d9bbee4	0.07604769
110	0x3e0f0a8c	0.13968867
111	0xbd9cd643	-0.07658055
112	0x3e9bc449	0.3042319
113	0x3e957398	0.29189754
114	0x3ccb16c4	0.024791129
115	0xbd84674d	-0.064650156
116	0xbbdeb82f	-0.0067968587
117	0x3f09229d	0.5356844
118	0xbe39387d	-0.18087955
119	0xbe38ac55	-0.1803449
120	0x3e0218b4	0.12704736
121	0x3dfc51fb	0.12320324
122	0xbc5b9be5	-0.013403867
123	0x3d80fbbe	0.06298016
124	0xbe97588f	-0.29559752
125	0xbdbe3e0a	-0.09289177
126	0x3e807932	0.25092465
127	0x3d6e0b6b	0.058116358
128	0x3d15111c	0.03639327
129	0xbe6c014f	-0.23047374
130	0xbe82e93e	-0.25568575
131	0xbdfea871	-0.124344714
132	0x3db75b5b	0.089529715
133	0x3f931688	1.1491251
134	0xbe232b7f	-0.15934561
135	0x3d8f61b9	0.07001061
136	0x3ad8f0ba	0.0016551234
137	0x3e28538f	0.16438125
138	0x3d7ebb87	0.06219056
139	0xbe199555	-0.14998372
140	0xbe0477a9	-0.12936272
141	0xbdcdfa95	-0.1005756
142	0xbea27a1f	-0.31733796
143	0x3e2f59d0	0.17124104
144	0xbd6c1e37	-0.057646003
145	0xbea74214	-0.326676
146	0x3e92360f	0.28556868
147	0x3c95d862	0.018291656
148	0xbc8250c0	-0.015907645
149	0x3ee82390	0.45339632
150	0x3dc60c2c	0.0967029
151	0xbf14058a	-0.5782095
152	0x3eaf4f69	0.34240273
153	0xbf034c38	-0.51288176
154	0x3d8a281b	0.06745931
155	0xbf3cb070	-0.7370672
156	0xbe0ad58a	-0.13558021
157	0xbea279dd	-0.317336
158	0x3ec5ce9e	0.386342
159	0x3e6241ae	0.22095367
160	0xbcc466a2	-0.02397472
161	0x3de64c6e	0.112450466
162	0xbe34b9ad	-0.17648955
163	0xbe25edd4	-0.16204005
164	0x3d7940e2	0.060852893
165	0x3ec30aaf	0.38094088
166	0xbdc96c42	-0.09835102
167	0x3e096af7	0.1341971
168	0x3d93c9a8	0.07216197
169	0x3ecbba85	0.3979074
170	0xbe351ddb	-0.1768717
171	0x3f19aa58	0.6002555
172	0x3edc3a29	0.43013123
173	0xbd7af6f7	-0.06127068
174	0xbe77676d	-0.24160548
175	0x3ee5e11c	0.44898307
176	0xbe62fdb9	-0.221671
177	0x3eb8c1d4	0.3608538
178	0x3eaf13b9	0.34194735
179	0xbcd132b9	-0.025536882
180	0x3c12951f	0.008946686
181	0x3e748b9b	0.2388138
182	0xbda400d5	-0.08007971
183	0xbeb31f36	-0.3498475
184	0x3e4b2659	0.19838847
185	0x3cf582a6	0.029969525
186	0x3e2df23b	0.16986935
187	0xbec811a6	-0.39075965
188	0xbe4a45cd	-0.1975319
189	0xbd56affc	-0.052413926
190	0x3e37db4f	0.17954753
191	0x3c3e58ef	0.011617883
192	0x3e81a808	0.2532351
193	0x3e54bcb4	0.2077511
194	0x3e412a59	0.1886381
195	0xbe86271f	-0.26201722
196	0xbd5533b8	-0.052051276
197	0x3f0c3f88	0.5478444
198	0xbd87b2f1	-0.06625927
199	0x3d804d86	0.062647864
200	0xbe7e74fa	-0.2484931
201	0x3e269c59	0.1627058
202	0x3d542283	0.051790725
203	0x3da7ee39	0.08199734
204	0x3d71e833	0.059059333
205	0x3f08fd27	0.5351128
206	0xbe019877	-0.12655817
207	0x3e0ec061	0.13940574
208	0xbe3f1b28	-0.18662703
209	0xbec236d6	-0.37932462
210	0x3ca95c95	0.02067403
211	0xbe7f35b0	-0.24922824
212	0x3d3d265b	0.046179157
213	0xbe12639d	-0.14295812
214	0xbe1bc670	-0.15212417
215	0xbe529216	-0.2056354
216	0xbe06dbd3	-0.13169794
217	0xbe780e85	-0.24224289
218	0xbd255937	-0.040368285
219	0xbe9dd221	-0.30824378
220	0x3d4174c0	0.047230482
221	0x3da5bca9	0.08092625
222	0xbcd959a0	-0.026531994
223	0x3bdf13e4	0.006807791
224	0xbdb2a6be	-0.0872321
225	0x3e366e4b	0.17815511
226	0xbe646c47	-0.2230693
227	0xbe3131ec	-0.173042
228	0xbe31ac22	-0.1735082
229	0x3f94126d	1.1568123
230	0xbe36bb2f	-0.17844842
231	0xbc978317	-0.018495126
232	0xbd9040c1	-0.07043601
233	0xbc3ea6e6	-0.011636471
234	0xbdc568b0	-0.09639108
235	0xbd135ae8	-0.035975367
236	0xbe155185	-0.14581878
237	0x3e540920	0.20706606
238	0xbe624aec	-0.22098893
239	0x3e811cc0	0.25217247
240	0x3dd9f767	0.106428914
241	0x3bcfddb5	0.006343568
242	0xbdb9faad	-0.09081016
243	0xbe6cf3ac	-0.23139828
244	0x3c6d8ffc	0.014499661
245	0xbde3c3d2	-0.11121334
246	0x3e9252cc	0.28578794
247	0xbe232581	-0.15932275
248	0xbc9a8c2b	-0.018865665
249	0xbca56633	-0.020190334
250	0x3d9fc8eb	0.07801994
251	0xbeb35692	-0.35026985
252	0xbed54edd	-0.4166173
253	0xbcd39159	-0.025826143
254	0xbe604d3a	-0.2190446
255	0x3d65eede	0.056136005

backbone_lstm2.bias_ih_l0 f4 [64]
0	0xbef7a9c7	-0.48371717
1	0xbe7d4a1d	-0.24735303
2	0xbe5484d9	-0.20753802
3	0xbed73ab3	-0.4203697
4	0xbec99ad1	-0.39375928
5	0xbe680aae	-0.22660324
6	0x3e6319f5	0.2217787
7	0xbf2ec070	-0.68262386
8	0x3cb88103	0.022522455
9	0xbe7eb51f	-0.2487378
10	0x3d78f221	0.060777787
11	0xbe11217d	-0.14172931
12	0xbe7af702	-0.24508289
13	0xbee6b00e	-0.45056194
14	0xbd2b1650	-0.041769326
15	0xbe90a30a	-0.2824939
16	0xbe6bb06b	-0.23016517
17	0x3dcf1af1	0.101125605
18	0xbda240b7	-0.079224996
19	0xbebe27a0	-0.37139606
20	0xbc91e4cf	-0.0178093
21	0x3e3da07c	0.18518251
22	0x3ec65da6	0.38743323
23	0x3c2d9469	0.010594466
24	0xbe95ee06	-0.2928316
25	0x3d0f7b96	0.03502997
26	0xbd979b55	-0.07402674
27	0xbe921615	-0.28532472
28	0xbe7e1d08	-0.24815762
29	0x3e0ccd19	0.13750114
30	0xbdbad40e	-0.091224775
31	0xbc40e404	-0.011773113
32	0xbe94b4e1	-0.2904425
33	0xbe63a69e	-0.22231528
34	0x3da6d30c	0.08145723
35	0xbdc9e036	-0.09857218
36	0x3cf394b0	0.029733986
37	0xbdb0aa4a	-0.0862623
38	0xbd802203	-0.06256487
39	0xbdfcaabb	-0.12337252
40	0x3d871654	0.065960556
41	0x3dda48c4	0.1065841
42	0xbdadfec6	-0.0849586
43	0x3da633d3	0.081153534
44	0x3cd10e4f	0.025519518
45	0xbea0a607	-0.3137667
46	0x3d30deec	0.043181345
47	0xbcf64371	-0.030061455
48	0x3e124d11	0.14287211
49	0x3ec1dedd	0.37865344
50	0xbe53d56c	-0.20686883
51	0xbea84513	-0.328652
52	0x3ca9bdb9	0.02072035
53	0x3db54939	0.08851857
54	0xbd8134bb	-0.06308886
55	0xbd2a331c	-0.041552648
56	0xbde7f123	-0.1132529
57	0xbec01858	-0.37518573
58	0xbf0d28f9	-0.55140644
59	0x3e4a7ebf	0.19774912
60	0xbe12ebab	-0.14347713
61	0x3e67166a	0.22567144
62	0xbe8b4580	-0.27201462
63	0xbe4cc408	-0.19996655

backbone_lstm2.bias_hh_l0 f4 [64]
0	0xbe5582f5	-0.20850737
1	0xbd49a571	-0.049230043
2	0x3d8eb2b8	0.06967682
3	0xbe1c4561	-0.15260841
4	0xbe41da9d	-0.1893105
5	0xbec1d765	-0.37859645
6	0x3da82b33	0.082113646
7	0xbe931efe	-0.28734583
8	0xbd963bb3	-0.073356055
9	0xbede0232	-0.4336105
10	0x3d9ccd68	0.07656366
11	0xbe7eea40	-0.24894047
12	0xbeb2e0d9	-0.3493717
13	0xbe9ddd1c	-0.30832756
14	0xbec19ca1	-0.3781481
15	0xbdc49cf5	-0.0960025
16	0xbdc82c13	-0.097740315
17	0x3c97215e	0.018448528
18	0x3cd8d52e	0.02646884
19	0xbd860f09	-0.065458365
20	0xbe80887c	-0.2510413
21	0x3f024189	0.5088125
22	0xbc629c9c	-0.013831284
23	0x3e8ef943	0.27924547
24	0x3e00c124	0.12573677
25	0x3e7eb3f2	0.24873331
26	0x3e71fa7e	0.23630711
27	0xbe6a589f	-0.22885369
28	0x3d63e0ed	0.055634428
29	0x3d298e97	0.04139575
30	0xbeb4e3b9	-0.3532999
31	0x3ebd9bd5	0.37032953
32	0xbd9f7fac	-0.07788023
33	0x3c16bda6	0.009200489
34	0x3e08fb2c	0.13377064
35	0x3e4b8ad7	0.19877182
36	0xbd81b823	-0.063339494
37	0x3d80e3dc	0.06293461
38	0x3e55bf9a	0.20873871
39	0xbd0b0b18	-0.033946127
40	0xbddc6944	-0.10762265
41	0xbdc01351	-0.09378684
42	0xbe10cd17	-0.14140736
43	0xbeb12dd6	-0.34605283
44	0xbe7cf2f1	-0.2470205
45	0xbe805096	-0.25061482
46	0x3cd85641	0.026408317
47	0xbe408c4e	-0.18803522
48	0xbdf95143	-0.121737026
49	0x3d1ae48d	0.03781562
50	0xbe48a8fa	-0.1959571
51	0xbe7955b7	-0.24349104
52	0xbe8754c4	-0.2643186
53	0xbe040efa	-0.12896338
54	0xbe03b8ca	-0.1286346
55	0x3dea9851	0.11454833
56	0xbdd477e7	-0.10374432
57	0xbe3fb694	-0.18721992
58	0xbf0226c8	-0.50840425
59	0x3dacdc7f	0.08440494
60	0xbe0b3274	-0.13593465
61	0x3ead547b	0.33853516
62	0x3de680ea	0.11255057
63	0x3cacfaac	0.021115623

fc.weight f4 [1, 16]
0	0x40692c57	3.6433313
1	0x4079bd7b	3.90219
2	0xc05c4df9	-3.442259
3	0xc05d3214	-3.4561815
4	0x406f682e	3.7407336
5	0x40668fa4	3.6025171
6	0xc05797db	-3.3686435
7	0x4069a8e5	3.6509335
8	0xc05c8d9a	-3.4461427
9	0x4056de9b	3.3573368
10	0xc05a1221	-3.4073565
11	0x40698540	3.648758
12	0x40401eaa	3.0018716
13	0x406684e2	3.6018605
14	0xc05f7443	-3.491471
15	0x4050c193	3.2618148
