notebooks/lstm_backbone.pth (torch, 50789 bytes, 9 tensors)

backbone_lstm1.weight_ih_l0 f4 [128, 32]
00000000: 8793 c63c 7b06 923e bd03 6bbe 3624 303e
00000010: 12ca 4b3e 78ca 17bf bbed 24be c679 5a3f
00000020: 7688 023e 4b6a 01be ffbb d43d 09c0 4a3e
00000030: 335a 5b3e 34f6 873e 4952 a6be cf9d e53e
00000040: 050a 3f3d 08e0 cfbe bf3b 84be 83eb 2b3e
00000050: c55d 77bd daab 5dbe e20e cbbe 21fd 16be
00000060: 51a6 06bf e938 753e 8df0 8e3e df01 b6be
00000070: 3f00 e5bd b41c 1cbd 37c8 b23e 3e68 f33e
00000080: d9d1 48bd 69c3 64be a4c5 f53d d2f1 61bd
00000090: 9152 da3c 8bae fb3d 790e bdbe de08 293e
000000a0: 2298 673e 0ffb dbbe 2d76 443e 2ce5 92bd
000000b0: 0eef ca3e aeba 273e d539 91be e683 023f
000000c0: 02d8 3cbe b449 97bc 2430 58be c948 3b3e
000000d0: 2162 96be 3eb6 a0be 527b 4dbf f4a9 d3be
000000e0: 5cb2 8e3e 428b 3b3a 8a92 e3bc 09c3 7cbe
000000f0: 401b 483e 191f ea3e b9d1 0c3f 71ed 2d3e
00000100: 7f59 373e 9b76 ccbd bc54 55be 355f b1bd
00000110: 131b a43d 6dff b53d 456d ad3d 00ba 6bbe
00000120: c123 133d b3fe 5c3d 9599 443d 58bb 77be
00000130: 9d7c a13d a2b7 cfbe 9d89 7a3d 6515 343d
00000140: caa6 703e 5c08 81be 6057 d5bd 27c9 a2bd
00000150: 42b8 863d 3203 823e 3326 833d f100 4dbd
00000160: 830a 06be 4407 34be 98fd 1f3e 2b79 dabd
00000170: f43c 053b cce2 0d3f a9f1 a3bd f69b 92bd
00000180: ab04 633d dcfc 25bf 93ad d0bd 8ed5 c8bc
00000190: 8953 b2be 0af0 333f 17ab 413e d694 76be
000001a0: a73b b73e 9b60 42bd 63cf 28be fb72 dbbe
000001b0: f467 433e 387f 54bf ed17 cd3e 8465 f9bd
000001c0: 4654 94bd 24db e0b9 c521 06be a3f8 97be
000001d0: 15d6 8abc 73d9 783f c8b4 e3bd cd16 913e
000001e0: 9d3d c13d 50dc b839 51e9 5fbd 9ebf 5cbd
000001f0: e324 313e 6fce 463f 4438 d03d 8f10 a5bc
00000200: 62f6 473e 5c06 ac3e 6e80 013e 726d 903e
00000210: a8fe 943c 0661 2fbf 3a12 b83e 83aa f13e
00000220: f376 1bbf e8a3 a53e 9935 343e cdc8 063f
00000230: 90f6 c4bc 51ed 9e3e b1b5 1d3e 98a7 75be
00000240: be28 9a3e b12f f9bc 4729 9ebd 6345 273e
00000250: 6357 2d3d 8c37 e1be 2ce3 25bd d880 d9bb
00000260: b081 95be e4b2 cb3d 95e0 9a3e 6b9d 883e
00000270: db93 b5bd fb21 0dbf 0224 b4be edf8 01be
00000280: 670d 2f3e ec6a a93e ecb1 273e 84f4 3c3e
00000290: f9e6 31bd d8d4 6bbf 9be6 4b3c dd0f 433e
000002a0: 6793 11bf fbf7 943e b38d 8f3e 573d 353e
000002b0: d4d4 a63d 2bc0 3c3f 20a4 34bd b251 37be
000002c0: bb5f 8c3e 8a5c 16bd a6ab 34be ae02 06bd
000002d0: e5ca 983d 146c ddbe e26f bcbd 5ee6 dfbd
000002e0: 1267 83bd 692d b33e 6972 df3d 6463 b5bd
000002f0: d4c1 38be 69c8 5bbf 2926 dcbc 0a84 aa3d
00000300: a0b7 a03d a679 3cbc dc52 a6bc 0b82 513e
00000310: 437a 81bd b9aa 83be a4f3 a23c b8d2 a1be
00000320: e145 c4be 16d5 de3d 8040 8fbd d402 0b3e
00000330: 033a 1d3e 3e96 b43d e259 b93d 4b39 d2bd
00000340: dda8 ef3d d855 18be 97ce d3bd 0f7a dfbd
00000350: 729e 083e 14d2 d0be 25aa 863e 4adc 1fbe
00000360: 4c79 74bd c2aa 8f3e f9fc 953e 7bc6 59be
00000370: bc96 dc3d 4cf2 75bf d625 163e 049c 313e
00000380: 7bfc 793e 7723 24bf af7f e73e f05d 6b3c
00000390: a5f6 a4bd 6ebc 163f b8db 0fbd 42dc 22be
000003a0: 1711 1e3f 2213 fcbe 288c 82be 0ce1 eabe
000003b0: 6154 033e 1532 c4be b7bc b43d 72cd 83bd
000003c0: b74d 263e d2eb 8b3e 2601 243d de2c 293e
000003d0: 0f37 88be ebf3 533f 9a60 f2be e281 1ebe
000003e0: 69a6 1a3e 2183 47be 7da1 dabe 184e 2dbe
000003f0: 86d6 093e 24ba 9d3f 5af2 90be 5513 4ebd
0.024240268 0.2852057 -0.22950645 0.17201313 0.19901302 -0.5929332 -0.16106312 0.8534206
0.12747368 -0.12638204 0.1038742 0.19799818 0.21421127 0.26555026 -0.32484654 0.4484696
0.046640415 -0.4060061 -0.25826833 0.1678906 -0.06039216 -0.21647587 -0.39659792 -0.14744999
-0.5259753 0.23947491 0.279179 -0.35548303 -0.111816876 -0.03811331 0.34918377 0.47540468
-0.04902825 -0.22340168 0.120005876 -0.05516226 0.026650699 0.12289151 -0.36925104 0.16507289
0.22616628 -0.4296498 0.19185705 -0.07172617 0.3963551 0.16379806 -0.28364435 0.5098251
-0.18441775 -0.018467762 -0.21112114 0.18289484 -0.2937174 -0.3138904 -0.80266297 -0.413406
0.27870452 0.0007154235 -0.027779836 -0.24683775 0.19541645 0.4572685 0.5500751 0.16985108
0.17905234 -0.0998356 -0.20833105 -0.086607374 0.080129765 0.08886609 0.08468107 -0.23020172
0.03592277 0.053953838 0.04799803 -0.2419256 0.07885096 -0.40569788 0.061166395 0.043965716
0.23501125 -0.2520169 -0.10417056 -0.07948523 0.06578113 0.25393063 0.0640377 -0.050049726
-0.13089947 -0.17580897 0.15624082 -0.10667642 0.002033052 0.5542419 -0.080050774 -0.071586534
0.055424374 -0.6483896 -0.10189357 -0.024515893 -0.34829357 0.70288146 0.18912922 -0.24080214
0.357877 -0.04745541 -0.16485362 -0.4286116 0.19082624 -0.8300662 0.40057316 -0.12177566
-0.072426364 -0.00042887882 -0.1309882 -0.29681882 -0.016947785 0.972068 -0.11118466 0.28337708
0.0943558 0.0003525936 -0.054665867 -0.053893678 0.17299227 0.7765874 0.10166982 -0.020149497
0.19527581 0.33598602 0.12646648 0.282085 0.018187836 -0.6850742 0.35951406 0.47200403
-0.6072838 0.32351613 0.17598571 0.5265015 -0.024043351 0.31040433 0.15401341 -0.23989713
0.3010921 -0.030418249 -0.07722717 0.16335063 0.042319667 -0.4398769 -0.04049985 -0.006637674
-0.29200506 0.0994623 0.30249467 0.266826 -0.08866092 -0.55129975 -0.35183722 -0.12692614
0.17094956 0.33089387 0.16376466 0.1845265 -0.043433163 -0.9212165 0.012445117 0.1904902
-0.56865543 0.29095444 0.28037795 0.1769918 0.081460625 0.73730725 -0.044101834 -0.17902258
0.27416787 -0.036709346 -0.17643604 -0.0327174 0.07460574 -0.4324652 -0.092010275 -0.10932611
-0.064161435 0.34995583 0.10910494 -0.08856848 -0.1804269 -0.85852677 -0.026873665 0.08325966
0.07847524 -0.011503613 -0.020303182 0.20459764 -0.06322148 -0.2571619 0.019891568 -0.31606078
-0.38334563 0.10880487 -0.06994724 0.13575298 0.15354161 0.08817719 0.09050347 -0.10264834
0.1170213 -0.14876497 -0.10342138 -0.10911953 0.13341692 -0.40785277 0.26301685 -0.15611377
-0.05968599 0.28059965 0.29294565 -0.2126712 0.10770938 -0.9607284 0.14662871 0.17344671
0.2441272 -0.64116615 0.45214602 0.014365658 -0.08054856 0.5888127 -0.03512165 -0.15904334
0.6174483 -0.49233347 -0.25497556 -0.45874822 0.12825157 -0.3831946 0.08825057 -0.0643567
0.16240583 0.27328354 0.040040158 0.16521022 -0.26604506 0.82794064 -0.47339326 -0.15479234
0.15102543 -0.19483615 -0.4270133 -0.16924322 0.1346074 1.2322431 -0.283099 -0.050311405

backbone_lstm1.weight_hh_l0 f4 [128, 32]
00000000: 7e39 293f e822 8dbe 1273 02be 74d7 973d
00000010: fcc5 843e 555f 0fbe 1547 393e acb1 a7be
00000020: 07de bdbd 7bbb 863e 966b 833e 574c 9c3e
00000030: 8611 2e3c f059 ca3e 62b7 b83e dec6 bb3e
00000040: c778 07bf 7226 873d 81b1 14be 0bf3 0abe
00000050: 0bc2 9f3d dd4a 73bd 0b67 40be e04f e03e
00000060: 74b4 ba3e 5417 7abe 0e39 bdbe 423e 14be
00000070: fa84 033f bbda 403e 8058 41be 9b42 943e
00000080: 099a f1bd 56c0 e13e 496e 083f cacf 133f
00000090: 4951 573e cdb5 00bf 719e 053d 799a 96be
000000a0: 389d 873e f34c ac3d 54db b83e e7d3 0ebe
000000b0: ebb8 3b3e d5d6 fabd 7a8f 14bf ff5d 9e3e
000000c0: 4295 2abe 9235 043f 156e 673c f20a a93d
000000d0: 4577 90be 3244 71be 2bf9 6a3d 0fbf 583d
000000e0: 4728 3c3e be06 713e be6a 44bd ca89 39bd
000000f0: 9ed0 8c3f 28bc 22bd 391b d13c 5218 253c
00000100: 795c debb 1412 d0be f5ed ddbe 9706 2abd
00000110: ba2a 153e 86c8 11bc 066c 73be a07f 813f
00000120: ac98 11bd b70b d53e ee3c 873e 8f73 4cbf
00000130: cc90 403e 681e 46be d195 36be a550 133f
00000140: 318f a43e 58e1 e6be e0fe d33e e03a 643e
00000150: 455d 4abf 442f 523f 9745 2abf d6b1 abbb
00000160: bb86 853e 0cb6 11be 420a b4bd 3807 043f
00000170: 7938 b9bc d97f 59be 1b15 86be c1e2 93be
00000180: 7b24 503d e223 7c3e 5926 883e 5377 ccbe
00000190: 402f 573d 948e 333e 2e54 4fbd 3241 013f
000001a0: dc0b b83d eb0a 5ebe 868b 583d baae 9bbe
000001b0: 1298 d63d 3e7a 50be aec8 e6bd 1661 f03d
000001c0: c9e8 ee3d 75ab 1ebf f053 063e 6105 3abb
000001d0: 1eb5 31bd 657d fa3e 0a21 013f b3bc babe
000001e0: a3c8 42be 7da5 ba3d ef58 853e 7a31 783d
000001f0: 6877 11bf 537b 23be 4afc 2abe 168a 7ebe
00000200: 09c8 18be e7d7 b43d d3f8 3d3e 053c df3e
00000210: e566 26be 4f88 e73e 6d32 e8bd 1fb5 49be
00000220: cba0 f13d d671 cf3e a4d7 473e 66ff 2b3e
00000230: b477 a4be 4245 f4bd e7be e8bd 4953 72be
00000240: 445f 6fbe d13f 073f 3fcd 8fbd af10 ccbe
00000250: d695 2b3d e0d6 33be c1ec e03c 4f97 81be
00000260: 01f8 5b3e d4ec 513e d59b bd3e 1217 96be
00000270: aabb 353e 7e4a aebe ad47 7ebb f6c0 363b
00000280: b7c3 ebbd 5fa6 d43e 3b52 073d e6c0 d63e
00000290: 56b3 cd3e 6559 5fbe f605 0ebe 6bab fbbc
000002a0: ed95 b7bd 1513 933e d427 c53e bb84 b63d
000002b0: 056f e33e 860f abbd e912 f4be 0aa3 763d
000002c0: 68a5 aabe 84a0 523f f987 c63d ae57 9bbd
000002d0: 10c7 3abe 08cf b8be 0f06 4ebe b102 4abe
000002e0: f5be b83e 669d 7f3d 9b5f 733e b0eb 203e
000002f0: 2a98 b03e 6991 88be 201b 603d b332 18be
00000300: b07e c33e 31e4 403c d20c e2be 041e b33d
00000310: be42 9b3d e060 863d a9f3 973e 4579 cabd
00000320: 220c bebe b1d3 8ebd 51a4 823d f56f 8a3e
00000330: f816 703e a175 91be 6bfa ac3e 9a1e 2a3e
00000340: 65d3 96be b282 8d3d 7190 9cbe 5a20 c23e
00000350: e4c0 f5bd 7791 3abf 2777 86be f9c6 8e3e
00000360: 9fd1 0d3e b457 91be fb19 b5be bad3 9b3e
00000370: dbb3 ccbd 6ee9 023f 2c8a 94bc a3f3 103d
00000380: 2ff7 12bf f4d7 6d3c e493 44bb 1665 863e
00000390: 384f 593e 9b28 2abe fff0 efbe 94c0 18be
000003a0: b3fe ba3e c1e7 e5bd 16fa 3b3f bd36 20bf
000003b0: 8e20 12be c220 ebbe aff0 84bf d102 613d
000003c0: b262 db3e e470 2ebd 117c 583f 3042 c7be
000003d0: 4c67 4ebe 1d1a 333f 4271 183e cd03 1bbf
000003e0: cc07 62bd fe26 c53e 229c c83e 0e56 b1be
000003f0: 94b0 f3bd 5894 2ebf 24b9 d1be a8f5 d1be
0.6610335 -0.27565694 -0.12739208 0.07414141 0.259323 -0.1400121 0.18093522 -0.3275274
-0.09270864 0.2631491 0.2566802 0.30526993 0.010624295 0.39521742 0.3607741 0.3667516
-0.52918667 0.0659913 -0.14520837 -0.13569276 0.07800683 -0.059397567 -0.18789308 0.4381094
0.364658 -0.24422961 -0.36957592 -0.14476874 0.5137478 0.18833439 -0.18881416 0.28957066
-0.11796958 0.44092053 0.5329328 0.57738936 0.21027102 -0.50277406 0.032621805 -0.29414728
0.26487136 0.084131144 0.36104834 -0.13948022 0.1833226 -0.12248007 -0.5803143 0.30931088
-0.166585 0.5164424 0.014125367 0.08254041 -0.28215995 -0.2356117 0.05736653 0.052916583
0.1837474 0.23537728 -0.04795336 -0.04529742 1.1001165 -0.03973022 0.025525676 0.010076599
-0.006785926 -0.40638793 -0.4334561 -0.04151019 0.1456708 -0.008897906 -0.23771676 1.0117073
-0.03554599 0.416105 0.26413673 -0.7986383 0.18805236 -0.19347537 -0.17830588 0.5754493
0.32140496 -0.450938 0.41405392 0.22288084 -0.7904857 0.8210337 -0.66512436 -0.0052397056
0.26079354 -0.14229602 -0.08791019 0.51573515 -0.022609936 -0.21240176 -0.26187977 -0.28883937
0.05081604 0.24623063 0.26591757 -0.39934787 0.052535295 0.17534858 -0.05061739 0.50490105
0.08986637 -0.21683852 0.052867435 -0.30406743 0.10478224 -0.20359132 -0.11268745 0.11737268
0.11665494 -0.6198037 0.13117957 -0.0028384554 -0.043385617 0.48923793 0.5044104 -0.3647209
-0.1902185 0.09113596 0.26044413 0.06059406 -0.56822824 -0.15965013 -0.16697803 -0.24857363
-0.14920057 0.088302426 0.1855195 0.4360048 -0.16250189 0.45221183 -0.11337743 -0.19697998
0.11798247 0.40516537 0.19515854 0.16796646 -0.32122576 -0.119272724 -0.11364537 -0.23664583
-0.23376185 0.5283175 -0.070215695 -0.3985648 0.04189094 -0.17562437 0.027456643 -0.25310752
0.21481325 0.20500499 0.37032953 -0.29314476 0.1774737 -0.34041208 -0.0038800046 0.002788601
-0.11511939 0.4153318 0.033037405 0.41944045 0.40175885 -0.21811445 -0.13869461 -0.030721387
-0.08964143 0.28725496 0.3850695 0.08912035 0.4442064 -0.0835257 -0.47670677 0.06021408
-0.3332932 0.8227618 0.096939035 -0.07585083 -0.18239999 -0.36095452 -0.20119499 -0.19727589
0.3608319 0.062405966 0.2376694 0.15714908 0.34491092 -0.2667344 0.05471337 -0.1486309
0.38182592 0.011773155 -0.44150406 0.087459594 0.075810894 0.06561446 0.29678085 -0.098864116
-0.37118632 -0.06973971 0.06378997 0.2703854 0.23446262 -0.28410056 0.33784804 0.16613236
-0.29458156 0.06909694 -0.3057895 0.37915307 -0.119996816 -0.7287821 -0.2626278 0.2788618
0.13849495 -0.28387225 -0.35371384 0.30434972 -0.09995242 0.51137435 -0.018132292 0.0353886
-0.5740842 0.014516819 -0.0029995376 0.26248997 0.21221626 -0.16617052 -0.46863553 -0.14917213
0.36522445 -0.11225844 0.73428476 -0.62583524 -0.14270231 -0.4592343 -1.0385951 0.054934327
0.42848736 -0.04258813 0.8456431 -0.38917685 -0.20156592 0.6996172 0.14886954 -0.60552675
-0.055183217 0.3850631 0.3918162 -0.34635967 -0.11898914 -0.68195105 -0.40961564 -0.41007733

backbone_lstm1.bias_ih_l0 f4 [128]
00000000: 4ac2 1d3d 2fd5 20be 2bcb 803e 2f97 23be
00000010: 8eec 59be b8ba 04be a05d 9f3e 1d35 66be
00000020: e383 20be 87e7 b13d 6ca8 4ebe 482d c43b
00000030: 41ff 49be 5ae0 033e 06ed 483e 8be0 46bd
00000040: 2e4e d3bd 44bc 82be afda 203e 1fd4 1e3e
00000050: d7b5 34be 939c f0be df43 6d3d b7ce 303e
00000060: c138 0b3e 51fb bfbe 13da de3e 742f 65be
00000070: eb77 373c aaf2 ee3e daa4 14be 67ee 67be
00000080: 11d7 023f a1f8 3e3e 7479 82bc ebf8 b73d
00000090: cfce cf3e db12 25be dc05 893e 5394 0dbe
000000a0: d7f5 b7bc ed0f 183e b392 863e e396 2ebc
000000b0: 8bc2 74be f0f0 e4bc 5b5d 85bd 2e0c 16be
000000c0: 96ba c23e 65e1 fd3d b29c 4f3e 3c32 d73e
000000d0: 259e a5be b4cd 00be d327 8f3d 3783 853e
000000e0: f8b2 6abc 99b9 89be 9b70 a03e 3002 83be
000000f0: c868 23be a567 ac3e ebc8 d1bd a9ed b6bd
00000100: d448 c23e b965 aa3e 4028 fc3c 7e93 b9bb
00000110: e7d5 8ebd 107c 9bbe cf1e 123f 624f d33a
00000120: 60c4 b7be f522 0dbf b5d7 d4be caa9 503e
00000130: 73dd cc3e 49b4 4c3e 2361 ca3e a6d7 d9bc
00000140: 1913 8abe e3ae 1abe 9933 51be 2719 b13e
00000150: 4e7d d0bd 0427 a0be 887b f03d 432b f43e
00000160: e1c1 d33d 0b0c 4abe 1e5f dfbe 62e2 8e3e
00000170: 99ad 6bbe 2674 123f 0d8e f7bd e82c c23e
00000180: 1d9e cbbd 7a89 8bbb 199d 253d 9cf9 903d
00000190: 8657 f7bd 6848 1e3d 614e 253e 7c3e 1bbe
000001a0: f1db d63d 7e1a 2d3e 8020 e93d 5d90 c23d
000001b0: 992c 8a3e 6924 613e b8d9 8d3e f1b6 a43e
000001c0: 6cb8 e23d 6642 9539 8422 35be e10c b9be
000001d0: 0127 753d 595e 47bd d23a 1fbe 34f7 9b3e
000001e0: 713e 99bd 3e26 16be 4651 5a3e fdb8 08bf
000001f0: cdef 29be 0eac cf3d 1fdc f7bc f789 c4bd
0.038515367 -0.15706323 0.25155005 -0.1597564 -0.21281645 -0.12961853 0.31126118 -0.22481199
-0.15675311 0.086867385 -0.20181435 0.0059868433 -0.19726278 0.12878552 0.19621667 -0.048553985
-0.10317646 -0.2553426 0.15708421 0.15510605 -0.17647491 -0.46994457 0.057926055 0.17266355
0.13595869 -0.37496427 0.43525752 -0.22381383 0.011198024 0.46669513 -0.14516011 -0.22649537
0.51109415 0.18649532 -0.015927054 0.08983024 0.4058747 -0.16120474 0.26762283 -0.13826112
-0.022456093 0.14849825 0.26283798 -0.010656091 -0.23902337 -0.02794692 -0.06511947 -0.14653084
0.3803298 0.12396506 0.20274618 0.42030513 -0.32347217 -0.1257847 0.06990018 0.2607667
-0.014324896 -0.26899412 0.3133591 -0.25587606 -0.1595794 0.33672825 -0.102434 -0.08932049
0.37946188 0.33280733 0.030780911 -0.0056633344 -0.069743924 -0.3036809 0.5707826 0.001612168
-0.3589201 -0.55131465 -0.4157082 0.2037727 0.40012702 0.19990648 0.39527234 -0.026592087
-0.26967695 -0.15105776 -0.20429839 0.34589502 -0.1018015 -0.31279767 0.11742312 0.47689256
0.10339714 -0.19731157 -0.43627256 0.2790709 -0.23015441 0.5720848 -0.12087641 0.37924886
-0.09942267 -0.004258332 0.040433023 0.07078859 -0.12077241 0.03864327 0.1614318 -0.15160555
0.10491169 0.16904637 0.11383152 0.09500191 0.2698715 0.21986546 0.2770517 0.32170823
0.11070332 0.00028468965 -0.17688948 -0.36142638 0.05985165 -0.04867396 -0.15549782 0.3046204
-0.07482613 -0.14663026 0.21320066 -0.5340727 -0.16595383 0.10140239 -0.03025633 -0.09596627

backbone_lstm1.bias_hh_l0 f4 [128]
00000000: 2f0c 60bb f836 77bd 4c39 313e 8251 443d
00000010: d026 9cbe cf4b 78bd a8f7 0b3e b5aa 9cbe
00000020: e9b7 b9bd a7d3 983e d79e 413d 5635 27be
00000030: ef65 8bbe db72 e83d c0e2 8a3e e1e6 79be
00000040: bf63 8ebc c2e9 babe 844f 1f3e 1aac 0e3e
00000050: e763 c4be 1f3c c0be e0be 19be 8434 c63e
00000060: ed5c 7b3e 9db4 d4be 5473 063f cded eebe
00000070: 4e46 06be 0c30 973e 2ce5 1fbd 6c39 f4bd
00000080: 4c6d 023f e839 753e f04c 393e b0be 46bd
00000090: 4eae 8e3e 85c3 e53d c7c2 413e fe89 49bc
000000a0: c825 873c 8636 cdbd c86f 323e 6a71 223e
000000b0: dda5 7b3d 0a6e 623d 0680 77bd 1638 4bbe
000000c0: ba63 713e 976f 42bd 71e8 9a3e d6c4 523e
000000d0: 45e9 5ebe 7fc3 40be 627c 27be 08e4 a83e
000000e0: 3cce 2b3d 4465 7c3a 90d6 4d3e 8287 f5be
000000f0: 39c2 b6bc 6c36 e03e c465 a83c 5079 0fbc
00000100: ff29 5c3e f6e1 aa3e 1def 163e f0d3 5bbe
00000110: c61e 31be ce6b 18be 0cc4 193f af80 c3bd
00000120: 5bef 72bd c2f9 05bf ac7d 10bf b495 4a3e
00000130: 00ce b43e 4c70 143e df1d b93e fcfa f83d
00000140: 94e6 43bd 117d d2bd e368 d0be 1bd9 233e
00000150: ef96 513d 2c02 91be e913 803d 1c77 003f
00000160: a88c 323e ea92 8abd a510 1fbf cc42 d53e
00000170: 56ae debd 0221 173f 5148 a8be 0117 3d3e
00000180: 3863 84ba c61f ce3d b0cb 58be f4fc 643d
00000190: a25b 7abd b431 853d 2d37 ba3c fb33 893d
000001a0: c7f1 acbd b531 373e fdbe 56be c895 913c
000001b0: dc59 6d3e 1ba1 f73d b04c be3c dd91 503e
000001c0: 59db 0b3e 25cd a83e f4a9 cbbd 8d1e 26be
000001d0: 5ff9 a43d 0938 c33d e6ae 3fbc 187e a93e
000001e0: dcda 9e3d f666 d0bb 0b89 bb3e 241e 93be
000001f0: d59b b43c a35c a3bd 5afb 67bd 700d a33d
-0.003418695 -0.060355157 0.17307013 0.047929294 -0.30498362 -0.06061917 0.13668692 -0.3059899
-0.09068281 0.29848978 0.047270622 -0.1632894 -0.27226207 0.11350032 0.27126122 -0.2440448
-0.017381547 -0.36506468 0.15557677 0.13932839 -0.3835747 -0.3754587 -0.1501422 0.3871194
0.24547167 -0.41544047 0.52519727 -0.46665803 -0.13112757 0.29528844 -0.039036915 -0.11925015
0.50948024 0.2394787 0.18095756 -0.048521698 0.2786736 0.11218933 0.18921958 -0.012300966
0.016497508 -0.10020165 0.17425454 0.15863577 0.061437476 0.055280723 -0.060424827 -0.19845614
0.23573199 -0.0474697 0.30255464 0.205829 -0.21768673 -0.18824576 -0.16356042 0.32986474
0.041944727 0.0009628127 0.2010138 -0.47954947 -0.02230941 0.4379152 0.020556338 -0.0087569505
0.21500395 0.3337552 0.14739652 -0.21467566 -0.17296895 -0.14884874 0.6006477 -0.09546029
-0.0593103 -0.52334225 -0.5644176 0.1978367 0.35313416 0.14495963 0.36155602 0.121572465
-0.04782732 -0.10277761 -0.40705022 0.16000788 0.051169332 -0.2832197 0.062537976 0.50181746
0.17436469 -0.06766303 -0.6213477 0.41652524 -0.10873096 0.5903474 -0.32867673 0.18465807
-0.001010037 0.10064654 -0.2117145 0.055905297 -0.061122544 0.06503621 0.022731388 0.066993676
-0.08444553 0.17890055 -0.20971294 0.017771617 0.2317881 0.12091275 0.023229927 0.20368142
0.13657893 0.32969013 -0.09944525 -0.16222592 0.08055376 0.09532172 -0.011699414 0.33104014
0.07756588 -0.00635993 0.36627993 -0.28733933 0.022046963 -0.079766534 -0.056636192 0.079615474

backbone_lstm2.weight_ih_l0 f4 [64, 32]
00000000: aba2 bbbd 34c2 063e e816 083f 23a9 7d3d
00000010: dca5 6dbe 12cc dabe e077 24bd 42ed fb3e
00000020: a897 cc3d 7597 ac3e 7cfa c13e f4fb 193f
00000030: d675 3ebe 59f1 1e3d 3126 ecbe 1fc6 f8bd
00000040: 5a32 65be 70f2 d23d b532 bcbd 9abb 22be
00000050: b8d6 3cbf 3fba 43bf 7914 b3bd 6a72 6abe
00000060: 05a9 acbd 77e8 f1bd 8b46 813d ea53 343e
00000070: b25a 353f 8f2b 5bbe a1aa 733d 9643 8cbe
00000080: 4ca8 4cbd 3433 d63e c4c9 a73e bff9 9bbe
00000090: ba38 24be a7e4 59be f58d 0e3e a885 2a3d
000000a0: 97ab aa3d 44f9 1dbe fae9 67be 633e a83e
000000b0: 27ce 23bc f961 9d3d a520 c9bc 6a5c 913d
000000c0: 169b 2c3c ab37 cabd d840 09be 1f96 94bd
000000d0: 12a7 26be f050 463c 3c31 793e 2a58 85be
000000e0: 828d b13b 65d1 613c 1113 a63c ad25 05be
000000f0: b59b 20be 1651 0bbc 5ce4 f43d 4265 0d3d
00000100: 13ab 5f3e 6d05 90be de9c 403f 50c8 a03e
00000110: 5eff d43d 3d48 3b3e 4351 83be 5992 cb3e
00000120: 9526 433e 5051 303d 2bed 1f3e 74c1 033f
00000130: 71b1 0cbf cce6 243e da7e ebbc 639f c8be
00000140: b3fc dbbe e832 973e 1fe5 1b3e c16b 4abe
00000150: 7a3d b3be 756c 37bf 2aca b2bd 4b2f 89bd
00000160: feae 863e 4983 a93d 8f89 5a3e 903a 1dbe
00000170: b38b 013f 2e20 a0bc 8269 0b3f 73f7 f1bd
00000180: e3ce 98be e1e7 8dbd 7a16 553d f1cf ec3d
00000190: 7e1d f8bb 5d42 5fbd 50a7 293d 227b 1d3f
000001a0: 4675 12be f986 abbc 6af6 323e 330e b8bd
000001b0: 1119 ebbe 39be 42be 512f e9be 0cc1 96bd
000001c0: 85c8 943d 2de1 263e c9e2 273e 52fe 1abe
000001d0: 2b71 f9be 22b9 1bbe 903f 2cbe fa0a ab3d
000001e0: cc56 2b3e bbd3 503e 996f 4d3e a20b 6e3d
000001f0: de7b 1dbc 88e6 e13c 53e0 c83e 4cb3 4cbd
00000200: 8637 12bc 64b2 1b3d bda9 58bc 386b 923e
00000210: 8348 95bf e4a0 ba3e 964b a3be d0f9 f13d
00000220: 5236 baba 6524 3c3e 5b5f 3abe da2d c03e
00000230: a7cf 1a3d ee19 3c3e 67e8 cc3d fcdc b33e
00000240: 8c2b ddbe d7e6 953e 81b0 eabd e709 08be
00000250: f2fb 99be 3023 493e 2027 0abf 4d3c 123d
00000260: 5176 0abd 7b16 7abe 2d2c 183f 5aa3 b1be
00000270: 6985 19be f7c3 60bd 420d 193f cb39 b4bd
00000280: ab43 17be 7fa8 a23e 7066 373c ef41 033e
00000290: 3d86 60be 8747 0bbf 442d d93c 173d 053f
000002a0: 2ec2 033f dfa0 af3e c6a0 e3be 3c05 623f
000002b0: 1fd0 3abe fab3 95be 629d 163f 86cd 4e3d
000002c0: dc55 103c 216c 17bd 7b3a 8dbe a4b2 c2be
000002d0: a200 1e3d 7422 95be 42cf 84be ece1 9ebe
000002e0: e6d8 7b3d 1dd1 093e 6466 843d 42b4 343e
000002f0: 90fd 223e d443 44be 748e bbbe 0a11 67be
00000300: 690d d4be 88f1 9b3e 434a 903e f900 863e
00000310: 41c5 18bf a1d6 82be a675 28be f768 ad3f
00000320: 2028 8b3e 77dd 823e 5ee9 063f 7cdc 353f
00000330: c0dd 53bd d159 17be abd8 15be 1c1d 503e
00000340: c61d e4be e41f 083e 60d6 08be eb51 0fbe
00000350: 54e3 82bd da58 36bf 3063 25be 00ab bfbd
00000360: 8280 6a3e b597 02be 1865 653e fac1 4abe
00000370: 7e31 99bd 3ea6 ba3e 723c e03e 49fe ddbd
00000380: 7ca3 603e 9aaa b13e 8077 babe d06d 6cbe
00000390: 4c3a 01be 0929 dabe 76bd 863b 241a a53e
000003a0: 7bf3 c43d 6486 d6bd 3972 ebbe 2cb8 0d3f
000003b0: 2d12 ae3e f891 463e 2380 853e d21c bd3d
000003c0: d27e 1abe 8f3c fabd 722d d83d 20a7 b93e
000003d0: 76ec 143c 3882 20bf edca 8dbe 283a 123e
000003e0: 03c1 073e f017 d7be 6afe f5bd bf43 fe3e
000003f0: 2f9e 28bf bcdc fe3d de3c a6be 6747 993e
-0.09161886 0.1316002 0.5315995 0.06192888 -0.23207802 -0.42733818 -0.040153384 0.4920445
0.09989864 0.33709303 0.37886417 0.60150075 -0.18599638 0.038804386 -0.46122888 -0.121471636
-0.22382489 0.103001475 -0.09189359 -0.15891877 -0.73765135 -0.76456064 -0.08744139 -0.22895208
-0.084306754 -0.11811917 0.06312283 0.17610136 0.70841515 -0.21403335 0.059488896 -0.27395314
-0.049965188 0.4183594 0.32771122 -0.3046398 -0.16037264 -0.2127863 0.1392134 0.04163137
0.083335094 -0.15427119 -0.22647849 0.32860097 -0.009997881 0.076847024 -0.024551699 0.07097705
0.010535022 -0.09873899 -0.13403642 -0.07255196 -0.1627467 0.012104258 0.24335188 -0.26043826
0.0054184804 0.013782834 0.020272763 -0.13002653 -0.15684398 -0.008503219 0.119576186 0.034520395
0.21842603 -0.2812914 0.7523936 0.31402826 0.1040027 0.18289275 -0.25647935 0.39760092
0.19057687 0.043046296 0.15617816 0.5146706 -0.54958254 0.16103667 -0.028747011 -0.39184102
-0.42966232 0.29531026 0.15224122 -0.19767667 -0.3500784 -0.7164987 -0.08729966 -0.066984735
0.26305383 0.08276994 0.21341537 -0.15354371 0.5060379 -0.019546594 0.5445787 -0.11814775
-0.29845342 -0.06928993 0.05202339 0.11563099 -0.007571875 -0.05450665 0.041419327 0.6151601
-0.14302549 -0.020938383 0.17476812 -0.08987083 -0.45917562 -0.19017877 -0.45543912 -0.073610395
0.072648086 0.16296835 0.16395105 -0.15136078 -0.48719153 -0.15207341 -0.16821122 0.08351703
0.16732329 0.20393269 0.20062102 0.058116563 -0.009612052 0.027575746 0.39233646 -0.04997568
-0.008924371 0.038011923 -0.0132240625 0.28597426 -1.1662754 0.36450875 -0.31893605 0.11815226
-0.0014206863 0.18373258 -0.18200438 0.37534982 0.03779569 0.18369266 0.10005265 0.35129535
-0.43197286 0.2927768 -0.11459447 -0.13285027 -0.30075032 0.19642329 -0.5396595 0.03570204
-0.03380424 -0.24422638 0.59442407 -0.3469494 -0.14992298 -0.054874387 0.59785855 -0.08800086
-0.14771907 0.31769177 0.011193857 0.1281812 -0.21926208 -0.5440602 0.026510842 0.5204634
0.5146817 0.34302422 -0.44458598 0.8828924 -0.18243454 -0.29238874 0.588339 0.05048897
0.008809533 -0.036968354 -0.2758368 -0.38026917 0.038574822 -0.29127848 -0.25939375 -0.3103174
0.061486147 0.13458677 0.06464842 0.17646888 0.15917039 -0.191665 -0.3663212 -0.22565094
-0.4141648 0.3045771 0.28181657 0.26172617 -0.59675986 -0.25554374 -0.1645113 1.3547658
0.2717905 0.2555959 0.5269984 0.7103956 -0.05172515 -0.14780356 -0.14633434 0.20323604
-0.44553965 0.13293415 -0.13363028 -0.13996093 -0.06391016 -0.71229327 -0.16151118 -0.093587875
0.22900584 -0.12753184 0.22401845 -0.19800559 -0.07480143 0.36454958 0.43796116 -0.10839517
0.21937364 0.3470047 -0.36419296 -0.23088765 -0.12619895 -0.42609432 0.004111941 0.32246506
0.09616753 -0.10474852 -0.45985582 0.5535915 0.33998242 0.1939162 0.26074323 0.09234013
-0.1508744 -0.12218582 0.10555543 0.3626032 0.00908958 -0.626987 -0.27693883 0.14279997
0.13257222 -0.4201045 -0.12011416 0.4966106 -0.6586637 0.124444455 -0.32468313 0.29937288

backbone_lstm2.weight_hh_l0 f4 [64, 16]
00000000: 7315 913e 73f0 f7be 620a 103e 8201 cb3e
00000010: db0c 4f3e 75eb ecbd 621c 2e3d e3b9 af3e
00000020: 3d40 033e 7e9f 00bf 3947 073f e6fd 463e
00000030: a0e4 2e3e 3e1a 34be 030b 173d e7ec c4bd
00000040: 5381 a2be 7108 063e 90d5 773e e881 53bd
00000050: 2306 a4b9 bf89 a6bc a805 223b afb2 55be
00000060: 2b63 e13e dc0a 43be 5a7b 3ebe b5d3 073e
00000070: 0a2a a0be 2d79 71be e5f5 b4bc 4151 20bf
00000080: fd70 3e3d 83a4 b3be 8ea9 f73e 9e7e 6f3e
00000090: 536a d23e 75aa d5be 2adb a4be cab8 623e
000000a0: 1e72 833c 9180 193c d95b df3e c586 b93e
000000b0: 6b16 633e 870d 80be 1a8a 103e e7d4 9bbc
000000c0: 8f18 57bc 58e4 3abe 7a84 973e 8629 a83e
000000d0: 58c5 dcbc 826e debe acfd c2be acc6 a0bc
000000e0: f457 0fbe 8fa7 5bbe fe6c ca3d 33ad e33d
000000f0: fb4b 2bbc 4dda 9a3d a97b bbbc aa9b 8abd
00000100: c106 12bd 83a6 a6be c131 193f 4368 9c3e
00000110: dfb8 ab3e fd07 db3d c39f 9fbe 848d 9b3e
00000120: 376f c1be 0825 5c3d ce35 78bd b612 963e
00000130: 858c 193e fc90 71bf 9631 8e3d 245f 093f
00000140: 4d49 943e a2a9 afbe a077 e2bc 6999 123e
00000150: 6ad5 773e 03a1 33be 778c 87be 260d 2a3e
00000160: 4473 84bc c3a3 2bbe be5a 313e 6f10 893e
00000170: 6caf 803e 47b6 8ebe 6b2c 8b3e ca8b 3fbe
00000180: cc64 393d 4044 27bf 60f2 f83e 7c2a 99bd
00000190: 98df 883e a5a3 1dbf 4a79 9ebe 2906 da3e
000001a0: 7515 353f 37c2 4dbf 160c 6cbe c535 0c3e
000001b0: dc0f 353e d8f4 11bf b723 853e cba9 65bc
000001c0: a8fa 963e 8bbd 07be 15dd 333f 4ee4 903d
000001d0: 85df b03e 54a4 c8bc 259e c73d 141b 393d
000001e0: 7f6e ad3d b0a5 09bf 0ed2 cbbd 5188 243e
000001f0: 4b72 7f3e 10ff 05be 2828 593e f660 b8be
00000200: 586d 273e ab8a f9be 9e83 0a3e 7ba0 f8bd
00000210: c996 e03e 59c6 24be ab20 ecbe 0daa 233f
00000220: 5ad0 8e3e 1743 39bf 8e5e 9cbd 7ade 723e
00000230: da91 d53d b0ed 0abf 1b9e 37be a67e 123e
00000240: a0e8 ad3e 09b8 6d3d 7cae bc3c b9c2 37be
00000250: bcd3 ba3d 8bd5 a63c 75f3 ebbd 7f5f 173e
00000260: 6572 e2bd 37c5 f8bd 6000 88bb da78 7c3e
00000270: 5e52 6f3e a5b6 f2bd 772f fabc 03c3 07bf
00000280: 7f22 4d3e 4966 afbe a739 f23e 7391 7abd
00000290: 820d 893d c1c6 a2be 805b 87be c199 e33e
000002a0: 5206 863d e75a 07be d23d 563e 2a73 e23e
000002b0: ddcb 8d3e 326d b1bd 9c99 84be 2644 453d
000002c0: 0875 88be 5eb1 1dbe 44fd a73d fabb e5be
000002d0: 0549 c23d 478f 23be e8fc bcbe 74a8 e03e
000002e0: c4ba 093e 7a9c 10bf dcd1 febe b6f3 aa3e
000002f0: 9c06 9dbd a87d 82bd f3f5 85be 1e23 f1bd
00000300: 09b7 6bbe 87a8 893c fe55 39bd ffe0 2bbe
00000310: 60fd a23b 8494 3bbe 12c7 793c 9e1c af3c
00000320: 60f6 50bd 14fc 0bbe 9e29 a43e 45ea 173d
00000330: 59fb 313e 630b 69be fc9d 873e b01a 72be
00000340: 62bb d3be 9478 83be a72c 733e 98c7 463e
00000350: 605a a73c c390 80be 280b 21bc dcc4 a13e
00000360: 3251 573c 95cf 12bf 4c3c e0bd 5dfd a93e
00000370: a5ec 923e f858 66bf 4707 d53e bda1 40be
00000380: 1041 a4bd 4a03 593c 8fb9 83be d058 843d
00000390: 2fdd 833e a6cb cfbd 3950 5b3d 6e5d 973e
000003a0: d3a4 9dbe c315 6dbe 3016 e3bc 87c1 b93e
000003b0: 620c 7e3a 3cc1 57bd d620 4dbd 3aaa a5be
000003c0: e7cd 443e f330 02be e0bf 3a3d 0d36 043e
000003d0: 9cd6 023f ef57 72be e965 d5be ab61 c63e
000003e0: 5de2 6abe 1d09 973e ca35 b23e 9808 cb3e
000003f0: 458f a33e 1ca3 cfbe 3e5e a0bd 0122 febc
0.28336677 -0.48425636 0.1406646 0.39649588 0.20219748 -0.11568347 0.042507537 0.34321508
0.12817474 -0.50243366 0.5284305 0.19432792 0.17079401 -0.17588136 0.036875736 -0.09615498
-0.31739292 0.13089158 0.24202561 -0.05163756 -0.0003128509 -0.020329354 0.002472261 -0.20868944
0.44020972 -0.19047111 -0.18601742 0.13264354 -0.31282073 -0.23581381 -0.022089908 -0.62623984
0.046494473 -0.3508645 0.48371547 0.23388144 0.41096744 -0.4173161 -0.3219846 0.22140804
0.016045626 0.0093690315 0.43624762 0.36235633 0.2217652 -0.2501032 0.14115182 -0.019022418
-0.013128414 -0.18251169 0.2959326 0.3284418 -0.02694957 -0.43443686 -0.3808416 -0.019625984
-0.13998395 -0.21450637 0.0988407 0.111170195 -0.010455127 0.07561169 -0.022886114 -0.06767972
-0.035650972 -0.32548913 0.59841543 0.30548295 0.33539483 0.10694883 -0.31176576 0.30381405
-0.37780163 0.053746253 -0.060598187 0.2931115 0.1499501 -0.94361854 0.069430515 0.536608
0.28962174 -0.34309107 -0.027644932 0.14316334 0.24202505 -0.1754189 -0.26474354 0.16606578
-0.016168244 -0.16761689 0.17319772 0.2677035 0.25133836 -0.27873442 0.27182326 -0.18705669
0.045262143 -0.65338516 0.48622417 -0.074788064 0.26733088 -0.61577827 -0.3095191 0.42582825
0.70735866 -0.80374473 -0.23051485 0.13692386 0.17681831 -0.57014227 0.2600381 -0.014017533
0.2948811 -0.13255899 0.7025922 0.07074796 0.34545532 -0.02449242 0.097469606 0.04519184
0.08468341 -0.53768444 -0.09952174 0.16067626 0.24945943 -0.1308558 0.21206725 -0.36011475
0.16350305 -0.48738608 0.1352677 -0.12139984 0.4386504 -0.16091289 -0.46118674 0.6393135
0.27893335 -0.72367996 -0.076352224 0.2371768 0.104282096 -0.5426893 -0.17931406 0.14306125
0.3396654 0.058036838 0.02303242 -0.17945375 0.091224164 0.020365497 -0.11521045 0.14782523
-0.11056975 -0.12146991 -0.0041504353 0.24655476 0.23371264 -0.11851243 -0.030540211 -0.5303194
0.2003269 -0.34257725 0.4730961 -0.061173867 0.066920295 -0.31792262 -0.26436996 0.44453242
0.06544174 -0.1321827 0.2092202 0.44228488 0.27694598 -0.086634055 -0.25898445 0.048160695
-0.26651788 -0.15399691 0.082026035 -0.44869977 0.094865836 -0.15972625 -0.36911702 0.4387852
0.13450152 -0.56488764 -0.49769485 0.33389062 -0.07667276 -0.06371623 -0.26164207 -0.11774276
-0.23019041 0.016803993 -0.045248024 -0.16785048 0.0049740523 -0.18318373 0.015245216 0.02137595
-0.05101621 -0.13670379 0.32063 0.03708865 0.17381038 -0.2275825 0.2648772 -0.23642993
-0.413539 -0.2567793 0.23747502 0.19412076 0.020428836 -0.25110444 -0.00982932 0.31595504
0.013141917 -0.57347995 -0.10949001 0.33201113 0.2869617 -0.89979506 0.41607115 -0.18811698
-0.08020222 0.013245413 -0.25727507 0.06462252 0.25754687 -0.10146265 0.053543303 0.2956347
-0.30789813 -0.23152833 -0.02772054 0.36280462 0.0009691176 -0.052674517 -0.050080143 -0.32356435
0.1921917 -0.12713985 0.045593143 0.12911244 0.5110872 -0.23666357 -0.41679314 0.3874639
-0.22937913 0.2949914 0.34806663 0.39654994 0.31945243 -0.4055413 -0.07830475 -0.031022074

backbone_lstm2.bias_ih_l0 f4 [64]
00000000: a806 01bf 233e 89be 7f94 0abe 7f4b 583d
00000010: 12b4 bebd 08f8 dfbe 86bf 07bf f961 8bbe
00000020: 0263 5bbe 4eb6 8cbe d167 40be 7e07 b3be
00000030: bc48 06bf bc52 e6be b22a d2be 38f3 c7bd
00000040: aa7e d83c 72f9 7abe 199f 113f ae2c 883d
00000050: 262c 893e be9b 3a3e 80e7 df3e 0752 63be
00000060: 130f 07be 5f23 c63c cd51 003f de2b 103f
00000070: 19f7 be3e 7788 023f 6cd0 923e 79bd 8c3e
00000080: f295 c23d 22cc 55be ce6b 10bd 1bac f9bd
00000090: 17bb b1bd 9f81 80bd 0540 bb3d a4ee 7c3e
000000a0: 4363 fbbd 28a1 8a3d 5fac 12be 2fd9 38be
000000b0: 5fa9 833e c158 0cbe e0ff 433e 998c 74be
000000c0: 623f da3e 9015 bd3e f5a1 41be 34e9 b53e
000000d0: e1c5 f5bd 9ff0 efbe 66c0 cc3e 6ce2 ecbe
000000e0: 5bf7 5d3c e779 8f3e 757f 4e3e e244 833e
000000f0: f198 943e 4e6e 1c3f 6bf3 c83e db02 0abe
-0.5040078 -0.2680522 -0.1353321 0.052806374 -0.093116894 -0.4374392 -0.53026617 -0.27223185
-0.21424487 -0.27482837 -0.18789603 -0.34966654 -0.52454734 -0.44984996 -0.410482 -0.09763187
0.026427586 -0.24509218 0.5688339 0.06649147 0.26791495 0.18223473 0.43731308 -0.2219926
-0.13189344 0.024186788 0.5012482 0.56316936 0.37297896 0.5098948 0.28674638 0.27488306
0.09501256 -0.20878652 -0.03525906 -0.1219103 -0.08678263 -0.06274723 0.0914307 0.24700409
-0.12274792 0.06769019 -0.14323567 -0.18051599 0.25715157 -0.13705732 0.19140577 -0.23881759
0.42626482 0.36930513 -0.18909438 0.35529482 -0.12000633 -0.46863267 0.39990538 -0.46266496
0.013547744 0.28022692 0.20165808 0.2563849 0.29022935 0.6110581 0.39248213 -0.13477652

backbone_lstm2.bias_hh_l0 f4 [64]
00000000: d14f d2be 639e 25be 1d69 27bc 39d0 46be
00000010: 204f 63bd 4906 01bf 9800 0abf 10ed 423e
00000020: de37 dabe f7b9 e3be 0be3 3bbe efdc c9be
00000030: c8f6 40be e4e2 2bbe ae3b b1be 4fa0 1ebe
00000040: 8de3 a03e 54a8 babd 10c0 8f3e e119 343e
00000050: 393d b23d 974c 64be 1680 9b3e 2c94 b8be
00000060: 2597 4b3e 80a8 cabd 0918 033f 1533 0c3f
00000070: 4fe6 923e 86ad 233e 353e 0a3f aeea 853c
00000080: f6d9 313e bd08 223e 9cd0 013e 6dfa 063e
00000090: 1778 0d3e bd83 3f3e 88f3 70bc 698f 98bd
000000a0: 5caa 10be bc89 62bd 69c1 2c3e b614 79bd
000000b0: 9ed8 bebd 425f 96bd 35f2 083e e811 f73d
000000c0: ba40 de3e 1de4 433e 9905 8dbb ac5c 253e
000000d0: 5502 313e 0fb6 d6be c295 fc3e f55f abbe
000000e0: 35ba a53e 3a80 5d3e d525 ce3e a46d d7bd
000000f0: 7b96 7a3d b54e 1f3f 5c82 503e 2980 63be
-0.4107652 -0.16173701 -0.010217932 -0.19415368 -0.05549538 -0.50400215 -0.53907156 0.19035745
-0.42620748 -0.44477817 -0.18348329 -0.3942637 -0.1884414 -0.1678577 -0.34615844 -0.1549084
0.31423607 -0.09114137 0.2807622 0.17587997 0.087030835 -0.22294842 0.3037116 -0.36050546
0.19881876 -0.0989542 0.5120855 0.54765445 0.28691337 0.15984163 0.5400117 0.016347256
0.17368302 0.15823646 0.12677234 0.13181467 0.13815342 0.18702598 -0.0147065 -0.07449228
-0.14127487 -0.055307135 0.16870655 -0.060810767 -0.0931866 -0.07342388 0.13373645 0.12063962
0.43408757 0.19129987 -0.004303646 0.16148633 0.17286046 -0.41935775 0.49333006 -0.33471647
0.32368627 0.21630946 0.4026324 -0.10518959 0.061178666 0.6222947 0.20362228 -0.22216858

fc.weight f4 [1, 16]
00000000: 809d 5bc0 3b3e 5040 4c2b 5d40 c3b3 6cc0
00000010: 4d2e 4ac0 6e30 5140 1963 5c40 90ba 51c0
00000020: c8e0 7740 fc98 7dc0 0157 76c0 f163 54c0
00000030: 3fe3 4ec0 5444 5240 6e4b 78c0 a020 80c0
-3.431488 3.2537982 3.4557676 -3.6984718 -3.159076 3.268581 3.4435484 -3.2770119
3.8730946 -3.9624624 -3.8490603 -3.3186 -3.23262 3.2854204 -3.8796039 -4.0039825
