notebooks/lstm_backbone.pth (torch, 116513 bytes, 7 tensors)

conv1.weight f4 [32, 32, 3]
0	0x3e05a3f5	0.13050826
1	0x3c6b67f9	0.014368051
2	0x3d913db8	0.0709185
3	0x3e2596db	0.16170828
4	0x3eb41b80	0.3517723
5	0x3e6641e8	0.22486079
6	0xbe6a5fb7	-0.22888075
7	0xbe86d102	-0.26331335
8	0xbeb3541c	-0.35025108
9	0x3d5af977	0.053460564
10	0x3b2c6d62	0.0026310314
11	0x3e0a3b96	0.13499293
12	0xbe38b95c	-0.18039459
13	0xbe19ca4e	-0.1501858
14	0xbd228ca5	-0.03968491
15	0x3d9bb57c	0.07602975
16	0x3d74f89d	0.05980741
17	0xbcc8aacc	-0.024495505
18	0x3d296696	0.0413576
19	0x3dd7fc74	0.105461985
20	0x39afaedc	0.00033508881
21	0xbd150d72	-0.036389776
22	0xbdf8a8bb	-0.12141558
23	0xbe1ed9b9	-0.15512742
24	0x3d826769	0.0636738
25	0x3b06c75a	0.00205656
26	0xbd8f2b1e	-0.06990646
27	0xbcb2571b	-0.02177005
28	0xbd6be46c	-0.057590887
29	0xbe061277	-0.13092981
30	0x3e53b099	0.20672835
31	0x3eaa7053	0.33288822
32	0x3e46241d	0.19349714
33	0xbddd24be	-0.10798024
34	0x3cfb6f40	0.030692697
35	0xbc9b38cf	-0.018947987
36	0xbe839181	-0.25696948
37	0xbe2d3286	-0.16913804
38	0xbe2a5a10	-0.16635919
39	0xbe34d59d	-0.17659612
40	0xbdf20c2d	-0.118187286
41	0xbe4bf0d6	-0.1991609
42	0xbdcfa505	-0.10138897
43	0x3d6a5b68	0.057216078
44	0x3dc5d8d7	0.096604995
45	0xbca4e522	-0.02012879
46	0xbd018927	-0.03162494
47	0xbd37c441	-0.044864897
48	0x3da27e33	0.07934227
49	0x3ddd9a62	0.10820462
50	0x3e854c51	0.26034787
51	0x3ca1024f	0.019654421
52	0xbd8d4bb0	-0.06899202
53	0x3e085a9c	0.13315815
54	0xbea6d8de	-0.32587332
55	0xbe8c6846	-0.27423304
56	0xbed4dcf6	-0.4157483
57	0xbdf13744	-0.11778119
58	0xbe48da26	-0.19614467
59	0xbd8ed899	-0.069749065
60	0x3e20e35f	0.15711735
61	0x3e40493a	0.18777934
62	0x3dc2a07b	0.095032655
63	0x3de50754	0.11183038
64	0x3c2f897d	0.010713932
65	0x3df6a32c	0.12042841
66	0xbb2eb923	-0.0026660643
67	0x3e310864	0.17288357
68	0x3d5eb5a6	0.054372452
69	0xbeebca13	-0.46052608
70	0xbeaff1a2	-0.3436404
71	0xbedb1a7b	-0.4279364
72	0x3ec1d7af	0.37859866
73	0x3e9e18db	0.30878338
74	0x3eb3092a	0.3496793
75	0xbebfaeb6	-0.3743798
76	0xbe5163fe	-0.204483
77	0xbe3bf07e	-0.18353459
78	0x3b1e9b7d	0.0024201565
79	0x3e10ee00	0.1415329
80	0x3dd7d13b	0.105379544
81	0x3d6e00e7	0.05810633
82	0xbc68d32f	-0.014210506
83	0x3e033c25	0.12815912
84	0xbe30de8f	-0.172724
85	0xbe9c0889	-0.30475262
86	0xbe53c7b4	-0.2068165
87	0xbe86b2e6	-0.26308364
88	0xbea3f974	-0.32026255
89	0xbebd4cbc	-0.36972606
90	0xbe5f52bb	-0.21808903
91	0xbde9d58a	-0.114176825
92	0xbdd9ed11	-0.1064092
93	0x3dcaea10	0.09907925
94	0x3e4dd7f5	0.20101912
95	0x3d2af867	0.0417408
96	0x3e663fb5	0.2248524
97	0x3e257730	0.16158748
98	0x3e3f618f	0.1868956
99	0x3db0bee5	0.0863016
100	0x3e23d5ad	0.1599948
101	0xba8634ee	-0.0010239163
102	0xbf143a23	-0.5790121
103	0xbf230c9d	-0.6369112
104	0xbf06f233	-0.52713317
105	0xbe5c7ed5	-0.21532758
106	0xbe744803	-0.23855595
107	0xbeb2f6a9	-0.34953812
108	0xbec246da	-0.3794468
109	0xbe97b4c5	-0.29630104
110	0xbecc41b1	-0.3989387
111	0xbebb1358	-0.36538196
112	0xbede7db7	-0.43455288
113	0xbe94f1ab	-0.29090628
114	0x3e8a9849	0.2706931
115	0x3ebe149e	0.37125105
116	0x3eb298fe	0.3488235
117	0xbd965039	-0.0733952
118	0xbe2a2d3c	-0.16618818
119	0xbddc391e	-0.10753082
120	0xbe65c997	-0.22440182
121	0xbe9603bc	-0.29299724
122	0xbe8388b0	-0.25690222
123	0xbb6bbd1d	-0.0035970875
124	0x3caa0671	0.020755025
125	0x3e0483d5	0.12940915
126	0x3e8ee4e6	0.2790901
127	0x3e1b72a3	0.15180449
128	0x3e3d06e4	0.1845966
129	0xbdef6e89	-0.11691005
130	0xbd491ba6	-0.049098633
131	0xbe4c3697	-0.199427
132	0xbe8c2844	-0.2737447
133	0xbe819224	-0.2530681
134	0xbed22d01	-0.4104996
135	0xbebab278	-0.36464286
136	0xbe833543	-0.25626573
137	0xbe9cf5e2	-0.30656344
138	0xbdab07d4	-0.083511025
139	0xbe2e3fbd	-0.17016502
140	0xbe389ef9	-0.18029393
141	0x3e67234b	0.22572057
142	0x3e7d0080	0.24707222
143	0xbdadeb67	-0.08492165
144	0x3db7c5f5	0.08973304
145	0x3d013093	0.031540465
146	0x3e007661	0.12545158
147	0x3e161571	0.14656617
148	0x3e429941	0.19003774
149	0xbd41db90	-0.04732853
150	0xbf4472db	-0.76737756
151	0xbf1bf955	-0.60927325
152	0xbf45dbb7	-0.77288383
153	0xbe836622	-0.2566386
154	0xbe58ad83	-0.2115994
155	0xbe1a9414	-0.1509555
156	0x3e214c45	0.15751751
157	0x3d4648f3	0.048409414
158	0x3e0954f1	0.13411309
159	0x3dba47c5	0.0909572
160	0x3db93d24	0.09044865
161	0x3d83d731	0.06437529
162	0xbe2d0dc2	-0.1689978
163	0xbe431d26	-0.19054088
164	0xbdeee24c	-0.116642565
165	0xbefbbada	-0.49165994
166	0xbf036031	-0.5131865
167	0xbef16766	-0.471492
168	0x3ea90756	0.3301341
169	0x3e8e65f5	0.27812162
170	0x3e919e98	0.2844131
171	0xbec7e8db	-0.39044842
172	0xbee14466	-0.43997496
173	0xbef2bb69	-0.47408608
174	0x3d3286f5	0.043585736
175	0x3daaf4b0	0.08347452
176	0x3d9c754c	0.0763956
177	0xbe6456a9	-0.22298683
178	0xbe7b9460	-0.2456832
179	0xbe508c68	-0.2036606
180	0xbf0e8470	-0.55670834
181	0xbeda24e3	-0.42606267
182	0xbe40287b	-0.18765442
183	0xbf26b12b	-0.65114087
184	0xbf12d1cd	-0.5735138
185	0xbf343339	-0.7039066
186	0xbe822c9f	-0.25424668
187	0xbe75ed4a	-0.240163
188	0xbdc9957f	-0.09842967
189	0x3e981e80	0.2971077
190	0x3eb8aeaa	0.36070758
191	0x3e88671c	0.26641166
192	0x3e52c128	0.20581496
193	0x3e50ef0b	0.20403688
194	0xbca4c437	-0.020113094
195	0x3c7b0982	0.015322091
196	0x3d8013a8	0.06253749
197	0x3df8c6d4	0.121472985
198	0xbe7ca5e4	-0.24672657
199	0xbe71e646	-0.23622999
200	0xbe91a55d	-0.28446475
201	0xbe5b4a3a	-0.21415034
202	0xbe6f8a7b	-0.2339267
203	0xbe6b90c1	-0.23004438
204	0xbe42f872	-0.19040087
205	0xbe9b06d9	-0.30278662
206	0xbe396091	-0.18103243
207	0xbe2ef201	-0.17084505
208	0xbe019745	-0.12655361
209	0xbe8db1cb	-0.27674708
210	0x3e2fe179	0.17175855
211	0x3e263c89	0.1623403
212	0x3dcd8574	0.1003522
213	0xbd995f60	-0.074888945
214	0xbe3cdc50	-0.18443418
215	0xbe7b4263	-0.24537043
216	0xbe4f2cdb	-0.20231955
217	0xbe1314ec	-0.1436345
218	0xbce2a6c8	-0.027667418
219	0xbcc684b9	-0.024233209
220	0xbc91d8af	-0.017803518
221	0x3ca54f06	0.020179283
222	0x3e3f8488	0.187029
223	0x3e3ae458	0.18251169
224	0x3dddfde6	0.10839443
225	0xbe83a2b0	-0.25710058
226	0xbe8e67a0	-0.27813435
227	0xbe2f2560	-0.17104101
228	0xbe7210b2	-0.23639181
229	0xbe7ce4aa	-0.24696603
230	0xbe2c2cb2	-0.16813925
231	0xbeaac7e5	-0.33355632
232	0xbe4ca222	-0.19983724
233	0xbeb61c65	-0.35568538
234	0xbdadb606	-0.08481984
235	0xbe15597e	-0.1458492
236	0xbd45d074	-0.0482945
237	0xbb812e6c	-0.0039423015
238	0x3d10f833	0.03539295
239	0x3dd42232	0.10358085
240	0xbb047f53	-0.0020217493
241	0x3e078620	0.13234758
242	0x3e6328ce	0.22183535
243	0xbe02ed17	-0.12785755
244	0xbddd3b59	-0.10802335
245	0xbc91b5ee	-0.017786946
246	0xbe7673fa	-0.24067679
247	0xbeae3b80	-0.3402977
248	0xbeb4b354	-0.35293067
249	0xbdf4066d	-0.11915288
250	0xbbdb40d7	-0.006691079
251	0xbe14da26	-0.14536342
252	0x3e4f7427	0.20259152
253	0x3db3ea09	0.08784873
254	0xbe11e8b5	-0.14248927
255	0x3e67f6a0	0.22652674

conv1.bias f4 [32]
0	0xbe8339c9	-0.25630024
1	0xbe59eec8	-0.21282494
2	0xbdfcf141	-0.12350703
3	0xbdd1a0ed	-0.10235772
4	0x3e23c2d3	0.15992288
5	0xbdc0c5f7	-0.09412759
6	0x3d26a44e	0.040684037
7	0x3e2a45d0	0.16628194
8	0x3e54e208	0.20789349
9	0xbe1e260a	-0.15444198
10	0xbe9956e2	-0.299491
11	0xbe84af05	-0.2591478
12	0xbe2e75b4	-0.17037088
13	0xbd858fb6	-0.06521551
14	0xbe3b38c6	-0.18283376
15	0xbe245631	-0.16048504
16	0xbe415ca1	-0.18882991
17	0xbd9c2aa4	-0.076253206
18	0x3e50eef6	0.20403656
19	0xbcd4a4da	-0.025957514
20	0x3db1902b	0.08670076
21	0x3e864ad6	0.2622897
22	0x3e325f77	0.1741923
23	0x3dc6ddc6	0.09710269
24	0xbe1e9114	-0.1548503
25	0xbe1bdfd9	-0.1522211
26	0xbe441591	-0.19148852
27	0x3e9c7f94	0.30566084
28	0x3de48dca	0.111598566
29	0x3d144508	0.036198646
30	0xbe414dbf	-0.18877314
31	0x3ebc077b	0.36724457

lstm.weight_ih_l0 f4 [256, 32]
0	0x3db7caa7	0.089742
1	0xbe0773ec	-0.13227814
2	0x3e521d36	0.20518956
3	0x3db73f41	0.089476116
4	0xbd6b5067	-0.057449725
5	0x3d62d043	0.055374395
6	0xbd2ecc3f	-0.042675253
7	0x3dedc17e	0.11609171
8	0x3e633698	0.22188795
9	0x3d6c1edb	0.057646614
10	0x3d233f94	0.039855555
11	0x3dc8c6a7	0.09803515
12	0x3e3fcaf1	0.1872976
13	0x3e30c156	0.17261252
14	0xbe7b29ea	-0.24527708
15	0x3d580d0a	0.05274681
16	0xbe4286aa	-0.18996683
17	0x3c17a8db	0.009256567
18	0x3d21b1a7	0.039476063
19	0xbdd70ce6	-0.10500507
20	0xbe2b1095	-0.16705544
21	0x3cff26c8	0.031146422
22	0x3e032a1a	0.12809029
23	0xbdad5c69	-0.084648915
24	0x3e1beb29	0.15226425
25	0xbe23ffc6	-0.16015539
26	0x3e10eb93	0.14152364
27	0xbbffe0f0	-0.007808797
28	0x3db3f35c	0.087866515
29	0xbe286bac	-0.16447324
30	0x3d197d6d	0.03747313
31	0xbe644123	-0.22290473
32	0x3e154e8e	0.14580747
33	0x3e86392f	0.26215503
34	0x3d07bdd2	0.03314001
35	0x3c195bbf	0.009360253
36	0x3e40f49c	0.18843311
37	0x3df2f771	0.11863602
38	0xbd963caa	-0.073357895
39	0xbe891b59	-0.26778677
40	0xbe0c5742	-0.13705161
41	0x3e91966c	0.28435075
42	0x3f12a1ae	0.57277954
43	0x3ea714f2	0.32633168
44	0x3e81ee52	0.25377136
45	0x3eb95019	0.36193922
46	0x3e44d30f	0.19221137
47	0x3e46d7db	0.1941828
48	0x3ef6b513	0.48185024
49	0x3c96edcf	0.018423943
50	0xbe0eab48	-0.13932526
51	0xbeb5bbd0	-0.35494852
52	0x3dbd7a91	0.09251893
53	0xbe95cf83	-0.2925988
54	0x3e79eb8f	0.24406265
55	0x3e206515	0.1566356
56	0x3e685415	0.22688325
57	0xbd80d2ae	-0.06290184
58	0x3d65a547	0.056065824
59	0xbd94b467	-0.072609715
60	0xbd6ec706	-0.058295272
61	0xbc8497af	-0.01618561
62	0x3dfc8d1b	0.12331601
63	0x3e852d7e	0.2601127
64	0x3e0d4d79	0.13799085
65	0xbe0ee0fc	-0.13953012
66	0x3dca2eae	0.09872185
67	0xbf055da6	-0.5209602
68	0xbed54686	-0.41655368
69	0xbc7d1644	-0.015447203
70	0x3d251611	0.040304247
71	0x3eff0711	0.4981008
72	0x3e3e9e65	0.1861511
73	0xbe7075b0	-0.23482394
74	0x3d575f4c	0.052581117
75	0x3e9738b4	0.2953545
76	0xbe97f9be	-0.29682726
77	0x3c12b52f	0.00895433
78	0x3e8adafc	0.27120197
79	0x3d693954	0.056939438
80	0xbe0d6092	-0.1380637
81	0xbea1d1c2	-0.31605345
82	0x3cfdc970	0.030979842
83	0xbe9d8f41	-0.30773357
84	0x3e18b0e6	0.14911231
85	0x3eadf5a8	0.33976483
86	0x3d4fb33a	0.050708033
87	0x3e0bc703	0.13650136
88	0xbebb82f9	-0.36623362
89	0x3ccd14f8	0.025034413
90	0x3ebf6484	0.37381375
91	0x3dd1b5a6	0.10239725
92	0x3e4a7ee0	0.19774961
93	0xbdb01c29	-0.08599121
94	0xbea8939d	-0.3292512
95	0x3e17d445	0.14827068
96	0xbb28d0ba	-0.0025759176
97	0xbe069f09	-0.13146605
98	0x3e2a6a60	0.16642141
99	0x3e1517a7	0.14559804
100	0x3e5e9447	0.21736251
101	0xbe205666	-0.15657958
102	0x3d427f0f	0.047484454
103	0x3e35b126	0.17743358
104	0x3d84515f	0.06460833
105	0x3e2bc0c0	0.16772747
106	0xbdab0345	-0.08350233
107	0xbe9006ba	-0.28130132
108	0xbdfb5dfd	-0.12273786
109	0x3ead48eb	0.33844694
110	0xbe0e4dc0	-0.13896847
111	0x3e35b1f3	0.17743663
112	0x3dc5ac6a	0.09652026
113	0x3e3a0025	0.18164118
114	0x3dd36247	0.10321479
115	0xbe1fb44b	-0.1559612
116	0x3eff04e0	0.49808407
117	0xbcdf6695	-0.027270595
118	0x3e36e577	0.17860971
119	0x3e592967	0.212072
120	0x3d9ff886	0.07811074
121	0x3e382900	0.1798439
122	0x3eb417f2	0.3517452
123	0x3d8ccb63	0.068747304
124	0x3ef2c9cb	0.4741958
125	0x3e7f8204	0.24951941
126	0x3dffcf01	0.12490655
127	0xbcc09d18	-0.023512408
128	0xbe25cf7b	-0.16192429
129	0xbebf2994	-0.3733641
130	0x3da047a7	0.078261666
131	0x3c474fce	0.012165023
132	0xbe5d0117	-0.21582447
133	0xbc336bdc	-0.010951009
134	0x3c012c44	0.007884089
135	0xbe62e321	-0.22156955
136	0xbe7c339a	-0.2462906
137	0x3ddf48f6	0.10902588
138	0x3e31b13c	0.17352766
139	0xbe970e54	-0.2950312
140	0xbdcd513b	-0.10025259
141	0xbe4a2f83	-0.19744687
142	0xbe08f14b	-0.13373296
143	0x3e54c461	0.20778038
144	0xbd897837	-0.06712382
145	0xbd88958b	-0.06669148
146	0xbeea6ca0	-0.45786
147	0xbda6c675	-0.081433214
148	0xbea722bb	-0.32643685
149	0xbe29ce6c	-0.1658265
150	0xbea6b4f0	-0.3255992
151	0xbeb11e67	-0.34593508
152	0x3e42131c	0.18952602
153	0xbde3826e	-0.11108862
154	0xbc6ee2d8	-0.014580451
155	0xbeb85f49	-0.36010197
156	0xbee0de28	-0.43919492
157	0xbe65c8ab	-0.2243983
158	0xbcb2dbf2	-0.021833394
159	0xbe475c87	-0.1946889
160	0x3e2c7f95	0.16845544
161	0xbe45dafa	-0.19321814
162	0xbce27edc	-0.027648382
163	0x3e7ab35d	0.24482484
164	0xbc061b73	-0.008185255
165	0x3d359cf6	0.044339143
166	0x3e66543b	0.22493069
167	0xbe620d18	-0.22075307
168	0xbe6e446d	-0.2326829
169	0xbcae8c26	-0.021307062
170	0xbe125091	-0.14288546
171	0xbe96b7be	-0.2943706
172	0xbe037736	-0.12838444
173	0xbe04c2f5	-0.12964995
174	0xbdc6bd0a	-0.09704025
175	0x3e016855	0.12637456
176	0xbec771b0	-0.38953924
177	0x3d924242	0.07141544
178	0x3d9db575	0.07700626
179	0xbd09c541	-0.03363538
180	0xbe08e95a	-0.13370267
181	0xbdf7886a	-0.12086566
182	0xbdc0ef79	-0.09420676
183	0xbe84e5b7	-0.2595651
184	0xbe6a9a76	-0.22910485
185	0x3ea69692	0.3253675
186	0x3e89eafd	0.26937094
187	0xbdbe8202	-0.09302141
188	0xbded4b28	-0.115866005
189	0x3e729816	0.23690829
190	0xbe11d97f	-0.14243124
191	0x3d21a614	0.039465025
192	0x3e4c07c5	0.19924839
193	0x3e277ef8	0.16357028
194	0x3e4f7ad9	0.20261706
195	0xbd2cd754	-0.04219754
196	0xbed48264	-0.4150573
197	0xbe62d76e	-0.22152492
198	0x3e4aa2c2	0.1978865
199	0x3d0cc0f7	0.034363713
200	0x3e9249de	0.2857198
201	0xbe974710	-0.29546404
202	0x3e13531f	0.14387177
203	0x3e2b4624	0.16725975
204	0xbe61b3b3	-0.22041206
205	0x3de2998f	0.11064445
206	0x3e65e2fc	0.22449869
207	0xbe1f5d43	-0.1556292
208	0xbe9d8804	-0.30767834
209	0xbe023edb	-0.1271929
210	0x3e465d19	0.19371451
211	0x3d844c2a	0.0645984
212	0x3d8bf0fa	0.06833072
213	0x3e019a42	0.12656501
214	0x3da728a5	0.08162049
215	0x3e02ed14	0.1278575
216	0xbe86b361	-0.2630873
217	0x3f0854cf	0.5325441
218	0x3b2de78d	0.002653572
219	0x3e90ef14	0.28307402
220	0xbe1b6ee4	-0.1517902
221	0x3eae4c55	0.34042612
222	0x3d724d94	0.059156016
223	0xbcbe74f2	-0.023249123
224	0x3df984d1	0.12183536
225	0xbe1fb7ad	-0.1559741
226	0x3e1478e0	0.14499235
227	0x3c38f85a	0.01128968
228	0xbd643787	-0.055717018
229	0x3cf106c1	0.029422166
230	0x3d317cb4	0.043331817
231	0xbe431dad	-0.19054289
232	0x3d4308da	0.047615863
233	0xbd573cdd	-0.052548278
234	0x3d706b23	0.058695924
235	0xbd143984	-0.036187664
236	0x3db39930	0.087694526
237	0xbe2ab927	-0.16672193
238	0xbe136af7	-0.14396273
239	0x3e48ba25	0.19602259
240	0x3e0716d9	0.1319231
241	0x3e1bea42	0.15226081
242	0xbe269642	-0.16268256
243	0x3ee65e67	0.44993898
244	0xbebe65bd	-0.37186995
245	0xbe6448d4	-0.22293407
246	0xbe63fcd5	-0.22264417
247	0xbd88bfcc	-0.06677207
248	0xbcd6d68e	-0.026225355
249	0xbd9a41e3	-0.07532098
250	0x3dd8601d	0.10565207
251	0xbe977b03	-0.29586038
252	0xbe2a350a	-0.16621795
253	0xbe796274	-0.24353963
254	0x3de2d72e	0.110761985
255	0x3c8caaeb	0.017171344

lstm.weight_hh_l0 f4 [256, 64]
0	0xbdd05a22	-0.101734415
1	0x3c184b7b	0.00929534
2	0x3e3bbf89	0.18334784
3	0xbd8815b7	-0.06644767
4	0x3d324b40	0.043528795
5	0xbd7b6046	-0.06137111
6	0x3e26921d	0.16266675
7	0x3be8806f	0.0070953886
8	0x3d240b60	0.04004991
9	0x3e39e640	0.1815424
10	0x3cdb6a38	0.026784047
11	0x3e6d650c	0.23183078
12	0x3e02af49	0.12762178
13	0x3c970b49	0.018437998
14	0xbe4a60d1	-0.19763495
15	0xbe5ad428	-0.21369994
16	0x3d1cf863	0.038322818
17	0x3e86a12a	0.26294833
18	0x3ddb7073	0.10714807
19	0x3ea21a34	0.31660616
20	0xbe9f22fc	-0.31081378
21	0xbc46b939	-0.012129121
22	0xbd92b5e2	-0.07163598
23	0x3e5b330c	0.21406192
24	0xbd54c1c8	-0.051942617
25	0x3e0ba48b	0.13636987
26	0xbd23b007	-0.039962795
27	0x3e8eb9f9	0.2787626
28	0x3df85fb5	0.1212763
29	0xbe6e872f	-0.23293756
30	0x3df45bd1	0.11931575
31	0x3db0fae0	0.086416006
32	0xbe010dc2	-0.12602904
33	0x3d00c28b	0.03143553
34	0xbe115fa5	-0.14196642
35	0xbe475c31	-0.19468762
36	0x3e630ee3	0.22173648
37	0x3e910240	0.2832203
38	0xbe693cee	-0.22777149
39	0xbd353d36	-0.04424783
40	0xbdfe420c	-0.12414941
41	0xbe473836	-0.19455037
42	0x3d2a6877	0.04160353
43	0xbe3d1a78	-0.18467128
44	0xbe16bad3	-0.14719705
45	0xbe004ba4	-0.12528855
46	0x3e8cd7c6	0.27508372
47	0x3c61c4ea	0.013779858
48	0xbdcb93f3	-0.099403284
49	0xbd77261d	-0.060339082
50	0xbd910551	-0.07081092
51	0xbe734f78	-0.23760784
52	0x3e7a0504	0.24415976
53	0xbe4efb02	-0.2021294
54	0xbe5294b4	-0.20564538
55	0x3d60d78f	0.054893073
56	0x3e818955	0.2530009
57	0xbe8281cf	-0.2548966
58	0x3ccb7305	0.024835119
59	0xbd6bda6b	-0.057581346
60	0x3ce45166	0.027870845
61	0xbe9e9380	-0.3097191
62	0x3d621bc9	0.05520228
63	0x3ceb39df	0.028714119
64	0xbe72fe98	-0.23729932
65	0xbe6a4067	-0.2287613
66	0xbe300b8d	-0.17191906
67	0x3efc4ce9	0.49277428
68	0xbe03a66b	-0.12856452
69	0x3e02cf83	0.12774472
70	0x3e3da37a	0.18519393
71	0xbe23f89b	-0.16012804
72	0x3e0e9b69	0.13926472
73	0xbdf19c7d	-0.11797426
74	0xbc94e831	-0.018177124
75	0x3d47fb07	0.048823383
76	0x3e4f3c99	0.2023796
77	0x3e6f56b9	0.23372926
78	0xbe9d5637	-0.3072984
79	0xbdf5e3de	-0.12006353
80	0xbe9931c2	-0.29920775
81	0x3eae650f	0.34061477
82	0x3f0ecdf9	0.5578304
83	0x3a127dca	0.0005588202
84	0xbea2daf6	-0.3180768
85	0x3f023a0e	0.50869834
86	0xbe220a42	-0.15824226
87	0x3d38d6bb	0.045126658
88	0x3d129ef5	0.035796124
89	0x3e86f389	0.26357678
90	0xbe9c614f	-0.3054299
91	0xbe43c4ed	-0.1911809
92	0x3b469650	0.0030301996
93	0xbe65b08c	-0.22430629
94	0x3f2a8238	0.6660495
95	0xbd4f6f97	-0.05064353
96	0xbdb77492	-0.08957781
97	0xbce99681	-0.028514149
98	0xbd03bdf8	-0.03216359
99	0x3d3d3564	0.046193495
100	0x3dacae02	0.08431627
101	0x3e51d299	0.20490493
102	0xbed1d467	-0.40982363
103	0x3db6cc5e	0.08925699
104	0xbe92e77c	-0.28692234
105	0xbeb4f624	-0.3534404
106	0x3df4a837	0.11946147
107	0xbe866b7b	-0.26253876
108	0x3c5c3ce8	0.013442256
109	0xbc8fdbdb	-0.01756089
110	0x3ed95401	0.42446902
111	0xbe551550	-0.20808911
112	0x3e0c0636	0.13674244
113	0x3ca957da	0.020671774
114	0xbd424097	-0.04742488
115	0xbe8d5611	-0.27604726
116	0x3d56c73a	0.05243609
117	0xbd97bfae	-0.07409607
118	0xbda79cce	-0.08184205
119	0xbd2dce03	-0.042432796
120	0x3cc77ec6	0.024352442
121	0xbe5820ca	-0.21106258
122	0x3eabc7f9	0.33551005
123	0xbdcba3cb	-0.099433504
124	0xbd1e4ab6	-0.03864547
125	0xbed3d66a	-0.41374522
126	0x3e2d03e4	0.16896015
127	0x3daccb64	0.08437231
128	0x3e696094	0.22790748
129	0x3d85f22a	0.0654033
130	0x3eff4994	0.49860823
131	0xbd66d831	-0.05635852
132	0x3de9126f	0.11380469
133	0xbe3bffa3	-0.18359236
134	0xbe9a99ca	-0.30195457
135	0xbe92e2b8	-0.28688598
136	0xbe14c629	-0.14528717
137	0x3e9cc750	0.30620813
138	0x3d285f6b	0.041106623
139	0x3dac69f8	0.084186494
140	0x3de8fd55	0.11376444
141	0xbdf8b51b	-0.12143918
142	0x3c6474c2	0.013943853
143	0x3d9ff84c	0.07811031
144	0x3e0a29b0	0.13492465
145	0x3d14d8d0	0.03633958
146	0xbda9b23a	-0.08285947
147	0x3d9a4bef	0.075340144
148	0x3eb09366	0.34487456
149	0x3cb658c7	0.02225913
150	0x3eb05e07	0.34446737
151	0xbe15ee5a	-0.14641705
152	0xbeba0242	-0.36329848
153	0xbe1af74b	-0.15133397
154	0x3e34de52	0.17662933
155	0x3e0267f8	0.12734973
156	0x3e5dc240	0.21656132
157	0x3e77cb89	0.24198736
158	0xbe985627	-0.2975323
159	0xbe0f9994	-0.14023429
160	0xbdc87e1e	-0.0978968
161	0xbd3e78e1	-0.046501998
162	0xbea4c6d9	-0.3218296
163	0xbea7fc39	-0.32809618
164	0xbdbf890a	-0.0935231
165	0x3e1ad410	0.15119958
166	0x3d3a935c	0.04555069
167	0x3e737664	0.23775631
168	0xbd1e945d	-0.03871571
169	0xbeb8f13e	-0.36121553
170	0xbdb51858	-0.08842534
171	0x3ebebbd3	0.37252674
172	0xbec3e0e4	-0.38257515
173	0xbe9887bf	-0.29791066
174	0xbd2d8b3b	-0.04236911
175	0xbebc046f	-0.36722133
176	0xbe69defd	-0.2283897
177	0x3e903c4c	0.28171003
178	0xbe3d0707	-0.18459712
179	0xbe20ffc2	-0.15722564
180	0x3e086714	0.13320571
181	0x3d8e0ced	0.06936059
182	0x3e6031d7	0.21894012
183	0xbe1b88da	-0.15188923
184	0x3e8fae16	0.28062505
185	0x3d9c8136	0.076418325
186	0xbe36ae89	-0.17840017
187	0x3e848a59	0.258868
188	0xbd90cb94	-0.070700794
189	0xbbb44a8e	-0.0055020517
190	0xbe838a98	-0.25691676
191	0xbe338d76	-0.17534432
192	0xbe0a4e6d	-0.1350648
193	0x3c6993a7	0.0142563945
194	0x3e27bfaa	0.16381708
195	0x3d6626a1	0.056189183
196	0x3c2a7971	0.01040493
197	0xbe3d28b8	-0.18472564
198	0xbc8bf9cb	-0.017086884
199	0xbe43fc63	-0.19139247
200	0x3dba9e33	0.09112205
201	0x3e1cdeb6	0.15319332
202	0xbd4f388b	-0.050591033
203	0x3e24adba	0.16081896
204	0x3e69e416	0.22840914
205	0x3cab0826	0.020877909
206	0xbdc42f36	-0.09579317
207	0xbdce7917	-0.1008169
208	0xbdb08c94	-0.08620563
209	0x3e249f17	0.16076313
210	0x3e19ed01	0.15031816
211	0x3e36e067	0.1785904
212	0xbe6f432c	-0.23365468
213	0x3e724b80	0.23661613
214	0x3e292edf	0.16521786
215	0x3e63a128	0.22229445
216	0xbd8b7ca5	-0.068108834
217	0x3de45492	0.11148943
218	0xbd3d0cc8	-0.046154767
219	0x3df1f4d5	0.11814276
220	0x3d3be42e	0.045871906
221	0x3da354ec	0.07975182
222	0x3e79cce9	0.24394573
223	0x3e192731	0.14956357
224	0xbe25d5ca	-0.16194835
225	0x3d6599f0	0.05605501
226	0xbd500e60	-0.05079496
227	0xbdab087c	-0.08351228
228	0x3dc69c26	0.09697752
229	0x3e0f8c63	0.14018397
230	0xbdc5e86b	-0.09663471
231	0x3d7c74de	0.06163489
232	0xbdfad020	-0.12246728
233	0xbe77c177	-0.24194895
234	0xbda7191d	-0.08159087
235	0x3d805306	0.062658355
236	0xbe5edd28	-0.21764052
237	0x3c868f84	0.016425855
238	0xbb17fce4	-0.0023191506
239	0xbe83011b	-0.2558678
240	0xbe1ac973	-0.1511591
241	0x3e063a9f	0.131083
242	0xbc01fa94	-0.007933278
243	0xbe2c20f7	-0.1680945
244	0x3e55f021	0.20892383
245	0xbe826ee2	-0.25475222
246	0x3d8c4b91	0.06850351
247	0x3e0d0295	0.13770516
248	0x3e4e8883	0.20169263
249	0xbe9cd8b3	-0.30634078
250	0x3dda8f40	0.10671854
251	0x3e71d6a1	0.2361703
252	0x3d325d37	0.043545928
253	0xbe93564a	-0.2877677
254	0x3e1956c2	0.14974502
255	0x3ed01b52	0.40645844

lstm.bias_ih_l0 f4 [256]
0	0xbedfee1e	-0.43736356
1	0x3e1708ad	0.14749403
2	0x3e38ee7e	0.18059728
3	0x3d503f97	0.050841894
4	0xbcd5ee1b	-0.026114514
5	0x3d8c9ce6	0.068658635
6	0x3e212fe4	0.15740925
7	0xbdf8e118	-0.12152308
8	0x3a4c7ed8	0.00078008836
9	0x3eb24682	0.34819418
10	0x3e01be74	0.12670308
11	0xbde6f602	-0.11277391
12	0xbe70ce1e	-0.23516127
13	0x3e948e48	0.29014802
14	0x3e9de2b9	0.30837038
15	0x3df17e2e	0.11791645
16	0x3eb13b48	0.3461554
17	0x3e67d2ee	0.22639057
18	0x3e2ca9f0	0.16861701
19	0xbe9eae8a	-0.30992538
20	0x3c93cfad	0.018043363
21	0x3ea02018	0.31274486
22	0xbe311c51	-0.17295958
23	0x3e14acb2	0.14519003
24	0xbe51dc3d	-0.2049417
25	0xbd90178e	-0.07035743
26	0xbd9b3c57	-0.07579868
27	0x3da83933	0.08214035
28	0xbcfd20b6	-0.030899387
29	0x3de64eeb	0.11245521
30	0x3ef9c547	0.48783323
31	0x3cc911dc	0.024544649
32	0x3e2008c0	0.15628338
33	0x3e3dee42	0.1854792
34	0xbd147b3e	-0.036250345
35	0xbe24b864	-0.16085964
36	0x3e403c6b	0.18773048
37	0x3dfe47a5	0.12416009
38	0xbdec2608	-0.115306914
39	0xbec07560	-0.3758955
40	0xbdf812eb	-0.12112983
41	0xbeb13426	-0.346101
42	0x3d8f8263	0.07007291
43	0x3c41e5a8	0.0118345395
44	0xbd17f5b1	-0.037099544
45	0xbe247ef5	-0.16064055
46	0xbde3398d	-0.11094961
47	0xbe2b26c3	-0.16714005
48	0x3e655142	0.22394279
49	0x3d734830	0.059395015
50	0x3e28545c	0.1643843
51	0xbe4a72a8	-0.197703
52	0xbd46fe10	-0.048582137
53	0xbd37209e	-0.04470884
54	0x3d2fcd4d	0.0429204
55	0xba0e3d5c	-0.00054260134
56	0xbdbbbb56	-0.09166591
57	0xbe2ccb50	-0.16874433
58	0x3e848491	0.2588239
59	0x3ccdeb15	0.02513651
60	0x3bb6074e	0.00555507
61	0x3c1bcf14	0.0095098205
62	0xbdab70e7	-0.08371144
63	0xbd940f79	-0.07229514
64	0xbcf30c89	-0.029669063
65	0x3d782dd4	0.06059058
66	0x3c21c357	0.009873233
67	0x3e888bf0	0.26669264
68	0x3e8c209f	0.27368638
69	0x3eb56e71	0.35435823
70	0x3e55bda8	0.2087313
71	0xbb9ef11f	-0.004850521
72	0xbe1284a0	-0.14308405
73	0x3e4694c7	0.19392692
74	0xbca50d62	-0.020147983
75	0x3b270be2	0.002548926
76	0x3e97beb3	0.2963768
77	0xbb95ed27	-0.00457539
78	0x3e62fc51	0.22166564
79	0x3d8018a0	0.06254697
80	0x3e5a4bef	0.21318029
81	0x3ecc077f	0.3984947
82	0x3e241b7a	0.16026106
83	0xbe6356b7	-0.22201048
84	0xbe323164	-0.17401654
85	0x3dec2ffb	0.11532589
86	0x3dee2a14	0.116291195
87	0x3dfe8c3e	0.12429093
88	0xbdf41f94	-0.119200855
89	0xbdbe6529	-0.092966385
90	0x3e03fb31	0.1288879
91	0x3e521e07	0.20519267
92	0x3e8c3b1c	0.27388847
93	0xbcfad7d3	-0.030620491
94	0x3e6456a6	0.22298679
95	0x3d739c0f	0.059475
96	0x3eb9f064	0.36316216
97	0xbc9237b1	-0.017848821
98	0x3d9d2f18	0.07674998
99	0xbe0d7b82	-0.13816646
100	0x3da04e05	0.07827381
101	0xbe4d22f6	-0.20032868
102	0xbe03f431	-0.1288612
103	0xbde1b419	-0.11020679
104	0x3d6ef094	0.058334902
105	0xbe1c34e6	-0.15254554
106	0x3e4338c3	0.19064622
107	0xbc8277db	-0.015926292
108	0xbdc75dd7	-0.097346954
109	0xbe2eb4b6	-0.17061123
110	0xbec46d51	-0.38364652
111	0xbdfd909e	-0.12381099
112	0x3e506b28	0.20353377
113	0x3d3ac639	0.045599196
114	0x3d4013fb	0.046894055
115	0x3dff8aa0	0.124776125
116	0x3e99e85e	0.30060095
117	0x3e93db0a	0.2887805
118	0x3e266fc6	0.16253576
119	0x3e9e3fc4	0.30908024
120	0x3edd2a3d	0.43196288
121	0x3e17409e	0.14770743
122	0x3d22464f	0.039617833
123	0x3e7c2b40	0.24625874
124	0x3edbcd62	0.42930132
125	0x3e93d837	0.28875896
126	0x3ce8a7c8	0.028400317
127	0x3deba2fd	0.11505697
128	0xbc85fab7	-0.016354902
129	0x3e12f19f	0.14349984
130	0x3e97390c	0.2953571
131	0xbe74c7b0	-0.239043
132	0xbd278f61	-0.04090822
133	0xbdbe7834	-0.09300271
134	0xbe2d2fea	-0.16912809
135	0x3e3d7b41	0.18504049
136	0xbdaa45b2	-0.083140746
137	0xbd42ce44	-0.04755999
138	0x3e9a8877	0.3018224
139	0x3dcb541a	0.099281505
140	0xbeb95514	-0.36197722
141	0x3cdd1b49	0.02699055
142	0x3ebdb673	0.3705326
143	0xbe43799a	-0.19089356
144	0x3ea70e17	0.32627937
145	0xbe0cf447	-0.1376506
146	0xbeb28edc	-0.34874618
147	0xbd3068bf	-0.043068644
148	0x3e407ec4	0.18798357
149	0xbec78799	-0.3897064
150	0xbe80118c	-0.25013387
151	0xbd28fbe2	-0.04125584
152	0xbc8dd73f	-0.017314551
153	0x3da71132	0.081575766
154	0x3e46a505	0.19398887
155	0x3d97a2f3	0.07404127
156	0x3e49b703	0.1969872
157	0xbdf8ba67	-0.121449284
158	0xbeec07c6	-0.4609968
159	0x3d60264c	0.054724023
160	0xbeb6ce01	-0.35704044
161	0x3e868fc7	0.26281568
162	0xbdea3429	-0.1143573
163	0xbe42a0d1	-0.19006659
164	0xbd845139	-0.064608045
165	0xbe278ff7	-0.16363512
166	0xbcdd189e	-0.026989277
167	0xbd093a45	-0.033502836
168	0x3e926b04	0.2859727
169	0x3e4f69ba	0.20255175
170	0x3de1ca78	0.11024946
171	0xbb2ad208	-0.002606513
172	0xbe536e4f	-0.20647548
173	0xbe0bc698	-0.13649976
174	0xbe51c5ce	-0.20485613
175	0xbc309a69	-0.010779002
176	0xbe5602a8	-0.20899451
177	0x3dfcdd11	0.123468526
178	0xba9c8e16	-0.00119442
179	0x3ddc1ee8	0.107480824
180	0xbe842b91	-0.2581449
181	0x3e564f81	0.20928766
182	0xbe2f2cd7	-0.17106949
183	0x3e7a2871	0.2442949
184	0x3d0d92ae	0.034563713
185	0x3d425325	0.047442574
186	0xbe3bffa3	-0.18359236
187	0x3e4bc66e	0.19899914
188	0x3e2a7cda	0.1664919
189	0x3e3b5268	0.18293154
190	0xbe1130fc	-0.14178842
191	0x3e0bd9ab	0.13657252
192	0xbe295d3a	-0.1653947
193	0x3e1689a2	0.1470094
194	0xbe2dc908	-0.16971219
195	0xbe0b6de5	-0.1361614
196	0x3e673e6e	0.22582409
197	0xbca8ae8b	-0.020591041
198	0x3e8e0d65	0.27744594
199	0xbdf86bd2	-0.1212994
200	0x3da8b163	0.08236959
201	0xbe30e0ca	-0.1727325
202	0xbd95a885	-0.07307533
203	0xbdff91a8	-0.124789536
204	0xbe3da24b	-0.18518941
205	0xbdc38475	-0.095467485
206	0x3e2eb4d2	0.17061165
207	0x3dabe601	0.08393479
208	0x3e75b0fd	0.23993297
209	0x3def587d	0.116868
210	0xbe4032cc	-0.18769377
211	0xbe883f8c	-0.26610982
212	0x3e4c66e9	0.19961132
213	0xbd07cdfd	-0.03315543
214	0x3e7af917	0.24509083
215	0x3ea78e37	0.3272569
216	0xbd5eacf7	-0.05436417
217	0x3c7362bd	0.014855084
218	0xbe4a48b1	-0.19754292
219	0xbcdb4800	-0.02676773
220	0x3e0a6c17	0.13517796
221	0x3e27cdfa	0.16387168
222	0x3db7faba	0.08983369
223	0x3d584174	0.052796796
224	0x3c9e0152	0.019287739
225	0x3c382f77	0.011241785
226	0x3d2e6257	0.042574253
227	0xbde292e2	-0.11063172
228	0x3e12cb82	0.14335445
229	0xbde8cf85	-0.11367706
230	0x3d4c7793	0.049918722
231	0xbdcc78dd	-0.0998399
232	0xbc0f03d8	-0.008728944
233	0xbe8f66d3	-0.28008136
234	0x3de7ca29	0.11317856
235	0x3df26a56	0.11836688
236	0xbd812d6b	-0.06307491
237	0xbc158973	-0.009127009
238	0x3dd3c533	0.10340347
239	0x3d2035c0	0.03911376
240	0xbcb1cd68	-0.02170439
241	0xbe32ed87	-0.17473422
242	0x3ca91756	0.02064101
243	0xbd81064a	-0.06300028
244	0xbdbc654e	-0.0919901
245	0xbe4bc888	-0.19900715
246	0xbdb7cd9e	-0.08974765
247	0x3c30ed22	0.010798724
248	0xbd88c2fd	-0.06677816
249	0x3e8c609e	0.27417463
250	0x3e627b68	0.22117388
251	0x3d1b7247	0.03795078
252	0x3dd9edca	0.10641058
253	0x3cff301c	0.03115087
254	0xbca8245a	-0.020525146
255	0x3e4a4b26	0.1975523

lstm.bias_hh_l0 f4 [256]
0	0xbea779ae	-0.32710022
1	0x3dc71897	0.09721487
2	0x3e3e8dab	0.1860873
3	0x3db771fc	0.08957288
4	0x3dd11b0b	0.10210236
5	0x3dcb60e3	0.09930589
6	0x3e38f9dd	0.18064065
7	0xbdfec908	-0.124406874
8	0x3d596134	0.053071216
9	0x3e70b964	0.23508221
10	0x3e3aaf97	0.18231045
11	0xbe5da054	-0.21643192
12	0xbe347c1c	-0.17625469
13	0x3d56fb38	0.052485675
14	0x3e63eef1	0.22259118
15	0xbd2f74bb	-0.042835932
16	0x3e5706d6	0.20998701
17	0x3eae967b	0.34099182
18	0x3e535280	0.2063694
19	0xbec6a8e9	-0.38800743
20	0x3bd904e7	0.006622899
21	0x3eb83166	0.35975188
22	0xbe901cc2	-0.2814694
23	0xbd0244d6	-0.03180393
24	0xbe2db8d9	-0.16965045
25	0xbd8d618b	-0.069033705
26	0xbdbeb884	-0.09312537
27	0x3e2da3cb	0.16957013
28	0x3c530d12	0.012881534
29	0x3db2778d	0.08714209
30	0x3ec94719	0.39312056
31	0xbe253129	-0.16132034
32	0xbd01a4db	-0.03165136
33	0x3db052f3	0.08609571
34	0x3a9843be	0.0011616868
35	0xbe10f724	-0.14156777
36	0x3d76de2e	0.06027048
37	0x3ccc32e1	0.024926605
38	0xbd9f5a85	-0.07780937
39	0xbe8dd6d0	-0.2770295
40	0xbe817b6d	-0.2528948
41	0xbed10c8f	-0.40829894
42	0x3d0be54e	0.03415423
43	0x3e06d475	0.13166983
44	0x3d884b23	0.06654956
45	0xbe5bea4d	-0.21476097
46	0xbe5d232a	-0.21595445
47	0xbd45561f	-0.048177835
48	0x3bd000d8	0.006347757
49	0x3df295f1	0.11845005
50	0x3dbbf481	0.09177495
51	0xbde69a34	-0.11259881
52	0xbd1a4279	-0.03766105
53	0xbe400411	-0.18751551
54	0x3cb6ff09	0.022338407
55	0x3d5d878e	0.054084353
56	0xbd659b99	-0.056056593
57	0xbe29e2d3	-0.16590433
58	0x3e6dd9f7	0.23227678
59	0xbd60486d	-0.05475657
60	0x3a00a681	0.00049076235
61	0x3e1a5bde	0.15074107
62	0xbe197699	-0.14986648
63	0xbd9c2e4d	-0.07626019
64	0xbdc520f6	-0.096254274
65	0xbd981982	-0.0742674
66	0x3e40d991	0.18832995
67	0x3e95911a	0.29212266
68	0x3e05151e	0.12996337
69	0x3e8a2270	0.269794
70	0x3dc834b7	0.097756796
71	0x3d69dc38	0.057094783
72	0xbd2b8570	-0.041875303
73	0x3e91a413	0.2844549
74	0x3cf0af64	0.029380508
75	0x3d9465ec	0.072460026
76	0x3e6eb900	0.2331276
77	0x3e44b337	0.1920899
78	0x3de22647	0.11042457
79	0x3d3fcdd8	0.046827167
80	0x3e59341a	0.21211281
81	0x3ec89794	0.39178145
82	0x3dc733be	0.09726666
83	0xbd7a99c4	-0.0611818
84	0x3d63dbbb	0.055629473
85	0x3e29c440	0.1657877
86	0x3d4b0b1c	0.04957114
87	0x3e079e7b	0.13244049
88	0x3c3de267	0.011589623
89	0xbe50fa6f	-0.20408033
90	0x3dcd47e0	0.10023475
91	0x3eb1c77c	0.34722507
92	0x3e758eac	0.23980206
93	0xbd16ba7c	-0.03679894
94	0x3e891607	0.26774618
95	0x3dcbd95e	0.09953569
96	0x3ec8ab4c	0.3919319
97	0x3dfcd7e8	0.12345868
98	0x3da5e2e5	0.08099917
99	0xbd99ef18	-0.07516307
100	0x3e5e5209	0.21710981
101	0xbd46bd4a	-0.048520364
102	0xbdd31e41	-0.10308505
103	0x3d80a4eb	0.062814556
104	0x3d28a62b	0.041174095
105	0xbe530644	-0.20607859
106	0x3e72344c	0.23652762
107	0x3d4cf061	0.05003393
108	0x3b992b2e	0.004674337
109	0xbe06d976	-0.13168892
110	0xbef551ca	-0.47913963
111	0xbe0e4378	-0.13892925
112	0x3dd96163	0.10614278
113	0x3debfd0a	0.11522873
114	0x3e13da0d	0.14438649
115	0x3ea75145	0.3267919
116	0x3e565c36	0.20933613
117	0x3e846633	0.25859222
118	0x3c0dbaca	0.008650491
119	0x3daca1ba	0.084292844
120	0x3ecb4edb	0.397086
121	0xbb88155f	-0.0041529383
122	0x3e0db1e9	0.13837399
123	0x3e34b4cf	0.17647098
124	0x3ed3acc8	0.4134276
125	0x3ea7efa6	0.32800025
126	0x3e3f1160	0.18658972
127	0x3e575df1	0.2103193
128	0x3dd90bfc	0.10597989
129	0x3e14d4bb	0.14534275
130	0x3ecc3cf1	0.39890245
131	0xbe714477	-0.23561274
132	0xbd9efae1	-0.07762695
133	0x3d7423e3	0.059604537
134	0xbe85f1e6	-0.26161116
135	0x3e5d64f0	0.21620536
136	0xbe7625aa	-0.24037805
137	0xbdc4f884	-0.09617713
138	0x3eb53c03	0.35397348
139	0x3d8ff28a	0.070286825
140	0xbe50da42	-0.20395759
141	0x3d3b5f7b	0.045745354
142	0x3efb6fa4	0.49108613
143	0xbe969403	-0.294098
144	0x3eda4e7b	0.42638
145	0xbdc261f5	-0.0949134
146	0xbeb72483	-0.35770044
147	0x3bb20547	0.005432758
148	0x3db3ac98	0.08773154
149	0xbebd262a	-0.3694318
150	0xbe539b5b	-0.20664732
151	0x3d552332	0.052035518
152	0xbe0f30d4	-0.1398347
153	0xbd96d9fb	-0.07365795
154	0x3e9cb8af	0.30609652
155	0xbd3b5250	-0.045732796
156	0x3e69430c	0.22779483
157	0xbd721d79	-0.05911014
158	0xbe91cc55	-0.28476205
159	0x3e24dd5a	0.16100064
160	0xbea9dd98	-0.33176875
161	0x3ea132bd	0.31484023
162	0x3db7c618	0.0897333
163	0xbc47406a	-0.012161354
164	0xbe0848b2	-0.13308981
165	0xbe2ab52d	-0.16670676
166	0x3d238dce	0.039930157
167	0xbd2836f2	-0.041068025
168	0x3e0efa57	0.13962685
169	0x3dc285e1	0.094981916
170	0x3e954c08	0.2915957
171	0x3df0535a	0.11734648
172	0xbe70c5fb	-0.23513024
173	0x3d970cea	0.0737551
174	0xbe87e930	-0.26545095
175	0xbd956104	-0.07293895
176	0xbd090b54	-0.03345807
177	0xbd808c03	-0.06276705
178	0x3e2c4f6e	0.16827175
179	0x3e7a3113	0.24432783
180	0xbe702cb0	-0.23454547
181	0x3d1b2ff3	0.037887525
182	0x3c39350d	0.011304152
183	0x3e4358a1	0.19076778
184	0xbd98f322	-0.07468249
185	0x3d9f2acb	0.07771834
186	0xbe9c8ca3	-0.30576047
187	0x3e1ada56	0.15122351
188	0x3e976bbc	0.29574382
189	0x3ebecd08	0.372658
190	0x3d4fcbb9	0.050731394
191	0x3e51e15c	0.20496124
192	0xbd6651a5	-0.056230206
193	0x3de02a6d	0.10945592
194	0xbe2b02ee	-0.16700336
195	0xbe1f1889	-0.15536703
196	0x3e432300	0.1905632
197	0xbe0c3ccb	-0.13695066
198	0x3e390db6	0.18071637
199	0xbd6456cb	-0.055746835
200	0x3e977685	0.2958261
201	0x3d81da17	0.063404255
202	0x3d7c5db7	0.06161281
203	0xbe4a509d	-0.19757314
204	0xbd63534c	-0.05549936
205	0xbdd191c3	-0.1023288
206	0x3d7d1f1f	0.061797258
207	0x3c2c0b3c	0.010500725
208	0x3e3f42d4	0.18677837
209	0x3d893f26	0.06701498
210	0xbdb4f3ee	-0.088355884
211	0xbdd36a4e	-0.103230104
212	0x3e4cea26	0.20011196
213	0xbdd8f53a	-0.10593648
214	0x3e8c2b34	0.2737671
215	0x3ed94697	0.42436668
216	0xbe419952	-0.18906143
217	0x3d6c23ba	0.05765126
218	0xbcc8bf9f	-0.024505435
219	0x3cd56e5e	0.026053604
220	0x3cc2417a	0.023712862
221	0x3d1afa72	0.0378365
222	0x3d7a6d69	0.061139498
223	0xbd4c324f	-0.049852666
224	0xbd30aef5	-0.043135602
225	0x3cc7b0cb	0.024376294
226	0x3d8c18cb	0.068406664
227	0xbe315f9e	-0.17321631
228	0x3d7e2f38	0.06205675
229	0x3cf37dd6	0.02972309
230	0xbd4eeda7	-0.05051961
231	0x3cf76762	0.030200664
232	0x3d590bab	0.052989643
233	0xbe8dca65	-0.27693477
234	0x3d0b7d95	0.03405531
235	0x3d88a536	0.066721365
236	0xbc551cc8	-0.01300735
237	0x3d34f5c1	0.04417968
238	0x3ddc04bc	0.107430905
239	0x3d613492	0.054981776
240	0x3b9fab20	0.0048726946
241	0xbe65cfc0	-0.22442532
242	0x3d759d7f	0.059964653
243	0xbd865635	-0.065594114
244	0xbd8b0362	-0.067877546
245	0xbd07ba54	-0.03313668
246	0xbcee2373	-0.029069638
247	0xbe3fd9ad	-0.1873538
248	0xbd64516e	-0.05574172
249	0x3d5e07ce	0.054206662
250	0x3dfd0748	0.123549044
251	0xbd1c8c11	-0.038219515
252	0x3e52a767	0.20571671
253	0xbdb52b26	-0.088461205
254	0xbd24817b	-0.040162545
255	0x3cfa8812	0.030582462

fc.weight f4 [1, 64]
0	0xbf826e10	-1.0189838
1	0xbf68b995	-0.90908176
2	0x3f903dc4	1.1268849
3	0x3f117ac8	0.56827974
4	0xbf8257a4	-1.0182996
5	0xbf7deb7c	-0.99187446
6	0xbf85ded4	-1.0458627
7	0xbfa4c8eb	-1.2873815
8	0x3f7ef1e5	0.9958785
9	0x3f83f80b	1.0310072
10	0x3f8ae56f	1.0851268
11	0x3f902370	1.1260815
12	0x3f9ad264	1.2095456
13	0x3f84aea9	1.0365802
14	0xbf13913e	-0.57643497
15	0xbf85f725	-1.0466048
16	0xbf91737b	-1.1363367
17	0x3f1687f0	0.58801174
18	0x3f2897c4	0.65856576
19	0x3f857b3a	1.0428231
20	0xbf868399	-1.050891
21	0x3f8e271b	1.1105684
22	0x3fc8788e	1.566179
23	0x3f82246f	1.0167369
24	0xbf933b11	-1.1502401
25	0x3f851772	1.039778
26	0xbf7e07a7	-0.99230427
27	0x3f97d075	1.1860491
28	0x3f979a63	1.184399
29	0xbf83d828	-1.0300341
30	0x3c3c4b32	0.011492537
31	0x3f7f074a	0.996205
32	0xbf89a980	-1.0754852
33	0x3f8a495e	1.080364
34	0xbf95387a	-1.165786
35	0xbfb02ede	-1.3764303
36	0x3f8ca7d8	1.0988722
37	0x3f80e176	1.0068805
38	0xbf89bedd	-1.0761372
39	0x3f95e308	1.170991
40	0xbf8d5126	-1.104039
41	0xbfa746a6	-1.3068435
42	0x3f8c9260	1.098217
43	0xbf7f3587	-0.9969105
44	0xbfa8b47f	-1.3180083
45	0xbf89887a	-1.0744774
46	0x3f88f278	1.0698996
47	0xbf72d42b	-0.9485499
48	0xbf878da0	-1.0590096
49	0x3f9b8762	1.215069
50	0xbf916b6a	-1.1360905
51	0xbf812832	-1.0090392
52	0x3ee28efc	0.44249713
53	0xbf8d7994	-1.1052728
54	0xbf9f502e	-1.2446344
55	0x3f86ab28	1.0520983
56	0x3f969e0c	1.1766982
57	0xbf8a93bb	-1.0826334
58	0x3f8d90c6	1.1059806
59	0x3f943add	1.1580464
60	0x3f8cb67e	1.0993192
61	0xbf85ecda	-1.0462906
62	0x3f85b051	1.0444432
63	0x3f816873	1.011
