notebooks/lstm_backbone.pth (torch, 50789 bytes, 9 tensors)

backbone_lstm1.weight_ih_l0 f4 [128, 32]
0.14047574 0.70811605 0.64083767 0.0037592826 -0.5070311 -0.08563111 -0.10852925 -0.2598804
-0.349531 -0.31856677 0.050635096 -0.2412341 -0.92364067 0.46109635 0.19545962 -0.10164755
-0.6106091 0.22064218 -0.29128462 0.14048466 0.12383778 -0.3824644 -0.14694385 -0.055262968
-0.43038845 0.54405934 -0.88446534 -0.15823998 -0.18368566 0.3518595 0.32583776 -0.1574051
-0.7291585 -0.25340715 -0.06614113 -0.021888223 0.09387048 -0.53477186 0.37919587 0.021354236
0.13490264 -0.066061996 -0.19638878 -0.056726236 0.06911452 -0.19863425 -0.2251763 0.09559461
0.3156642 -0.4525593 0.053701434 0.029412596 -0.18220004 0.2752821 0.0073861433 0.1248543
0.2496664 -0.23211478 0.32878974 0.28670686 -0.055205435 -0.010540117 0.1051637 0.051055674
-0.17842717 0.3282857 0.33645162 0.13223793 -0.33203167 -0.6709304 0.99603087 -0.35594097
-0.1393295 0.14442696 -0.15701993 -0.47496 -0.19061424 0.044425387 0.10519391 0.543168
-0.0061511705 -0.24861726 -0.088940606 0.004666746 -0.23039077 0.02212504 -0.1737377 0.29270858
-0.13203137 0.15092468 0.03591137 0.038459323 -0.25451 0.1553616 0.14100568 0.23915662
0.8071822 0.08933252 0.26757768 -0.0614772 -0.21653214 -0.11428214 0.45382062 0.061776794
-0.204352 -0.0006887874 -0.25714266 -0.114667356 -0.13176079 -0.0337526 -0.11172469 -0.1141699
-0.09356369 -0.025332093 0.09850538 0.29997328 -0.039352596 -0.07826125 -0.12012388 0.15893112
-0.035565995 -0.02941555 -0.12886393 0.12765382 -0.11274156 0.120495126 0.18119147 -0.2598024
0.1243465 0.42774174 0.36174348 0.24593745 -0.42786166 -0.024484484 0.3164407 -0.465324
-0.4088473 -0.47607598 -0.2194172 -0.47447076 -0.51435256 0.1300733 -0.17956118 0.21094461
-0.5182037 0.20920014 -0.22065182 0.19006109 -0.15732454 -0.4021988 -0.08529935 0.2105619
-0.44805202 0.2970002 -0.4994671 -0.013045894 -0.11151822 0.12807931 0.46409583 -0.22509839
-0.09792153 0.13893317 0.11190242 0.19767775 -0.14581521 -0.4359853 0.4059168 -0.39050347
0.1233853 0.021223651 -0.39058906 -0.3050569 -0.14163457 -0.12357422 -0.044719145 0.40635785
0.2645804 -0.16222452 0.23302604 -0.2332953 -0.25782353 0.023817627 -0.12536916 0.37478206
-0.29408863 0.068204544 0.048612975 0.18438974 -0.3479231 0.18600167 0.53595185 0.2811295
0.10616353 0.78833723 0.3713977 0.11113298 -0.7350476 -0.15074629 0.32188883 -0.5825879
-0.8179424 -0.5110514 -0.19888607 -0.55125624 -0.9423476 0.646069 0.21563862 -0.25779834
-0.13682187 -0.5330457 0.036341615 0.17612967 0.26242712 -0.6256293 0.24931237 -0.4283433
-0.7545609 0.61359066 -0.46486515 -0.4815888 -0.2286985 0.8614346 0.23654802 -0.33832812
0.47230104 0.6116927 0.22007744 0.1359415 -0.52077365 0.16765486 -0.27645496 -0.56513476
-0.7920582 -0.55860555 -0.10046107 -0.24104615 -0.5859823 0.7280225 0.13049097 -0.34429073
-0.4382997 0.019169755 -0.38672078 0.4593119 0.14241885 -0.5339376 -0.035393327 -0.62637675
-0.63697493 0.46061537 -0.43650755 -0.31499413 -0.23523857 0.53548443 0.41132084 -0.16189513
00000000: dfd8 0f3e 1847 353f f00d 243f 4c5e 763b
00000010: cacc 01bf 5d5f afbd 9544 debd 0b0f 85be
00000020: baf5 b2be 2f1b a3be bf66 4f3d 1206 77be
00000030: b773 6cbf d214 ec3e 9126 483e 972c d0bd
00000040: e150 1cbf 06f0 613e 4223 95be 36db 0f3e
00000050: a99e fd3d 60d2 c3be 7378 16be 6c5b 62bd
00000060: e05b dcbe 7947 0b3f 526c 62bf a909 22be
00000070: 1818 3cbe ee26 b43e 35d4 a63e cd2e 21be
00000080: 22aa 3abf 95be 81be 0075 87bd ee4e b3bc
00000090: 2b3f c03d cfe6 08bf f625 c23e 14ef ae3c
000000a0: eb23 0a3e 834b 87bd 241a 49be c559 68bd
000000b0: ea8b 8d3d c766 4bbe 9e94 66be 1bc7 c33d
000000c0: bd9e a13e dab5 e7be 09f6 5b3d aff2 f03c
000000d0: a692 3abe c7f1 8c3e 7607 f23b 9cb3 ff3d
000000e0: 8ca8 7f3e 7faf 6dbe 2157 a83e 3ecb 923e
000000f0: 181f 62bd 74b0 2cbc 1160 d73d c11f 513d
00000100: 9db5 36be 1015 a83e 6343 ac3e 6169 073e
00000110: 0e00 aabe 18c2 2bbf e1fb 7e3f e53d b6be
00000120: 64ac 0ebe a9e4 133e d5c9 20be f52d f3be
00000130: 6130 43be 65f7 353d e86f d73d 0f0d 0b3f
00000140: c28f c9bb 8695 7ebe 7e26 b6bd 81eb 983b
00000150: 8feb 6bbe 923f b53c 4ce8 31be e6dd 953e
00000160: 3b33 07be 008c 1a3e cd17 133d 8687 1d3d
00000170: 224f 82be 1c17 1f3e cb63 103e 79e5 743e
00000180: 7ea3 4e3f f8f3 b63d f1ff 883e 84cf 7bbd
00000190: 9aba 5dbe c10c eabd 2d5b e83e aa09 7d3d
000001a0: a741 51be bd8f 34ba 34a8 83be b8d6 eabd
000001b0: 4dec 06be 2b40 0abd eacf e4bd e9d1 e9bd
000001c0: 529e bfbd 4085 cfbc 30bd c93d 1996 993e
000001d0: 3030 21bd 6f47 a0bd 8203 f6bd d7be 223e
000001e0: a6ad 11bd e1f8 f0bc e8f4 03be afb7 023e
000001f0: 0ce5 e6bd 26c6 f63d 428a 393e d204 85be
00000200: 61a9 fe3d f700 db3e 7136 b93e 07d7 7b3e
00000210: af10 dbbe af93 c8bc 8404 a23e f33e eebe
00000220: 6f54 d1be 3bc0 f3be e7ae 60be d5ed f2be
00000230: 9cac 03bf ef31 053e e3de 37be dd01 583e
00000240: ffa8 04bf 9038 563e 8df2 61be 609f 423e
00000250: af19 21be 00ed cdbe 6db1 aebd 8a9d 573e
00000260: 1367 e5be 6910 983e 27ba ffbe 72be 55bc
00000270: aa63 e4bd 3927 033e f89d ed3e 3180 66be
00000280: 158b c8bd 7f44 0e3e 192d e53d 096c 4a3e
00000290: 9550 15be 7739 dfbe 54d4 cf3e 12f0 c7be
000002a0: 6fb1 fc3d 39dd ad3c 4afb c7be 6b30 9cbe
000002b0: a708 11be 7b14 fdbd 6c2b 37bd 230e d03e
000002c0: 1577 873e 2f1e 26be 619e 6e3e f7e4 6ebe
000002d0: 7201 84be 2f1d c33c c660 00be 6fe3 bf3e
000002e0: c992 96be d3ae 8b3d 661e 473d aad0 3c3e
000002f0: fa22 b2be 3977 3e3e 2434 093f 35f0 8f3e
00000300: 446c d93d 78d0 493f d727 be3e b099 e33d
00000310: 142c 3cbf 3c5d 1abe 9dce a43e 7b24 15bf
00000320: ac64 51bf 44d4 02bf caa8 4bbe 211f 0dbf
00000330: b13d 71bf c764 253f 5fd0 5c3e 25fe 83be
00000340: 081b 0cbe af75 08bf f2da 143d 565b 343e
00000350: d95c 863e 3e29 20bf be4b 7f3e d04f dbbe
00000360: e72a 41bf 4714 1d3f ce02 eebe cf92 f6be
00000370: f12f 6abe fa86 5c3f a539 723e 5839 adbe
00000380: 71d1 f13e e597 1c3f fb5b 613e 4034 0b3e
00000390: 6c51 05bf b7ad 2b3e 818b 8dbe acac 10bf
000003a0: 54c4 4abf c600 0fbf 89be cdbd cdd4 76be
000003b0: f002 16bf af5f 3a3f 6d9f 053e e046 b0be
000003c0: d168 e0be e409 9d3c 4400 c6be ee2a eb3e
000003d0: 3fd6 113e 22b0 08bf 98f8 10bd 3a5a 20bf
000003e0: ca10 23bf c7d5 eb3e eb7d dfbe e946 a1be
000003f0: 61e2 70be 8215 093f a598 d23e d6c7 25be

backbone_lstm1.weight_hh_l0 f4 [128, 32]
-0.31368184 -0.05009711 0.14757083 -0.04101088 -0.40068167 0.28029266 0.260131 -0.27427208
0.3353634 -0.20420392 -0.19248372 0.42463017 0.17043811 -0.10781884 0.34207532 -0.23832808
0.37581486 -0.20415214 0.40465307 0.43517962 -0.49136144 -0.3303502 -0.2606877 0.38525644
-0.1486373 0.1693306 -0.33443683 0.28905326 -0.13894351 0.39670023 0.40707073 0.08408476
0.29609722 0.25675467 -0.18673491 -0.20054 0.07440403 0.006579709 -0.19449437 0.46217355
-0.35384354 0.11925292 0.4921445 -0.29661983 -0.18156743 0.11051888 -1.3460479 0.20445673
-0.5237939 0.03779769 -0.12130464 -0.24979915 0.03600309 0.255255 0.22240886 0.16352719
0.34597147 -0.2168556 0.599217 -0.16927645 0.26448148 -0.3509185 -0.20028341 0.39228863
-0.27349266 0.016998181 0.41004246 -0.327027 -0.055717364 0.4291807 -0.07310536 -0.006794585
-0.0010266518 -0.2735276 -0.16637522 0.16293152 0.5944251 0.1372808 -0.07939548 0.19643006
-0.19632791 -0.06259047 0.0012646812 0.4471138 -0.46807864 -0.35343304 -0.08534832 0.105683856
-0.16055973 -0.3088856 0.13318624 -0.14369844 0.25026202 0.09858442 0.26650646 0.04925239
0.35318074 0.095138416 0.06956497 -0.44713444 -0.036311027 0.04028379 -0.14537221 0.0645536
-0.14931622 -0.0688781 0.54548687 -0.35831356 0.27230278 0.23545808 -0.4412289 0.26052782
-0.25154406 0.1296467 0.34925413 0.064101614 0.027645314 0.044091664 -0.15211552 0.17590137
0.32550594 -0.5230754 0.3897548 -0.1428985 0.35473302 -0.13391794 -0.22468193 0.04766717
-0.26358917 -0.16486396 0.39141905 -0.24963951 -0.28264034 0.73330057 0.2703552 -0.3906544
0.044670306 -0.17547086 -0.15623792 0.23262216 0.86646044 -0.0009925731 0.1905573 -0.21820039
0.1471737 -0.2508276 0.03518273 0.25006488 -0.4003073 -0.7747112 -0.10640418 0.6221515
-0.16315946 -0.005383561 -0.12648545 0.32207406 -0.18731971 0.65812093 0.2980131 -0.2326645
-0.5064253 0.22896552 0.46175236 0.115724616 -0.38393864 0.52851295 0.038516846 -0.017877195
0.43941438 -0.72562474 -0.3659373 0.58524233 0.3678229 0.024907792 -0.11958673 -0.21125296
0.5337242 -0.24510677 -0.004926233 0.38517615 -0.63018346 -0.67432535 -0.30868125 0.25661793
-0.78811246 -0.01346946 -0.21990795 0.12648408 -0.089122534 0.01761198 0.18653746 0.19755214
-0.31769252 0.27452025 -0.17481384 0.2860928 -0.07540176 0.012747526 0.24293317 -0.571177
0.2648726 -0.54300433 -0.1728646 0.0855948 0.01827931 -0.0069504925 0.03769063 -0.29198495
0.20566258 -0.075576 -0.04168263 0.12364561 -0.09435386 -0.034322802 -0.23423368 -0.091530144
-0.18737975 -0.12769267 -0.08656556 0.30239353 0.33603635 0.54146075 0.46811655 -0.044972915
-0.19340228 0.2433197 0.34633192 0.16994491 -0.3359264 0.29610816 0.08966635 -0.53449374
0.46929926 -0.3988798 -0.25828287 0.45139918 0.2089854 0.09985296 0.10578288 -0.27784592
0.19160703 -0.3887551 0.46561778 0.2977113 -0.61797965 -0.45053524 -0.40256864 0.17020454
-0.3312486 -0.07430031 -0.4686737 0.3229474 -0.19603057 0.32457554 0.27564737 -0.32395747
00000000: e89a a0be a132 4dbd cf1c 173e 06fb 27bd
00000010: 2626 cdbe 8582 8f3e e42f 853e 646d 8cbe
00000020: c0b4 ab3e d51a 51be 741a 45be 2069 d93e
00000030: 5487 2e3e 20d0 dcbd 7f24 af3e 470c 74be
00000040: ce6a c03e 420d 51be b02e cf3e ddcf de3e
00000050: ba93 fbbe a923 a9be dc78 85be 5540 c53e
00000060: 6034 18be 0065 2d3e 4e3b abbe cafe 933e
00000070: 3547 0ebe 4b1c cb3e 936b d03e a134 ac3d
00000080: 0e9a 973e 5975 833e 7037 3fbe 5c5a 4dbe
00000090: 2461 983d 999a d73b 8829 47be 03a2 ec3e
000000a0: fb2a b5be e03a f43d 5dfa fb3e 8ede 97be
000000b0: d0ec 39be b957 e23d 4c4b acbf 1b5d 513e
000000c0: 5b17 06bf c0d1 1a3d 916e f8bd 59cb 7fbe
000000d0: fa77 133d c9b0 823e 26bf 633e ac73 273e
000000e0: 2c23 b13e 650f 5ebe 4966 193f ce56 2dbe
000000f0: 1e6a 873e 97ab b3be 1817 4dbe 0eda c83e
00000100: 3b07 8cbe c53f 8b3c 16f1 d13e 1570 a7be
00000110: e437 64bd 93bd db3e 43b8 95bd 1ca5 debb
00000120: b890 86ba cf0b 8cbe 445e 2abe 85d7 263e
00000130: 3e2c 183f 5793 0c3e 199a a2bd f624 493e
00000140: 2f0a 49be 6f2f 80bd a9c3 a53a 1aec e43e
00000150: 01a8 efbe 2df5 b4be 1acb aebd c770 d83d
00000160: c569 24be 4126 9ebe f961 083e af25 13be
00000170: 5822 803e a1e6 c93d 8973 883e e0bc 493d
00000180: 1bd4 b43e eed7 c23d 1478 8e3d ceee e4be
00000190: dfba 14bd 9e00 253d 74dc 14be ae34 843d
000001a0: 5ae6 18be f60f 8dbd 07a5 0b3f e074 b7be
000001b0: 456b 8b3e ec1b 713e c1e8 e1be e763 853e
000001c0: 62ca 80be 1bc2 043e 70d1 b23e b547 833d
000001d0: 6d78 e23c 7699 343d 2cc4 1bbe 7d1f 343e
000001e0: b7a8 a63e 45e8 05bf f18d c73e fc53 12be
000001f0: 919f b53e c921 09be 0513 66be a73e 433d
00000200: 29f5 86be 19d2 28be 1468 c83e 80a1 7fbe
00000210: 3cb6 90be 96b9 3b3f ff6b 8a3e db03 c8be
00000220: 36f8 363d a2ae 33be d5fc 1fbe 8134 6e3e
00000230: 5ad0 5d3f 3a19 82ba 7421 433e ec6f 5fbe
00000240: b4b4 163e 7a6c 80be c41b 103d 8108 803e
00000250: 14f5 ccbe 7953 46bf 6fea d9bd 5245 1f3f
00000260: 4613 27be 9568 b0bb 6785 01be e4e6 a43e
00000270: bdd0 3fbe 9d7a 283f 2c95 983e 9a3f 6ebe
00000280: 17a5 01bf f075 6a3e ce6a ec3e 0701 ed3d
00000290: 9b93 c4be a04c 073f d7c3 1d3d 3273 92bc
000002a0: ecfa e03e 8bc2 39bf 225c bbbe 71d2 153f
000002b0: 4853 bc3e 6d0b cc3c e3e9 f4bd b252 58be
000002c0: 26a2 083f 45fd 7abe 3d6c a1bb cf35 c53e
000002d0: b453 21bf 96a0 2cbf 780b 9ebe 6d63 833e
000002e0: bdc1 49bf 03af 5cbc 8d2f 61be 0b85 013e
000002f0: e085 b6bd 0047 903c ad03 3f3e 1c4b 4a3e
00000300: 98a8 a2be eb8d 8c3e 6602 33be c17a 923e
00000310: 3d6c 9abd 00db 503c 79c3 783e a838 12bf
00000320: 629d 873e 5502 0bbf 6b03 31be 544c af3d
00000330: 7ebe 953c f5c0 e3bb 7d61 1a3d 0d7f 95be
00000340: 3699 523e 97c7 9abd 68bb 2abd e939 fd3d
00000350: 993c c1bd 1196 0cbd f4da 6fbe 2874 bbbd
00000360: 7ae0 3fbe dec1 02be 4949 b1bd 53d3 9a3e
00000370: f50c ac3e 2c9d 0a3f f9ac ef3e 8535 38bd
00000380: 3f0b 46be cd28 793e 6b52 b13e 0a06 2e3e
00000390: 8cfe abbe 7d9b 973e fea2 b73d 95d4 08bf
000003a0: fe47 f03e f939 ccbe a73d 84be cb1d e73e
000003b0: 4500 563e b57f cc3d b2a4 d83d d241 8ebe
000003c0: a234 443e e90a c7be 7465 ee3e 9e6d 983e
000003d0: ea33 1ebf 8eac e6be 7a1d cebe 194a 2e3e
000003e0: 6b99 a9be c32a 98bd 00f6 efbe 5d59 a53e
000003f0: 3dbc 48be c42e a63e a721 8d3e c1dd a5be

backbone_lstm1.bias_ih_l0 f4 [128]
0.44985884 -0.13386819 -0.05776402 0.2725445 0.19922368 0.023652287 0.74352956 0.88414264
0.9631688 0.25270915 0.81552005 1.0743519 -0.29807812 -0.22371805 -0.12448485 0.6069476
0.11899551 -0.2819422 -0.12244986 -0.14852437 -0.20147513 0.2311571 -0.14915732 -0.14788336
0.8342157 -0.2089657 0.66472507 0.5559723 -0.22227563 0.4547697 1.1118133 -0.40125766
0.4476143 0.026167037 0.2763029 0.2236687 0.4358716 0.3168327 0.24026549 0.16250262
0.7233709 0.37274748 0.5453556 0.661793 0.14568876 0.18938234 -0.026451992 0.16768582
0.4767674 0.16342968 0.26074612 0.24727714 0.46509978 0.25175112 0.09664153 0.1466412
0.61384887 0.37315643 0.66635823 -0.06915241 0.37593037 0.62750083 0.6747519 0.36803034
-0.64154077 -0.2691043 -0.11714034 0.28273273 -0.24307406 -0.068784684 0.47855705 -0.18937436
0.76874 -0.2572849 -0.3670824 0.5993172 -0.1662401 -0.26860934 0.21420182 -0.64607686
0.2828068 -0.20778324 0.096597485 0.12461291 -0.37690997 -0.2653341 -0.13532718 -0.12305402
-0.735899 0.21133399 -0.71710736 0.383621 -0.04200612 0.6830934 0.85625553 -0.27523372
0.05458877 0.09688492 -0.17278042 -0.0070398054 0.021221427 -0.07137396 0.2290809 -0.030979972
-0.085667044 -0.07900998 -0.15405837 0.055607937 -0.096493535 0.17240262 0.5323147 0.23569421
-0.11313264 0.53055733 -0.0057161083 0.086158 0.20503995 0.3461371 0.051505063 0.08398392
-0.1989492 0.101543464 0.058659624 0.13284801 -0.05759832 0.08097939 0.26834527 -0.15028495
00000000: e653 e63e be14 09be f799 6cbd f48a 8b3e
00000010: 4b01 4c3e 71c2 c13c f457 3e3f 2c57 623f
00000020: 3b92 763f 1863 813e ecc5 503f 5d84 893f
00000030: b29d 98be 5816 65be eaf1 febd eb60 1b3f
00000040: ebb3 f33d ba5a 90be fec6 fabd c616 18be
00000050: 7f4f 4ebe 72b4 6c3e b2bc 18be bc6e 17be
00000060: 298f 553f 1bfb 55be 6c2b 2a3f 3354 0e3f
00000070: 399c 63be 93d7 e83e e64f 8e3f a571 cdbe
00000080: b42d e53e 415c d63c 9377 8d3e 6809 653e
00000090: 902a df3e e537 a23e 2808 763e 1667 263e
000000a0: d62e 393f c2d8 be3e 6d9c 0b3f 446b 293f
000000b0: 6f2f 153e 72ed 413e d9b1 d8bc d5b5 2b3e
000000c0: db1a f43e 1c5a 273e 8480 853e 3836 7d3e
000000d0: 8f21 ee3e 86e5 803e ffeb c53d 1c29 163e
000000e0: 3325 1d3f 5c0e bf3e 7496 2a3f c79f 8dbd
000000f0: f279 c03e e5a3 203f 8abc 2c3f 796e bc3e
00000100: 043c 24bf 0ac8 89be 46e7 efbd 58c2 903e
00000110: 68e8 78be fcde 8cbd 6e05 f53e 5aeb 41be
00000120: 25cc 443f d9ba 83be 39f2 bbbe da6c 193f
00000130: d83a 2abe 2a87 89be b957 5b3e 4b65 25bf
00000140: 0ecc 903e 21c5 54be e7d4 c53d 0e35 ff3d
00000150: 58fa c0be dfd9 87be 3593 0abe bf03 fcbd
00000160: e063 3cbf f067 583e 5994 37bf f969 c43e
00000170: 9c0e 2cbd 36df 2e3f 9033 5b3f 6feb 8cbe
00000180: 7998 5f3d 9a6b c63d 5aed 30be 2bae e6bb
00000190: 8fd8 ad3c 832c 92bd 2f94 6a3e b6c9 fdbc
000001a0: 3472 afbd fccf a1bd 7ac1 1dbe 26c5 633d
000001b0: 679e c5bd 508a 303e c745 083f d359 713e
000001c0: 16b2 e7bd 9bd2 073f 314e bbbb 9b73 b03d
000001d0: fef5 513e e238 b13e f9f6 523d c3ff ab3d
000001e0: 57b9 4bbe 05f6 cf3d 1345 703d 4f09 083e
000001f0: 37ec 6bbd 86d8 a53d 8d64 893e 4ce4 19be

backbone_lstm1.bias_hh_l0 f4 [128]
0.4750365 -0.29531527 0.09224568 0.33982915 0.2994012 -0.033582084 0.689507 0.9717009
0.74264485 0.09941931 0.7489386 1.1684033 -0.3628807 -0.28157422 -0.14588948 0.53592956
0.14892973 0.012922895 0.13447872 -0.28608507 -0.19416401 0.21941657 -0.050307475 -0.36555222
0.74997354 -0.257187 0.8840574 0.59813386 -0.2750744 0.56334525 0.87350005 -0.26716542
0.3058106 0.10546052 0.38056025 0.20209703 0.5273402 0.1550992 0.26844183 0.40991765
0.63191533 0.17943056 0.48588 0.5445688 0.24295457 0.26090568 -0.031014103 0.2919085
0.32625353 0.1883906 0.094295315 0.3095938 0.48125803 0.068548664 0.21451996 0.22664467
0.48497158 0.5500431 0.66970646 0.022653349 0.13246343 0.33635202 0.6113373 0.3368792
-0.60986525 -0.17963049 0.053090267 0.08114914 -0.22158568 0.06462353 0.5429231 -0.18247944
0.78347874 -0.30870765 -0.41744357 0.7204103 -0.20946002 -0.15377145 0.41059414 -0.49803615
0.055832144 -0.17498447 0.108503595 0.24981722 -0.33093035 -0.27699682 -0.1732155 0.15344588
-0.7562132 0.025659017 -0.5130004 0.56664306 -0.19166464 0.48004282 0.65292585 -0.1707494
0.058074296 -0.12651595 -0.16134146 -0.17972727 0.117038675 -0.40066692 -0.001450157 0.025545515
-0.09079133 -0.08070987 0.17512129 0.13724592 -0.10091507 -0.10878463 0.5305046 -0.020638514
-0.122397214 0.47102585 -0.05005153 -0.07534503 0.07421969 0.18192852 -0.18554491 -0.15193813
-0.10292426 0.14238429 0.1649399 -0.027293798 -0.07298046 -0.14201479 0.053040396 -0.06540152
00000000: fc37 f33e 9033 97be 4eeb bc3d 16fe ad3e
00000010: 1d4b 993e 5e8d 09bd 8883 303f 64c1 783f
00000020: f91d 3e3f 5a9c cb3d 71ba 3f3f 3d8e 953f
00000030: 80cb b9be 7f2a 90be 0d64 15be ae32 093f
00000040: 0981 183e 8dba 533c cab4 093e be79 92be
00000050: eed2 46be bdae 603e 360f 4ebd a929 bbbe
00000060: 44fe 3f3f 04ae 83be 9651 623f 4d1f 193f
00000070: 8dd6 8cbe 6537 103f b39d 5f3f e8c9 88be
00000080: 3593 9c3e affb d73d cbd8 c23e 86f2 4e3e
00000090: c4ff 063f 53d2 1e3e 3571 893e bae0 d13e
000000a0: 34c5 213f a5bc 373e 43c5 f83e dc68 0b3f
000000b0: 15c9 783e 6e95 853e 4a11 febc 0875 953e
000000c0: b40a a73e 77e9 403e e71d c13d 1483 9e3e
000000d0: 7467 f63e 3e63 8c3d 1fab 5b3e 8a15 683e
000000e0: 324e f83e a0cf 0c3f e271 2b3f 8493 b93c
000000f0: 7ea4 073e 5536 ac3e 9a80 1c3f 6e7b ac3e
00000100: 2120 1cbf 0ef1 37be 2e75 593d 8531 a63d
00000110: 5be7 62be 5759 843d 02fd 0a3f e4db 3abe
00000120: 1092 483f ee0e 9ebe 2abb d5be cf6c 383f
00000130: b07c 56be 4376 1dbe 6539 d23e 98fe febe
00000140: 3fb0 643d 212f 33be 2237 de3d 16d0 7f3e
00000150: b46f a9be 87d2 8dbe 675f 31be eb20 1d3e
00000160: 3097 41bf dc32 d23c ff53 03bf 850f 113f
00000170: bc43 44be 2cc8 f53e 2626 273f eed8 2ebe
00000180: 50df 6d3d 668d 01be b236 25be 6d0a 38be
00000190: f9b1 ef3d 3724 cdbe 3213 beba d444 d13c
000001a0: cef0 b9bd 374b a5bd ff52 333e 328a 0c3e
000001b0: 8fac cebd 7aca debd 26cf 073f 1a12 a9bc
000001c0: 64ab fabd 4d2a f13e d502 4dbd 7f4e 9abd
000001d0: 7e00 983d 784b 3a3e 7cff 3dbe ab95 1bbe
000001e0: f4c9 d2bd 30cd 113e 01e6 283e 3e97 dfbc
000001f0: c876 95bd 536c 11be e340 593d 3bf1 85bd

backbone_lstm2.weight_ih_l0 f4 [64, 32]
-0.36053306 -0.39217433 -0.34538156 0.111589745 0.24044521 -0.24564193 0.03217408 -0.2887886
-0.20556195 0.37641388 -0.3980591 0.02716355 -0.35917944 0.002237959 0.43635124 -0.0775127
0.13215409 0.15984069 -0.2729396 -0.26885635 0.086993515 0.012060051 0.3459226 0.096425794
-0.054036766 0.1002605 -0.13628379 0.47036004 -0.7183702 -0.20899393 0.09498083 0.002445817
-0.029321594 -0.52396256 -0.14886956 0.40182313 0.24431428 -0.35398716 0.3359631 -0.31685922
0.09400367 -0.14960991 -0.01949639 -0.08015945 -0.2339532 0.007527952 0.23766917 -0.0921903
-0.01847828 0.3524357 -0.41137064 -0.06577599 0.13207524 0.2639559 0.22493204 -0.1638292
-0.17130682 0.15878785 -0.09072589 0.2559165 0.054510053 0.091900185 0.20091929 -0.1017595
-0.43263415 0.63133216 0.49493024 0.015385461 -0.6279132 0.13515794 0.47300816 -0.95596933
0.06521896 0.0909183 -0.19777286 0.18383525 0.18011603 0.41335192 0.0026853818 -0.4656713
0.06297771 -0.30335438 -0.10096125 0.5296454 -0.39692172 -0.18996578 -0.52073795 0.59083074
-0.3183122 -0.036946047 -0.7006868 0.7920041 0.25469464 0.53700244 0.6241535 -0.48045403
-0.29637825 0.26281294 0.3839038 0.25964445 -0.44426835 0.83199203 0.26197186 -0.069877125
-0.2428031 -0.72654617 -0.049797866 -0.17968106 -0.33556032 0.40126607 0.13878706 0.043479867
0.9030693 0.12576276 -0.35654593 -0.19856839 0.005449908 -0.0071936236 0.15759571 -0.43028605
0.23664749 0.17306644 -0.31586993 -0.17041235 -0.1596372 0.16147357 0.42004958 0.27616078
0.0014363059 -0.64914095 -0.048410583 0.23720148 0.0728847 -0.29372674 0.34670323 -0.42209765
0.30316684 0.15079677 -0.2471774 0.33834583 -0.16396344 -0.02197377 0.26940453 -0.09392041
-0.22719806 0.22846875 -0.264198 -0.12852444 0.09442709 0.27242446 -0.033727806 -0.06495936
-0.3541683 0.20072179 0.0512726 0.04418814 -0.22306955 -0.1544108 0.01088956 0.30093455
-0.11689328 -0.41009173 -0.05702063 0.20771362 0.022127535 -0.18726419 0.25439888 -0.33241594
0.1299905 0.03410961 0.058626007 0.11264443 -0.4158188 -0.2752597 0.42186368 -0.2566437
-0.07640107 0.32218733 -0.39597386 -0.19976215 0.26664355 0.40547648 0.32803345 -0.36582854
0.08301239 0.4008601 -0.15244877 0.12829192 -0.47273842 0.48695064 0.055490896 0.3709332
-0.39746526 0.63535815 0.21061239 -0.44865122 -0.23870605 0.053579688 0.72714204 -0.57134277
0.55608666 0.38475406 -0.121463075 0.2748811 0.03562621 0.42186075 -0.37455344 -0.6874219
-0.08877409 -0.27397493 0.24293639 0.17204016 -0.37274912 -0.19041596 -0.17424235 0.3850107
-0.22586225 -0.11082506 -0.3938564 0.39615938 0.28258222 0.304196 0.4001057 -0.074008204
-0.39412144 -0.37937865 -0.31238684 0.082135044 0.072303906 0.30431196 -0.19169629 0.011184644
-0.10708956 -0.31186226 -0.32778805 -0.23467241 0.09181307 0.1978931 0.15036616 -0.012003171
0.57583886 0.5331541 -0.21086182 -0.16242048 -0.034379642 -0.26155648 0.32482252 0.066932164
0.12719904 0.114487916 -0.21994932 -0.25475278 -0.3232326 0.18808262 -0.018250428 0.34131303
00000000: ca97 b8be 13cb c8be dad5 b0be 2a89 e43d
00000010: 4537 763e 8f89 7bbe f8c8 033d 19dc 93be
00000020: d57e 52be 52b9 c03e 67ce cbbe 1886 de3c
00000030: 5ee6 b7be b9aa 123b 6e69 df3e fabe 9ebd
00000040: 6753 073e 47ad 233e bdbe 8bbe 8aa7 89be
00000050: a829 b23d 8597 453c c41c b13e e37a c53d
00000060: a855 5dbd 6155 cd3d fa8d 0bbe 08d3 f03e
00000070: 1ce7 37bf 8102 56be 4f85 c23d 004a 203b
00000080: d733 f0bc 6922 06bf 4371 18be c3bb cd3e
00000090: 862d 7a3e ce3d b5be 5b03 ac3e 5f3b a2be
000000a0: ff84 c03d 5733 19be e5b6 9fbc a32a a4bd
000000b0: 6d91 6fbe 0aad f63b 8c5f 733e 45ce bcbd
000000c0: c35f 97bc 7472 b43e 2c9f d2be 90b5 86bd
000000d0: bb3e 073e 3a25 873e 9654 663e d8c2 27be
000000e0: 0e6b 2fbe 4899 223e 7fce b9bd 7d07 833e
000000f0: ef45 5f3d 2a36 bc3d c9bd 4d3e 4967 d0bd
00000100: 3982 ddbe fc9e 213f 7f67 fd3e 4d13 7c3c
00000110: ebbe 20bf d866 0a3e 202e f23e 68ba 74bf
00000120: 8591 853d 6033 ba3d f884 4abe 4f3f 3c3e
00000130: 5670 383e dda2 d33e 3bfd 2f3b 786c eebe
00000140: 75fa 803d 4451 9bbe c6c4 cebd d796 073f
00000150: 5339 cbbe 6486 42be 154f 05bf af40 173f
00000160: d1f9 a2be bd54 17bd 3660 33bf c8c0 4a3f
00000170: 5667 823e fe78 093f 86c8 1f3f 12fe f5be
00000180: e4be 97be 6b8f 863e 0a8f c43e 1ef0 843e
00000190: 2477 e3be 6efd 543f 2d21 863e bd1b 8fbd
000001a0: 60a1 78be eefe 39bf d9f8 4bbd 50fe 37be
000001b0: 90ce abbe bf72 cd3e 321e 0e3e f217 323d
000001c0: 8d2f 673f f4c7 003e 308d b6be 8355 4bbe
000001d0: 2495 b23b 7db8 ebbb c560 213e 744e dcbe
000001e0: b853 723e 5438 313e b4b9 a1be 9380 2ebe
000001f0: ef77 23be 5459 253e bd10 d73e f264 8d3e
00000200: 6e42 bc3a 1a2e 26bf 2d4a 46bd f2e4 723e
00000210: 9344 953d 5a63 96be 1683 b13e 2f1d d8be
00000220: af38 9b3e 786a 1a3e 131c 7dbe aa3b ad3e
00000230: 08e6 27be 5602 b4bc 64ef 893e 5859 c0bd
00000240: 9ca6 68be b6f3 693e f644 87be e99b 03be
00000250: fd62 c13d 387b 8b3e 2b26 0abd 6a09 85bd
00000260: 8c55 b5be 038a 4d3e 3803 523d a0fe 343d
00000270: 586c 64be dd1d 1ebe 206a 323c 1814 9a3e
00000280: be65 efbd 8bf7 d1be 778e 69bd e1b2 543e
00000290: ce44 b53c 2fc2 3fbe 9240 823e 6c32 aabe
000002a0: 3b1c 053e 85b6 0b3d d321 703d 1fb2 e63d
000002b0: 34e6 d4be d7ee 8cbe 84fe d73e ce66 83be
000002c0: 2a78 9cbd bdf5 a43e 16bd cabe 738e 4cbe
000002d0: 8185 883e 9d9a cf3e 00f4 a73e e14d bbbe
000002e0: 6602 aa3d 893d cd3e 881b 1cbe f55e 033e
000002f0: c50a f2be 9851 f93e 6c4a 633d f5ea bd3e
00000300: 9180 cbbe d5a6 223f c6aa 573e 9db5 e5be
00000310: 5c6f 74be 6076 5b3d fb25 3a3f 8543 12bf
00000320: b25b 0e3f 7cfe c43e a2c1 f8bd 37bd 8c3e
00000330: caec 113d 22fe d73e 78c5 bfbe e2fa 2fbf
00000340: 31cf b5bd 7146 8cbe 51c4 783e 4c2b 303e
00000350: f9d8 bebe 67fc 42be 966c 32be 1f20 c53e
00000360: 6f48 67be 40f8 e2bd 8ca7 c9be 67d5 ca3e
00000370: 9eae 903e 94bf 9b3e a8da cc3e 9d91 97bd
00000380: 49ca c9be eb3d c2be 2bf1 9fbe 6b36 a83d
00000390: 1214 943d c7ce 9b3e 084c 44be cc3f 373c
000003a0: c551 dbbd 69ac 9fbe d6d3 a7be f74d 70be
000003b0: 7e08 bc3d 7da4 4a3e 96f9 193e f3a8 44bc
000003c0: 2d6a 133f c97c 083f 29ec 57be 8e51 26be
000003d0: abd1 0cbd bbea 85be 234f a63e bb13 893d
000003e0: 7740 023e a478 ea3d 653a 61be f56e 82be
000003f0: be7e a5be bb98 403e ec81 95bc 95c0 ae3e

backbone_lstm2.weight_hh_l0 f4 [64, 16]
-0.38145176 -0.16323273 0.07248862 0.38089925 -0.422275 -0.28330886 -0.15807864 -0.5019774
-0.17290992 0.041126665 -0.012888763 0.28910193 -0.16654716 0.13327897 0.3721479 0.23163402
-0.17614946 0.04212187 -0.07523882 0.34104285 -0.2927586 0.012477063 -0.06798951 -0.33297142
0.0576858 0.38581467 -0.081898965 0.6022996 -0.18211679 -0.06431439 -0.044930052 0.17799379
-0.093439706 -0.12173343 -0.24505654 0.015968017 -0.32943818 -0.4295784 -0.43260556 -0.06555813
-0.15215907 0.23209098 -0.15914862 -0.061139606 -0.35255343 -0.12091577 0.08789702 0.12220455
0.57144225 0.24691343 0.07209315 -0.10475283 0.25551593 -0.37021247 0.063232265 0.3856673
-0.074792854 -0.1935566 0.18482435 0.2747388 -0.3652979 -0.020734562 -0.27227834 -0.025040708
-0.24034443 -0.09194672 0.23239903 0.0030518868 -0.5680838 -0.79563546 -0.039247226 -0.33868155
0.15657508 0.12000209 -0.22126111 1.2295408 -0.08952698 -0.19971575 0.43522534 0.39899823
0.32646567 -0.10839927 0.26839942 0.06740155 -0.078221455 0.018659014 -0.050735243 -0.06532292
-0.3403406 0.015579334 -0.027278436 0.20854977 -0.36724266 -0.036178723 0.3898637 0.29157853
0.097250186 0.12248819 0.22321025 -0.05808964 0.07653944 -0.14479624 -0.025253432 0.074098274
-0.12726015 0.058855366 0.24958153 -0.14873567 -0.27391717 0.10117613 0.034178644 0.11652677
1.1795136 0.40537128 0.04054662 -0.28069967 1.2109073 -0.18990761 0.12787808 0.48592794
0.03228409 -0.29731366 0.7623151 -1.3533102 -0.3134559 0.23523614 0.16094288 0.2874512
0.089305535 0.26218456 0.03390048 -0.2622821 0.07827982 -0.30176672 -0.044420455 -0.09252749
-0.13883011 0.1840918 -0.13166568 -0.23156685 -0.38788235 -0.10687797 -0.078010514 0.10101722
0.9839778 0.026809657 -0.25967595 0.24897662 1.7530298 -0.8208684 -0.3089692 0.3082776
-0.3113551 -0.011786444 0.21667133 -1.2502974 -0.394316 -0.017614424 0.06690376 0.19817361
0.0051079188 -0.24908096 -0.07415414 0.27956375 -0.08630637 0.2615352 -0.40757096 -0.1444695
-0.31757617 0.19177896 -0.17632857 0.40526992 -0.049471322 -0.22429776 0.15632097 0.28724304
-0.20192169 0.320087 -0.1452135 0.15876321 -0.2491115 -1.1197188 -0.29578352 -0.34427544
-0.26415163 0.026955314 0.13573985 1.1206311 -0.5422329 -0.1524392 0.17189245 0.23107734
0.097410955 -0.13231322 0.2798303 0.41626123 -0.30637217 -0.1027929 -0.23126422 -0.1569068
-0.26885602 0.0970634 -0.025777975 0.21342392 0.053181224 0.10249044 0.24842376 0.14455928
0.73471224 0.23048119 0.25138053 0.09778622 0.45391932 -0.039914064 0.3046327 -0.11202708
0.12044133 0.03705999 -0.22669268 -0.110478155 -0.030731756 0.12731405 -0.09462271 -0.3866082
-0.18112841 0.028662954 -0.024783246 0.08106263 0.12848006 -0.5260561 -0.060825355 0.34416825
-0.21417493 0.02555596 -0.039062206 0.29220116 -0.31480786 0.20214161 -0.06305313 0.008823017
-0.0915111 0.24750006 0.041580588 0.122010194 -0.09854241 -0.48316717 0.056195356 0.32717857
-0.068864636 -0.31371564 -0.3053341 0.5696894 -0.3662086 -0.008955549 0.31949297 0.059954133
00000000: a54d c3be 7b26 27be ea74 943d 3a05 c33e
00000010: 6e34 d8be dc0d 91be 5edf 21be 9781 00bf
00000020: 4c0f 31be 6f74 283d 642b 53bc 2b05 943e
00000030: 578b 2abe 487a 083e 2b8a be3e 7831 6d3e
00000040: 8660 34be fb87 2c3d cf16 9abd 2b9d ae3e
00000050: 75e4 95be 986c 4c3c 163e 8bbd 3b7b aabe
00000060: f247 6c3d 8089 c53e a5ba a7bd 4e30 1a3f
00000070: d37c 3abe 43b7 83bd 9308 38bd 0144 363e
00000080: 515d bfbd 604f f9bd 1af0 7abe 5ccf 823c
00000090: 1fac a8be b3f1 dbbe 7a7e ddbe 5743 86bd
000000a0: 96cf 1bbe 42a9 6d3e dbf7 22be 866d 7abd
000000b0: e281 b4be b0a2 f7bd 5a03 b43d 6146 fa3d
000000c0: 0a4a 123f e0d6 7c3e 93a5 933d a788 d6bd
000000d0: fcd2 823e 7d8c bdbe eb7f 813d 2f76 c53e
000000e0: ff2c 99bd b433 46be 9842 3d3e 90aa 8c3e
000000f0: 5408 bbbe 87db a9bc 1168 8bbe 2c22 cdbc
00000100: da1c 76be 904e bcbd 03fa 6d3e 2a02 483b
00000110: f16d 11bf c4ae 4bbf b3c1 20bd ab67 adbe
00000120: 3855 203e a8c3 f53d 4692 62be 9861 9d3f
00000130: ec59 b7bd 4982 4cbe dbd5 de3e 7f49 cc3e
00000140: 8226 a73e 7000 debd a66b 893e d309 8a3d
00000150: 9232 a0bd cada 983c c2cf 4fbd 06c8 85bd
00000160: 2041 aebe 7740 7f3c 0777 dfbc 128e 553e
00000170: 3b07 bcbe 2430 14bd 379c c73e c849 953e
00000180: 1b2b c73d 17db fa3d 3a91 643e 67ef 6dbd
00000190: b6c0 9c3d 7745 14be 49e0 cebc d6c0 973d
000001a0: 7c50 02be 5312 713d 4d92 7f3e 2a4e 18be
000001b0: df3e 8cbe 6e35 cf3d e8fe 0b3d 96a5 ee3d
000001c0: 4dfa 963f d38c cf3e 3614 263d deb7 8fbe
000001d0: 03ff 9a3f 2477 42be 79f2 023e 8ccb f83e
000001e0: 523c 043d 7f39 98be 1527 433f 4539 adbf
000001f0: 4b7d a0be bee1 703e 36ce 243e ce2c 933e
00000200: d2e5 b63d 0e3d 863e 3bdb 0a3d d749 86be
00000210: 2c51 a03d 2b81 9abe 39f2 35bd 0d7f bdbd
00000220: 7b29 0ebe 9082 3c3e 5ed3 06be dc1f 6dbe
00000230: 8498 c6be d6e2 dabd fac3 9fbd 1ee2 ce3d
00000240: f8e5 7b3f ed9f db3c 3ff4 84be baf3 7e3e
00000250: 4863 e03f 6e24 52bf 3631 9ebe 90d6 9d3e
00000260: f069 9fbe ee1b 41bc 17df 5d3e bf09 a0bf
00000270: c9e3 c9be 204c 90bc d704 893d 06ee 4a3e
00000280: 5460 a73b 140f 7fbe 20de 97bd fb22 8f3e
00000290: 65c1 b0bd f1e7 853e 24ad d0be d0ef 13be
000002a0: 5899 a2be b461 443e 7a8f 34be 8a7f cf3e
000002b0: 71a2 4abd 50ae 65be 9b12 203e 8511 933e
000002c0: 8fc4 4ebe 71e2 a33e d9b2 14be d392 223e
000002d0: 1617 7fbe f252 8fbf f070 97be df44 b0be
000002e0: e23e 87be 64d1 dc3c 63ff 0a3e d770 8f3f
000002f0: c6cf 0abf 0619 1cbe 9304 303e 8a9f 6c3e
00000300: 657f c73d 1e7d 07be eb45 8f3e 3120 d53e
00000310: d0dc 9cbe 1585 d2bd 87d0 6cbe 2dac 20be
00000320: 7fa7 89be 2dc9 c63d 552c d3bc cd8b 5a3e
00000330: 8ed4 593d 82e6 d13d cc62 7e3e 5907 143e
00000340: 1a16 3c3f 4303 6c3e f3b4 803e 2444 c83d
00000350: 1d68 e83e ee7c 23bd d1f8 9b3e 746e e5bd
00000360: f2a9 f63d 37cc 173d 2022 68be 5f42 e2bd
00000370: 2ac1 fbbc 9d5e 023e 8dc9 c1bd 83f1 c5be
00000380: ba79 39be 92ce ea3c 3c06 cbbc 2a04 a63d
00000390: 4790 033e 9dab 06bf 0224 79bd d236 b03e
000003a0: ac50 5bbe bc5a d13c b1ff 1fbd 649b 953e
000003b0: 7f2e a1be 36fe 4e3e 0022 81bd 6a8e 103c
000003c0: 2c6a bbbd a870 7d3e 6850 2a3d 7be0 f93d
000003d0: 9ad0 c9bd b061 f7be 1a2d 663d f383 a73e
000003e0: e708 8dbd 569f a0be c054 9cbe 2ad7 113f
000003f0: b27f bbbe 4cba 12bc 9594 a33e 7792 753d

backbone_lstm2.bias_ih_l0 f4 [64]
-0.26540753 -0.53209054 0.1439871 -0.17309901 -0.3794914 -0.38142347 0.37630835 -0.39293763
0.15039992 -0.22779904 -0.5733383 -0.47331166 -0.62032026 0.16639654 0.17006999 0.23060036
0.3754511 -0.036892347 -0.3348339 0.28444308 0.22041515 -0.20106603 -0.20302439 0.07129204
-0.01650188 0.10393369 -0.13242535 0.0663294 0.068350315 0.20017496 -0.13041593 -0.23898523
-0.025101718 0.07196312 -0.09224204 0.154251 -0.036900893 0.19449942 0.22844194 0.13907595
0.41313884 -0.25985217 -0.29514846 0.16830209 -0.072823666 0.19870405 0.049202744 -0.021654608
0.55840766 0.03225405 -0.6180763 -1.075506 0.60060567 -0.038498014 -0.7935971 -1.2843872
-0.25765467 -0.520823 0.15696368 0.39248747 -0.12127528 -0.6689428 -0.64533406 -0.37338826
00000000: 7fe3 87be 1637 08bf 5b71 133e de40 31be
00000010: b24c c2be f049 c3be 7dab c03e 1f2f c9be
00000020: 7002 1a3e 2744 69be 4dc6 12bf e855 f2be
00000030: 4fcd 1ebf db63 2a3e d426 2e3e 8022 6c3e
00000040: 203b c03e 6e1c 17bd 596f abbe 86a2 913e
00000050: 82b4 613e 41e4 4dbe a0e5 4fbe 9001 923d
00000060: f32e 87bc 30db d43d 839a 07be b5d7 873d
00000070: 40fb 8b3d aafa 4c3e c18b 05be 8bb8 74be
00000080: 1ea2 cdbc 6661 933d 65e9 bcbd f9f3 1d3e
00000090: 6425 17bd db2a 473e afec 693e ed69 0e3e
000000a0: ef86 d33e 580b 85be b31d 97be 6257 2c3e
000000b0: 9324 95bd 1379 4b3e d188 493d 0165 b1bc
000000c0: cef3 0e3f d31c 043d 403a 1ebf 2eaa 89bf
000000d0: 4bc1 193f 18b0 1dbd 2e29 4bbf cd66 a4bf
000000e0: 50eb 83be a854 05bf 16bb 203e 1ef4 c83e
000000f0: 2d5f f8bd d63f 2bbf 9d34 25bf bf2c bfbe

backbone_lstm2.bias_hh_l0 f4 [64]
-0.3675987 -0.18402675 -0.07920325 -0.30106434 -0.39387536 -0.53009206 0.017761115 -0.42493674
0.46637043 -0.29410514 -0.54952836 -0.6139039 -0.69936574 -0.000959118 0.20608692 -0.033237163
-0.00033227698 0.009287801 -0.08779214 -0.03839456 0.19747834 -0.11919292 -0.021352815 0.05107311
-0.027336644 -0.13888359 0.028582294 0.06435514 -0.26952916 0.15096565 -0.1193345 0.020446138
0.11871336 -0.120175466 0.22280939 -0.19250289 -0.19912545 0.29058027 0.030797798 0.109995596
0.50964576 -0.26689503 -0.33796862 0.31994313 0.12373302 0.3692194 0.14945062 0.19075869
0.58439976 0.33077097 -0.64931583 -0.7402614 0.27523237 0.019524874 -0.56506467 -0.90157336
-0.50511795 -0.63782066 0.2546183 0.26184908 -0.015207371 -0.5827909 -0.35258046 -0.4017548
00000000: e635 bcbe 8271 3cbe 5035 a2bd 1b25 9abe
00000010: 08aa c9be 1db4 07bf c27f 913c 4f91 d9be
00000020: 1bc8 ee3e f394 96be e4ad 0cbf ce28 1dbf
00000030: a209 33bf 526d 7bba 7308 533e b123 08bd
00000040: 7635 aeb9 dc2b 183c 5ecc b3bd 9d43 1dbd
00000050: c337 4a3e 6b1b f4bd 19ec aebc 0a32 513d
00000060: 19f1 dfbc 8037 0ebe 6a25 ea3c a1cc 833d
00000070: baff 89be bd96 1a3e a565 f4bd a97e a73c
00000080: fd1f f33d 8e1e f6bd 2528 643e 7a1f 45be
00000090: 8be7 4bbe f0c6 943e aa4b fc3c 5f45 e13d
000000a0: 2578 023f 77a6 88be 390a adbe 96cf a33e
000000b0: bd67 fd3d 530a bd3e 9509 193e 3f56 433e
000000c0: 399b 153f d05a a93e 9039 26bf c581 3dbf
000000d0: 42eb 8c3e a1f2 9f3c 14a8 10bf 83cd 66bf
000000e0: 694f 01bf 3748 23bf 545d 823e 1511 863e
000000f0: 5628 79bc c931 15bf 6d85 b4be ceb2 cdbe

fc.weight f4 [1, 16]
3.6047702 3.8159418 3.2776916 -3.157549 3.5354848 -4.053147 3.2889829 3.3991613
3.073926 -3.1901183 3.564595 -3.6791813 -4.0588655 3.182126 -3.3565383 -3.1711824
00000000: 8eb4 6640 6438 7440 b3c5 5140 4815 4ac0
00000010: 6245 6240 61b3 81c0 b27e 5240 dc8b 5940
00000020: 34bb 4440 e62a 4cc0 5322 6440 b577 6bc0
00000030: 3ae2 81c0 f4a7 4b40 86d1 56c0 a7f4 4ac0
