notebooks/lstm_backbone.pth (torch, 50789 bytes, 9 tensors)

backbone_lstm1.weight_ih_l0 f4 [128, 32]
000000 95 93 53 bf 6c 08 81 bf 1a f4 12 bf 99 00 32 3e
       -0.8264707 -1.0080695 -0.5740372 0.1738304
000010 f1 8b 50 bf 4b 64 8c bf 94 37 44 bf 93 07 21 3f
       -0.81463534 -1.0968107 -0.76647305 0.6290218
000020 67 b6 de 3f 57 ff 6e 3f d2 eb 60 3f f5 90 e4 be
       1.7399415 0.9335837 0.87859833 -0.44641843
000030 c4 01 03 3f ec e5 c2 bd 71 13 ad be ec b1 45 3f
       0.5117457 -0.0951651 -0.33803895 0.7722461
000040 40 65 ff 3e 8c 7b 81 3b 32 b9 5c 3f 6e 58 ed 3e
       0.49881935 0.0039514955 0.86220086 0.4635653
000050 5e cf 29 be e9 67 92 3d 9d 33 0f bf cb 66 6b 3e
       -0.1658301 0.071487255 -0.5593813 0.22988431
000060 51 34 b3 3e 0e 79 14 3f b4 18 a1 be 2f d4 77 3d
       0.35000852 0.57997215 -0.3146416 0.06050509
000070 30 de 99 bf e9 ac 76 3e 52 3a 9b 3f b2 bd 41 3f
       -1.2020931 0.24089397 1.2127173 0.7568008
000080 45 02 ab bf b3 1a 80 be 50 dc 79 bf 67 97 33 3d
       -1.3360068 -0.2502037 -0.97601795 0.04384556
000090 90 b6 c0 be 82 51 91 bf a0 31 a0 bf 1c 5f 72 3f
       -0.37639284 -1.1352999 -1.2515144 0.94676375
0000a0 06 54 1d 3f 08 a6 3a 3d 84 5a 77 3f 31 69 b7 bd
       0.61456335 0.045568496 0.9662249 -0.089556105
0000b0 8d a4 37 3f d0 3b 4d 3f 4c 1d b8 bc 4f ec 1d 3f
       0.7173546 0.8016939 -0.022474907 0.61688703
0000c0 4c c3 82 3f 09 e1 13 be d3 2a ae 3e 9d 2a 13 bf
       1.021585 -0.14441313 0.34017047 -0.574869
0000d0 ca b7 4e 3f 29 ab ea 3c f0 63 ac bf 85 5a 13 3d
       0.8074919 0.028646069 -1.3467999 0.035974998
0000e0 df e9 5e bf 79 90 ad 3f 51 1d 90 bf fc 47 84 3e
       -0.8707561 1.3559715 -1.1258947 0.2583617
0000f0 fd 47 f1 ba dc 04 59 3f 6f e4 fe 3e c4 7d c5 be
       -0.0018408295 0.8477304 0.49783656 -0.38572514
000100 80 e9 c7 bf 0e 35 b4 3e 96 d9 7a bf c5 c7 13 be
       -1.5618134 0.35196728 -0.9798826 -0.14431675
000110 20 11 1a bf 7d 53 71 bf 9b 2d f9 bf b2 10 8c 3f
       -0.6018238 -0.9426802 -1.9467043 1.0942595
000120 f3 b1 e3 3d 59 a4 d5 3d 60 92 95 b9 78 10 c7 3e
       0.111179255 0.104317375 -0.00028528553 0.38879752
000130 0e c8 73 3f d5 5a 2d 3f 46 da ff 3e d2 29 b5 3f
       0.95227134 0.67716724 0.49971217 1.4153388
000140 80 97 9c 3f f9 68 0d 3e d0 9e 1a be 25 d1 df be
       1.2233734 0.13809575 -0.15099645 -0.43714252
000150 05 43 2b 3f d2 93 f6 be 93 92 8a bf 70 4a 3c 3f
       0.6689914 -0.48159653 -1.0825981 0.7355108
000160 52 aa 63 bf 5a d7 46 3f 3e 58 b6 bf 8a b2 3c 3e
       -0.88931763 0.7767235 -1.4245679 0.18427482
000170 fb 40 b4 bd 2a 3e c3 3e 55 b4 48 3f 11 9b f2 bd
       -0.088014565 0.38133365 0.78400165 -0.11845983
000180 5f c4 50 be 87 53 b6 be ef 48 90 3e 9f a2 ab 3e
       -0.2038741 -0.356106 0.28180644 0.33522508
000190 07 b8 50 be 3e ac c6 3d a9 18 97 3e c5 e9 aa bd
       -0.20382701 0.09700821 0.29511002 -0.08345369
0001a0 d9 65 9f 3f 4f 7b 40 be 93 49 82 3f 62 c8 3e bf
       1.2452956 -0.18797038 1.0178703 -0.7452451
0001b0 20 2a 9a bd 6b e7 0b bf 2f a0 8a be 7f a8 e3 be
       -0.07527566 -0.5464999 -0.27075335 -0.4446449
0001c0 dd 6e b0 be 61 17 3f be 18 99 0e 3f b0 c9 ac bd
       -0.34459582 -0.18661262 0.5570235 -0.08436906
0001d0 d1 3f c9 bd ea 9e a2 3e dc 2f 02 3e 83 ad 7e be
       -0.09826625 0.31761867 0.1271357 -0.24870877
0001e0 35 c1 86 3f 91 8d 68 be 4d d0 53 3c 1c bb 31 3d
       1.0527712 -0.22710253 0.012928081 0.043391332
0001f0 c9 a0 b2 3d 86 9c aa be cd 2e 5c be a4 5e 31 3d
       0.087220736 -0.33322543 -0.21502228 0.043303147
000200 ef c9 fc be 23 8f 4e bf 91 60 5e 3e 27 86 ac 3e
       -0.49372813 -0.8068716 0.21716525 0.336961
000210 06 af 62 be ec 8a 87 be a3 c2 e0 be 96 50 55 3e
       -0.22137079 -0.26473176 -0.43898496 0.20831522
000220 83 e0 ed 3f 75 a9 bb bd 11 25 8a 3f 31 50 db be
       1.858414 -0.09163181 1.0792562 -0.4283462
000230 4f a6 17 be ff 87 41 3f 92 7f 12 bf b4 05 d1 be
       -0.14809535 0.7559814 -0.57225907 -0.40824664
000240 78 27 cc bc 44 39 fa be ba a9 29 3f 39 74 6c bf
       -0.024921164 -0.48871815 0.6627461 -0.9236484
000250 02 22 55 3f 3e d5 04 3f 3f 9c 92 bf c5 5b 13 be
       0.83255017 0.5188788 -1.1453933 -0.14390476
000260 1b c2 ec bd 4a 31 3f 3f 49 e4 0a bf 36 83 16 3e
       -0.1156046 0.74684584 -0.54254586 0.1469849
000270 c3 48 17 bf b4 9b 14 3d 7b 67 76 3f d6 94 82 bd
       -0.590954 0.036281303 0.9625165 -0.063760445
000280 27 9a d7 be b9 0e 4d 3e 16 5d e6 be f7 4e 2a bf
       -0.42109796 0.20025147 -0.44992894 -0.6652674
000290 c8 d5 37 bf 1b af c8 be c6 7e 9d bd 4a 51 fc 3d
       -0.7181058 -0.39196095 -0.07690196 0.12320192
0002a0 c8 d4 11 3f ad c8 a9 bc 88 c0 d1 3c 89 04 8e 3e
       0.56965303 -0.020725572 0.025604501 0.27737835
0002b0 65 0e ab 3f 26 01 76 bf 32 5a 89 bf c0 d1 31 3f
       1.3363768 -0.960955 -1.073065 0.6946068
0002c0 e5 51 22 3f 7e 16 24 3e 76 92 b6 3e d8 6e 23 3f
       0.6340621 0.16024205 0.35658616 0.6384101
0002d0 0e 4e 3c 3d 8a 1f 18 bf e3 b4 20 3e c8 06 3c 3f
       0.045972876 -0.59423125 0.15694003 0.7344785
0002e0 15 7d 1e 3f 0d c0 b4 be ae 36 ed bd f1 8d 84 3d
       0.6190961 -0.35302773 -0.11582695 0.06472386
0002f0 6b a1 3f bf 75 bf af 3d 9a 60 a1 3e 6d 71 a0 be
       -0.7485568 0.085814394 0.31519014 -0.31336537
000300 4f 91 4e be ed 35 09 bf 57 28 90 be f5 5d db be
       -0.20172618 -0.5359791 -0.28155777 -0.4284512
000310 32 fe 9a 3f df 91 2c bf ce 46 bb 3e 89 01 e2 3d
       1.2108824 -0.6741008 0.36577457 0.11035449
000320 20 79 10 40 aa 1d a3 3f cb 69 8b be 72 58 15 3f
       2.257393 1.2743428 -0.2722915 0.5833808
000330 67 3e 2a 3f ec b8 26 bf 85 b6 d4 3d 0e fb 2e bf
       0.6650147 -0.6512592 0.10386375 -0.6835183
000340 92 a2 b3 3d 3e bb 76 3f a2 fd ea 3f 6f b3 ff 3e
       0.08771242 0.9637946 1.8358653 0.49941584
000350 12 23 46 bf 30 98 c3 be c4 1e a0 bb 29 4c a3 3e
       -0.77397263 -0.38202047 -0.00488648 0.31894043
000360 d8 d3 24 3f 13 15 0d be 8e ed b8 3d 91 f4 86 bf
       0.6438575 -0.1377757 0.09029685 -1.0543386
000370 50 8a a0 be 20 1f 3a 3f 96 63 86 be ad 0f 2d 3f
       -0.31355524 0.72703743 -0.26247853 0.67602044
000380 d0 e2 8a bf 22 58 1e bd b4 3e 3f bf f9 79 b2 be
       -1.0850468 -0.03865827 -0.7470505 -0.34858683
000390 a3 91 03 bf 22 5f 69 bf da ce 87 bf 7d b8 6b 3f
       -0.513941 -0.91160786 -1.0610001 0.9207838
0003a0 31 d3 b7 3e d5 27 34 be 89 6e db 3e d6 7a b8 3e
       0.35903314 -0.1759332 0.4285777 0.36031216
0003b0 d9 e5 04 3f f0 5b 55 3e c2 a8 2e be c4 df 4f 3f
       0.5191322 0.20835853 -0.17056563 0.81200814
0003c0 eb d6 5b 3f ac e7 ab 3d 8f 9f ff 39 98 22 24 be
       0.85874814 0.08393797 0.0004875627 -0.16028821
0003d0 3f fc f2 3e 3d b6 eb bd 0c 14 85 bf 99 f4 e5 3e
       0.47458073 -0.115093686 -1.0396743 0.44913176
0003e0 37 0b 3e bd 3a 8b 80 3f 42 79 90 bf 0c 6e 42 3e
       -0.046397414 1.0042489 -1.1287005 0.18987292
0003f0 ce ca 57 3e 06 12 51 3f c6 a4 c5 3e 5d 5e df 3d
       0.21073458 0.81668127 0.38602275 0.1090667

backbone_lstm1.weight_hh_l0 f4 [128, 32]
000000 03 87 c0 bd ef 3f 25 3e 7c c2 4c 3e 16 72 93 be
       -0.094007514 0.1613767 0.19996065 -0.28797978
000010 67 3c 1c 3e 58 5a 65 3e 26 a2 ff be fb b5 9a 3e
       0.15257417 0.22397745 -0.49928397 0.30216965
000020 93 c6 ec 3e 07 a0 b9 be 45 4a 66 3e 78 3e a9 3e
       0.4624525 -0.36254904 0.22489269 0.33055472
000030 a8 a3 bc 3a 3a bf 9d 3d 5a 41 7e be 19 ff 55 bd
       0.0014392035 0.07702489 -0.24829617 -0.052245233
000040 88 fa 28 bf 4e 5e f8 bd 5b 2f 5c bf 58 8a 5c bd
       -0.6600728 -0.12127362 -0.8600976 -0.053842872
000050 23 81 a9 3e b8 4a c8 3d a6 55 ac 3f 9e 34 d5 3e
       0.33106336 0.097798765 1.3463638 0.41641706
000060 a8 e5 81 be 98 c1 22 3e 7d c7 52 3e a3 5a e3 bc
       -0.25370526 0.15894163 0.20583911 -0.02775318
000070 a0 0d e5 bd c3 18 45 bf 29 d8 1c be 9c 6f b7 3d
       -0.111842394 -0.7699091 -0.15316834 0.08956835
000080 30 da 85 3e 5e e5 2b bf cf 95 e7 3e ee 6c d4 be
       0.26143026 -0.6714686 0.45231482 -0.41489357
000090 ce ee b5 3e 7d 6c 19 3f b6 0a 75 3f a8 7f 0d 3f
       0.35533756 0.59931165 0.9571947 0.5527291
0000a0 0c c9 09 3f 3c 3f 85 3f 8f 87 22 bf d2 4d d3 3e
       0.538224 1.0409923 -0.63488096 0.4127031
0000b0 8f a1 86 3f 58 d5 77 3f c2 5d d7 be 2b bd 6c bf
       1.0518054 0.9680991 -0.4206372 -0.9247615
0000c0 62 61 f6 be db 99 06 3f 98 d2 0d bd 88 7f e9 be
       -0.48121172 0.52578515 -0.034624666 -0.4560511
0000d0 c9 0c 10 bf 36 62 84 bf c8 4f 25 be a2 74 34 3f
       -0.5626951 -1.0342472 -0.16143715 0.7049047
0000e0 6f 8c b5 bc 59 9e 80 3f ce fc 1d 3f 72 95 4b 3f
       -0.02216169 1.0048324 0.61713874 0.7952491
0000f0 d1 82 42 3f 59 ee 63 3f 80 d3 0e 3e a9 a1 02 3f
       0.7598086 0.89035565 0.13947868 0.51027924
000100 87 72 19 bf 55 45 ec be a5 bb 53 3e 7a 89 a2 be
       -0.5994038 -0.46146646 0.2067705 -0.3174551
000110 a2 3e 84 3c 6d 78 0d 3f 9f 00 60 3f 89 f7 b0 3e
       0.016143147 0.5526188 0.8750095 0.34563854
000120 f9 e8 20 3f 8f 9f 83 3f 6f 05 c7 be b8 f9 01 3f
       0.6285549 1.0283068 -0.38871333 0.50771666
000130 8d f3 d5 3e 0a 13 36 3f 6b 01 8d be a3 bc 58 bf
       0.41787377 0.711228 -0.27540144 -0.84662837
000140 87 b9 dd 3e 11 ab fc 3e 7e 0d 0d bf d2 b3 24 bf
       0.4330561 0.49349263 -0.5509871 -0.64336884
000150 64 5f ff be ca cf 18 bf 87 93 03 bf 31 94 8a 3d
       -0.49877465 -0.5969206 -0.51396984 0.067665465
000160 5b 24 dc 3e 73 3a ce 3e 5e 90 a9 3e 59 5b 17 3f
       0.42996487 0.40278968 0.33117956 0.5912376
000170 bb c2 41 3f 59 2b 8e 3f ab 63 2b bf 03 02 c3 3e
       0.7568776 1.1106979 -0.66948956 0.38087472
000180 61 13 d9 3e da 7a 3e bf fe 1b f8 3e f5 79 5f bf
       0.42397597 -0.74406207 0.48458856 -0.87295467
000190 a2 29 2b b9 e2 60 e0 3e f2 3e 82 bd 5e e2 43 3f
       -0.0001632334 0.43823916 -0.06359662 0.76517284
0001a0 98 92 22 3f 54 5f 19 3f 3b ee 1c be 04 cb 21 3f
       0.63504934 0.59911084 -0.15325253 0.632004
0001b0 3f ea 61 3e 40 92 9e 3e 29 48 e0 bd 32 31 3e bf
       0.22062014 0.30970955 -0.109512635 -0.74293816
0001c0 8d c4 fd 3d 6d 0b 65 3f e2 28 10 3f 7e 4c 1a bf
       0.12391005 0.8947056 0.5631238 -0.6027297
0001d0 a6 b9 d3 be d1 37 2c bf 23 08 62 bf 80 f1 a3 be
       -0.41352576 -0.6727267 -0.88293666 -0.32020187
0001e0 67 f3 3d 3e 51 f2 69 3f 0a d8 1f 3e 0b c5 64 3e
       0.18549882 0.9138537 0.15609756 0.22340791
0001f0 09 c2 d0 3e 27 35 08 3e 84 4c 6b 3e 3d 70 01 3f
       0.40773037 0.13301526 0.22978407 0.5056189
000200 03 64 9b bd e6 9a 32 bf 7a 2d 35 3e 8b 2e c6 be
       -0.07587435 -0.69767606 0.17693129 -0.38707384
000210 95 42 ec bd b2 86 a2 3e 40 51 04 be 42 e1 df 3e
       -0.11536137 0.3174339 -0.1292162 0.43726546
000220 b2 0b ba 3e 76 25 ac 3e 8e 2a 0f be 3e 74 00 3f
       0.36337048 0.3362233 -0.13981077 0.5017737
000230 40 f9 89 39 c9 38 be 3d 43 2d 74 3e 22 e5 41 be
       0.00026316382 0.09288175 0.23845391 -0.18935063
000240 fc e6 4f 3e 6b 9f 6f 3e fb ee 7a 3f a2 a5 a7 be
       0.20302957 0.23400657 0.98020905 -0.32743555
000250 3c b2 e5 3d 3e 7c b7 be c8 9c 00 3f 72 92 6d be
       0.11215636 -0.35836977 0.5023923 -0.23200396
000260 7c 87 06 3f 74 26 0e 3e f6 5e f6 bd 2c ed a9 3e
       0.5255048 0.13881856 -0.12029831 0.3318876
000270 cb 9e 12 3e 58 34 32 3f 56 c2 54 be 68 dc c1 3e
       0.14318387 0.6961112 -0.20777258 0.3786347
000280 a5 0f 32 3f 20 89 9f bc 97 76 40 3f 51 a0 85 bf
       0.6955512 -0.019474566 0.75180954 -1.043955
000290 62 eb 1b 3f 22 be a5 3f 4b 0f b4 3e 3d ef 22 3f
       0.6090604 1.2948649 0.35167918 0.636463
0002a0 92 ba 70 3e c7 d2 09 be 6c 86 77 be 5f 7c 33 3f
       0.23508671 -0.13459311 -0.24172372 0.7011165
0002b0 e4 0c 3f 3f 8e 2d 4b be 89 0b 29 be 97 d3 90 be
       0.74629045 -0.19841596 -0.16508307 -0.2828643
0002c0 4a f6 94 bf af 2c 8c 3e c0 e2 43 3e 76 36 97 be
       -1.1637661 0.2737784 0.19129467 -0.29533738
0002d0 99 e3 4b bf d3 e0 c3 be fc 5d c9 3f b2 e5 0b 3e
       -0.7964416 -0.38257465 1.5731807 0.1366184
0002e0 e6 d2 2a bf 55 17 5a 3f e6 31 a3 3e ed 02 7f bd
       -0.66728055 0.8519185 0.31874007 -0.06225865
0002f0 ae 95 8c 3e 3e 6a 13 be 66 f5 24 bd 6b 4e 47 3c
       0.27457947 -0.14395997 -0.040273093 0.012164692
000300 fa b3 10 3f bf c4 86 3d a9 b3 05 3e b8 c0 fb 3d
       0.5652462 0.06580495 0.13056816 0.122926176
000310 8b 64 c8 bd fd 5f 82 be 38 1a ec 3e 8f da b8 bd
       -0.09784802 -0.25463858 0.46113753 -0.09026062
000320 20 41 26 bf ce 83 7f be 42 be a7 be 53 fb b6 be
       -0.6494312 -0.24952623 -0.32762343 -0.3573862
000330 33 8f 77 3e 2e d2 8b 3d b3 96 82 3e 97 7e b7 3b
       0.2417572 0.06827198 0.255056 0.0055998075
000340 4a fc 14 be 36 be 78 be c6 71 6b bf a2 4a 96 3e
       -0.14549366 -0.2429131 -0.9197048 0.29353815
000350 9b 89 fb bd 15 9d ac 3d 37 9c f2 3e 6f 1e 8f 3e
       -0.122821055 0.084283985 0.47384807 0.27952906
000360 b3 7d b0 bf 2a bf 8b be ea ca 18 be f4 5c 99 be
       -1.378836 -0.27294284 -0.14921156 -0.2995373
000370 1e ac 2a be d4 d1 04 3e 30 6c 23 bf 15 c0 b2 bd
       -0.1666722 0.12970668 -0.63836956 -0.08728043
000380 ac a2 98 3e 39 72 5a bf 17 f2 2d 3f f8 d7 ca be
       0.2981161 -0.8533054 0.67947525 -0.39617896
000390 66 c6 c1 3e 66 09 41 3f 48 8b 3e 3f e9 ea 5d 3f
       0.37846678 0.75404966 0.74431276 0.8668657
0003a0 66 a8 9c 3e 84 01 82 3e 21 78 35 bf 36 5b fa 3e
       0.30597228 0.2539178 -0.7088643 0.48897713
0003b0 51 01 2e 3e 80 83 04 3f 22 ef a9 be 95 e6 2f bf
       0.1699269 0.51763153 -0.33190256 -0.68711215
0003c0 2e 4a 71 bf 1a c1 c7 3e 39 8e 90 be c7 2e 08 bf
       -0.94253814 0.39014512 -0.28233507 -0.53196377
0003d0 64 22 d8 bd 24 94 4b bf 15 14 f9 3d 93 c2 14 3f
       -0.105534345 -0.7952292 0.121620335 0.58109397
0003e0 d4 23 fa bd 40 72 0e 3f 98 9f 06 3f 06 eb d0 3e
       -0.12213865 0.5564308 0.5258727 0.4080431
0003f0 1a d2 3e 3f 4f 05 c0 3e 9a 67 16 be fb 02 21 3f
       0.7453934 0.3750405 -0.14687958 0.6289517

backbone_lstm1.bias_ih_l0 f4 [128]
000000 59 8e 2d 3f 71 28 53 3f b0 51 ec 3e 18 b8 c6 bc
       0.6779533 0.82483584 0.46156073 -0.024257705
000010 95 91 48 3e d7 6d 9b 3e bd fd f4 3c a8 66 8e 3f
       0.19586785 0.3035724 0.029906148 1.1125078
000020 bf 7d 95 bd 02 e7 b1 3d a4 74 cc 3e da 44 94 3d
       -0.07299375 0.08686639 0.3993274 0.07239695
000030 4e 1e a1 3d af 48 8e 3f 67 5a 5c 3f 75 30 75 3f
       0.07867108 1.1115931 0.86075443 0.95777065
000040 ec 6f 89 3d c6 9d 2f 3e 93 24 fe 3c 6e a8 de 3e
       0.067108005 0.1715003 0.0310233 0.43487877
000050 12 a6 d8 3e f3 1c 52 3f 62 d8 be bd 1a 52 66 3d
       0.42314202 0.82075423 -0.093186155 0.056230642
000060 7a 4a a8 be 02 70 02 3f ab 82 82 3f 45 19 96 3f
       -0.3286932 0.5095216 1.0196127 1.1726462
000070 06 56 ca 3e c9 fb 71 3e f0 dd a1 bd 95 5b 05 3f
       0.39518756 0.23631205 -0.07903659 0.5209287
000080 f6 43 86 3e a1 85 d0 3e ef 18 35 3e b2 38 df 3d
       0.26223725 0.4072695 0.17685293 0.10899486
000090 3c 95 78 3e 8a dc fe 3d 25 1c 32 3e 3c cc 03 3f
       0.24275678 0.12444408 0.17393549 0.5148351
0000a0 b3 e5 a1 3d 49 2b ea bd 79 d5 57 3d 27 80 46 3d
       0.0790514 -0.11434037 0.052693818 0.04846206
0000b0 b6 20 5b be 26 af e8 3e a4 e8 06 3f f1 3b a2 3e
       -0.21399197 0.45446128 0.5269873 0.31686357
0000c0 b5 44 9a be 7c 37 a4 bb 63 c1 cb 3d b1 15 dd 3d
       -0.30130544 -0.005011497 0.09948995 0.10795153
0000d0 c1 84 d0 bd 7a 4e e5 3d 7e 83 64 3e 17 23 66 bd
       -0.10181571 0.11196609 0.22315785 -0.056185808
0000e0 54 4d a4 3e d0 4e b4 3c 9c b8 ab 3e 06 b5 b8 3e
       0.32090247 0.022010237 0.33539283 0.3607561
0000f0 bf d9 ab 3e 1b 0d 85 3e fe ad 66 3c b8 2f 0f 3f
       0.33564565 0.2598656 0.014079569 0.5593219
000100 69 69 06 3f fa 6d ab be bf 6c 58 3e b6 af c8 be
       0.52504593 -0.33482343 0.21135233 -0.39196557
000110 ad 5d ab 3e d8 09 e4 3e b7 9f 39 3f 76 6f 23 3f
       0.33469906 0.4453876 0.7250933 0.6384195
000120 0f ca 82 3e f9 7d aa 3e 3f 0d 0c bf 34 d3 5e 3e
       0.25544783 0.33299235 -0.5470771 0.21760255
000130 06 e9 5f 3c c6 30 48 3f 44 6d e2 be 1d 37 5b bf
       0.013666397 0.7819942 -0.44223988 -0.8563097
000140 9c 1f 44 be c5 90 4f 3e ce 02 52 bf 46 ac 12 bf
       -0.19152683 0.20270069 -0.8203553 -0.5729412
000150 6e 5f d8 be 4c 8e a7 be 7f 93 29 3d 6c 64 1f 3e
       -0.42260307 -0.3272575 0.04140043 0.15565652
000160 65 71 9b bc 2d 99 84 3e d3 7f 7c 3f e9 39 38 3f
       -0.01897497 0.25898114 0.98632544 0.71963364
000170 1d 09 60 3f b4 11 5e 3e 2a a4 57 be b8 61 f0 3e
       0.87513906 0.2168644 -0.21058717 0.46949553
000180 32 ae 52 3e 40 bf 86 3e f4 03 62 3c 7b 4e 0b 3b
       0.20574263 0.26317787 0.013794888 0.0021256495
000190 4d ff 18 3e b9 10 c1 bd bf 4f 39 be 2c 45 93 3e
       0.1494114 -0.09427018 -0.18096827 0.2876371
0001a0 1e 18 53 bd bb 33 5e 3e da 01 40 be 06 3b 99 bd
       -0.05153667 0.21699421 -0.18750706 -0.07481961
0001b0 26 c9 5e 3e f0 7d ec bd fa f5 54 3f 5e 31 21 3c
       0.2175642 -0.11547458 0.8318783 0.00983843
0001c0 79 a6 92 3d 8c 75 69 3e e9 a5 11 bd 29 d3 37 be
       0.071606584 0.22798747 -0.035558615 -0.17951645
0001d0 31 c0 a8 bb 47 95 85 3d 75 f8 17 be c5 8b bd bd
       -0.005149864 0.06522613 -0.14840873 -0.092551745
0001e0 84 58 7a 3d ff 09 a5 3e 31 aa 54 3e b3 c5 3d be
       0.06111957 0.3223419 0.20768048 -0.18532448
0001f0 a0 cd 6e 37 92 ae 8e 3d aa b5 9c 3e f2 7e 65 3d
       1.4233781e-05 0.069668904 0.3060735 0.056029268

backbone_lstm1.bias_hh_l0 f4 [128]
000000 0e c1 38 3f ba 10 6a 3f cf 17 3d 3f b8 1a fc 3d
       0.7216958 0.9143177 0.73864454 0.12309784
000010 65 ac 0d 3e 18 de 04 3f b3 27 17 3e d1 da a7 3f
       0.13835295 0.5190139 0.14761238 1.3113652
000020 f7 74 49 be 94 f5 81 3c 14 9d bc 3e 13 ce ee bc
       -0.19673525 0.015864171 0.3683859 -0.029150998
000030 4d b8 96 bd 9c 03 96 3f 98 33 7e 3f c3 49 8b 3f
       -0.07359371 1.1719851 0.99297476 1.0881885
000040 bf 96 3a bd 9f 18 8b 3e 16 b4 0a be 01 de dc 3e
       -0.04555392 0.27167222 -0.1354526 0.43138126
000050 63 ad de 3e 03 ce 51 3f d0 c8 f9 bd 5f e7 15 3e
       0.4349166 0.81954974 -0.12196505 0.14639042
000060 6d bf 5f be 7c c9 51 3f be 4c 8a 3f 6d 5f 79 3f
       -0.21850367 0.81948066 1.080467 0.97411233
000070 ef 55 fe 3e 49 36 57 3e be 81 7b bd 47 70 4f 3f
       0.49674937 0.21016802 -0.06140303 0.81030697
000080 c2 69 9e 3e ba 8e 10 3f 3e 40 6e 3d 20 49 c9 3d
       0.30940062 0.56467783 0.058166735 0.098284006
000090 7f 2b 84 3e b1 83 9e 3e f5 c8 ef 3d b5 f9 f1 3e
       0.25814435 0.30959848 0.117082514 0.47260824
0000a0 8c d8 4e 3e 1f 70 b3 bd 39 6b 94 3d 7f 63 95 3e
       0.20199794 -0.0876162 0.072470136 0.29177472
0000b0 89 a1 bb bd bd 5a 2e 3f 5b d8 f3 3e 0e 0e 96 3e
       -0.0916167 0.68107206 0.47626004 0.29307598
0000c0 2d 14 a2 be 40 6f b8 3d 80 fb 08 3e 55 01 6e 3d
       -0.31656018 0.09005594 0.1337719 0.05810674
0000d0 db 08 3f 3e c1 d3 83 3e d5 f5 e5 bc 51 ca 29 be
       0.18655722 0.25747493 -0.028071323 -0.16581084
0000e0 df e6 84 3c cd 86 6f 3d a5 04 19 3f 8d 4c ce 3e
       0.01622337 0.058478165 0.5977271 0.4029278
0000f0 ee fd e1 3e 1c 39 0b 3e 6a 40 19 3e b6 d3 f0 3e
       0.44139045 0.13596004 0.14965978 0.47036523
000100 24 05 b3 3e 63 3a b3 be d1 88 c7 3e 60 ec 2b be
       0.3496486 -0.35005483 0.3897157 -0.16789389
000110 6b fe a8 3e 58 08 9a 3e d7 5e 13 3f b9 47 03 3f
       0.33006606 0.3008449 0.5756659 0.51281315
000120 22 d2 b8 3e c2 36 dc 3e 9c bd 41 bf c3 ae c6 3d
       0.3609782 0.43010527 -0.75679946 0.09701302
000130 6b 65 eb 3d ca 48 11 3f 81 be 1a be b3 e7 2f bf
       0.11493953 0.5675169 -0.15111734 -0.6871292
000140 93 d7 23 be e5 a0 66 3e 83 4c 32 bf da fa 42 bf
       -0.16000204 0.22522314 -0.69648 -0.7616402
000150 f0 50 2e be d4 a2 c1 be c3 af 31 be 3e 61 5f 3e
       -0.17023063 -0.3781954 -0.17352204 0.21814439
000160 25 2a 19 3d 72 88 26 3e da 66 2e 3f fb 86 71 3f
       0.037393708 0.16262987 0.6812569 0.9434659
000170 fb 58 7d 3f ed e0 af 3e 34 56 95 be 7f 81 1e 3f
       0.989639 0.34351292 -0.2916733 0.61916345
000180 74 96 15 3e f5 7b b0 3e 57 7c a3 3e 24 5e 4a 3e
       0.14608175 0.34469572 0.319308 0.19762474
000190 59 e2 e9 3c bc da 46 be aa 8e bb be 57 50 8e 3e
       0.028550314 -0.19419378 -0.36632282 0.2779567
0001a0 e0 ff f4 3d 19 c4 20 3d d8 ec dc 3d 50 e4 f4 bb
       0.11962867 0.039249513 0.10787362 -0.007473506
0001b0 8f e2 af 3e f9 01 9e be 30 58 36 3f ba ea 10 3e
       0.34352538 -0.3086088 0.71228313 0.14152041
0001c0 a8 58 5b 3e 49 4e 3a 3e 31 9b 43 bd f3 e5 82 3d
       0.21420538 0.18193926 -0.047755424 0.063915156
0001d0 b0 6a 02 3e b3 99 e8 bc 2d 36 c2 bc 29 1b 9a bd
       0.1273601 -0.028393602 -0.023707474 -0.07524712
0001e0 81 d0 a0 3e ad e5 b8 3e ed a2 a9 3e e0 c2 66 3d
       0.31409076 0.3611273 0.33132115 0.05633819
0001f0 8a a9 1c 3e d5 c2 d4 3d 07 13 97 3e 59 61 79 3d
       0.15299049 0.10388724 0.29506704 0.060883854

backbone_lstm2.weight_ih_l0 f4 [64, 32]
000000 b5 3c 12 be 3d 5a 8a 3d 7e fa b7 be 7d 55 fb bc
       -0.1428097 0.06755493 -0.35933298 -0.030680412
000010 16 9c a5 be 02 9b 47 be 36 c6 e2 3c ec ab 3e be
       -0.32345647 -0.19492725 0.027682405 -0.1862027
000020 b5 43 f2 3c 27 3e b3 bd b4 19 eb 3d 57 6b 04 bb
       0.0295733 -0.08752089 0.11479512 -0.002020558
000030 a8 a5 e4 be 61 bc 0d bf 65 09 fa 3e 8a b4 06 3e
       -0.44657636 -0.5536557 0.48835292 0.13154808
000040 a8 69 37 be da 7c af be ca 69 14 be 2f 1e 0a 3e
       -0.17911398 -0.34274942 -0.1449348 0.13488077
000050 33 c8 35 3f 71 7e 82 bb 78 bf 1e 3e 99 9b e6 be
       0.71008605 -0.003982358 0.15502727 -0.45040587
000060 9e b2 a1 3e 93 e8 98 be a1 85 37 bf b8 6c 9b 3d
       0.31581587 -0.2986494 -0.71688277 0.07589096
000070 ab b7 01 3f bb 23 12 bf 19 4b 51 bf 3f 59 6c be
       0.5067088 -0.5708577 -0.81755215 -0.2308092
000080 1f 95 e4 bd 8c 86 69 3d 04 a4 c8 bd 3d ac 5c 3d
       -0.11161255 0.05701308 -0.097969085 0.053875197
000090 fa ff fa bd f2 a6 ae 3e a2 a6 84 be 6a 43 d1 bc
       -0.12255855 0.34111744 -0.2590838 -0.02554484
0000a0 4f d4 a6 3e 31 d1 24 3c df 4e 82 3f fd 57 49 3d
       0.32583854 0.010059641 1.018032 0.049156178
0000b0 04 1d 95 bf 51 04 2f bd fa 15 bb 3e c0 8b f8 3c
       -1.164948 -0.042728726 0.36540204 0.030340075
0000c0 05 b2 b7 3f f3 36 1d be 7b 66 59 be a3 8a e5 3d
       1.4351202 -0.15352993 -0.212305 0.112080835
0000d0 b1 9f 1d 3f c8 28 b5 bd fb 56 91 3e a6 31 14 bf
       0.61571795 -0.08845669 0.28386673 -0.5788826
0000e0 a9 2d 8a 3e 4a 54 89 be 67 9a 51 be 66 80 c6 3d
       0.2698796 -0.2682212 -0.20469056 0.09692459
0000f0 5d 8f 4c be 5c 87 c0 be a3 08 31 be 2e 01 54 3d
       -0.19976564 -0.3760327 -0.17288451 0.051758938
000100 43 b9 39 bc 6c 03 42 3e c0 5c b5 be 64 68 b7 bc
       -0.011335674 0.18946618 -0.35422325 -0.022388645
000110 1b c4 f5 3d 05 7c 88 bd 26 a9 37 bf ef c8 ec bd
       0.12000295 -0.0666428 -0.71742475 -0.115617625
000120 aa 86 ca 3e 0f 00 9d be ea f7 27 3f 69 81 95 3d
       0.39555866 -0.30664107 0.6561266 0.07300074
000130 5b a9 54 bf 69 fd 03 bf 76 ca 5d 3e da 1d 3c 3d
       -0.83070916 -0.5155855 0.21659264 0.045926906
000140 c9 0d be 3f 57 b5 65 bd be dd 2f bf ec 25 58 bd
       1.4847957 -0.056081142 -0.68697727 -0.05277054
000150 fc 28 61 3f ac 9d 83 3e 20 1c 5e 3e 4d 72 f9 be
       0.8795316 0.25706232 0.21690416 -0.48720017
000160 d6 b7 ba 3e 9f e4 cd 3d ff 7a 95 be ad 29 f5 bd
       0.3646838 0.10053372 -0.291954 -0.1197084
000170 55 1f 11 3e 7e a0 6b bf 8a 46 c8 3c 48 63 15 bd
       0.14172108 -0.92041767 0.024447698 -0.036471635
000180 f1 90 d6 3e 9e eb bd be 2d f5 1e 3e ae 86 d3 be
       0.41907457 -0.37093824 0.15523215 -0.4131369
000190 ed 24 33 bd 7e 35 ca 3d 6c 57 34 bf dd b2 55 3e
       -0.043736387 0.09873484 -0.70445895 0.20869012
0001a0 a0 e1 3d 3f 24 4b b9 3c 84 fc 0b 3f d5 50 c6 3e
       0.741724 0.022618838 0.54682183 0.38733545
0001b0 e0 8d c4 be ec db 0b be 86 6c b2 3e 19 29 ac bd
       -0.38389492 -0.13658112 0.34848422 -0.08406276
0001c0 f7 86 c0 3e 2f c3 75 be bb de ea be 10 bc af bd
       0.3760297 -0.24000238 -0.45873055 -0.08580792
0001d0 a7 cd 9a 3e 66 70 7e be a9 61 91 3e bf 4d 2d bf
       0.30235025 -0.24847564 0.2839482 -0.67696756
0001e0 69 74 c7 3e d1 1c cf bd 63 b6 99 be 51 d0 af 3e
       0.38956 -0.10112918 -0.30021963 0.3433862
0001f0 2b 52 2a be 26 7a 12 bf 16 73 f4 3d 03 70 85 3e
       -0.16632907 -0.57217634 0.119360134 0.2606202
000200 c1 33 c5 3d 9e 49 c0 3e f9 8a 80 be db 3c 33 3e
       0.09629012 0.37556165 -0.25106028 0.17503683
000210 a9 ab 58 3e 5f 2f 2a 3e 6b 2a 9a be 5f ef 00 3d
       0.21159233 0.16619633 -0.30110487 0.031478282
000220 ae 2a 54 3e 21 c9 58 be 6d 2e 3a 3e b4 eb 49 be
       0.20719406 -0.21170475 0.18181773 -0.1971882
000230 fb 5d c9 be 5b 50 15 bf 8f 5c 9f 3e 56 54 d1 3e
       -0.39329514 -0.5832574 0.31125304 0.40884656
000240 f5 17 ba bd 42 1c 8b be be 86 e1 be be c2 7b 3d
       -0.09086601 -0.27169997 -0.44048113 0.061465017
000250 3d b0 b0 3c de b7 68 be 2a 4b e5 3d be 0f b7 be
       0.021568412 -0.2272639 0.11195977 -0.35754198
000260 9b 27 c0 3e e8 ae 5a be ab 23 08 3c 26 84 27 3e
       0.37530217 -0.21355784 0.008309285 0.16359004
000270 df 45 03 be 3d a0 83 bf 22 6e 24 be 62 23 c2 3e
       -0.12819622 -1.0283276 -0.16057637 0.3791762
000280 ae 9b f8 3d ec 65 10 3d 31 7c 39 be 9a e0 84 be
       0.121390685 0.03525345 -0.18113782 -0.25952607
000290 f0 dc 47 3e 27 f0 87 3e 50 0a 54 bf 0d 42 a5 be
       0.19517875 0.2655041 -0.82828236 -0.32276955
0002a0 01 a7 54 3e f6 90 d5 3d a6 8e 84 3f c3 ea 7e 3e
       0.20766832 0.1042804 1.0356033 0.24894242
0002b0 f6 84 5f bf c9 60 b0 be ce a2 c6 3e b7 7d 20 3e
       -0.8731226 -0.3444884 0.38796085 0.15672956
0002c0 4b 95 56 3f 87 ea 44 be 4f 94 47 bf 88 c0 a0 3e
       0.83821553 -0.1923009 -0.77960676 0.3139689
0002d0 24 16 80 3f 8d 27 87 3e 43 37 0a 3d 3d b7 33 bf
       1.0006757 0.26397362 0.033744108 -0.70201474
0002e0 33 4a c1 3e 52 2e 52 3d be 74 78 be f8 0a c1 bd
       0.37751922 0.051313706 -0.24263284 -0.0942592
0002f0 56 94 73 3c cb d9 85 bf 89 b8 c3 3b 4c 73 51 be
       0.014866909 -1.045709 0.005972926 -0.20454139
000300 00 52 f1 bd da 99 e0 3d 26 65 2e 3d 1f 0e 30 be
       -0.117832184 0.10966845 0.04257693 -0.17192887
000310 10 9f ec 3d dd 27 59 3e 4d 74 09 bf 23 36 41 be
       0.11553776 0.21206613 -0.53693086 -0.18868308
000320 5c 0b aa bb b2 04 b6 bd da 13 27 3f 55 fb 79 3d
       -0.0051893424 -0.08887614 0.65264666 0.061030705
000330 1e b9 73 bf 66 48 45 bf 52 06 a6 3e ae 5c b4 bd
       -0.9520434 -0.77063596 0.32426697 -0.0880674
000340 b7 db 49 3f e4 a8 e8 be 1e bd d3 be 21 ed 31 3e
       0.78850883 -0.45441353 -0.41355222 0.17375614
000350 82 0b 83 3f 3f 2e 29 3e f3 aa 19 bd 56 6f 01 bf
       1.0237887 0.16521548 -0.037516546 -0.5056051
000360 67 7d 97 3e db ed 3b bd 5b 86 97 be 9a 6c 1b 3d
       0.29587862 -0.045881134 -0.29594693 0.037945367
000370 ae 4d 8e bc 50 c3 9d bf 24 b4 5b bd 47 ca 84 be
       -0.017371025 -1.232523 -0.053638592 -0.25935575
000380 95 fb 52 be 09 cb 95 3e 3f 5d 38 3d 96 af 8f 3e
       -0.20603783 0.29256466 0.0450108 0.2806365
000390 53 33 40 3e 1a b9 31 3f ff 1c c2 be 4f c5 9e 3d
       0.18769579 0.6942307 -0.37912747 0.077524774
0003a0 0e 43 d9 3d f6 0d 08 bd e3 1b 02 bc b8 f3 99 3e
       0.10608493 -0.03321644 -0.007941219 0.30068755
0003b0 9f 7a 16 bf 51 08 fa be e8 20 c3 3e 23 1e f5 3d
       -0.58780855 -0.4883447 0.38111043 0.11968639
0003c0 c7 3d fd 3e aa 5c 06 bf a6 f0 0b bf dc af b3 3e
       0.49461195 -0.52485144 -0.54664075 0.35095108
0003d0 26 6b 4b 3f b7 72 35 bd 5e 94 19 bf 8e 08 a1 be
       0.7946037 -0.044298854 -0.59992015 -0.3145184
0003e0 96 7c ba 3c b9 6d ec be 3a 7c 8a be 3a 3c 04 be
       0.022764485 -0.46177462 -0.27047902 -0.129136
0003f0 47 7b 4c be b6 19 14 bf 07 13 b1 be b2 79 0a 3e
       -0.19968902 -0.5785173 -0.3458483 0.13522986

backbone_lstm2.weight_hh_l0 f4 [64, 16]
000000 35 56 5b bf d8 18 11 bf b5 22 b8 be 34 10 4d be
       -0.85678416 -0.56678534 -0.3596398 -0.20025712
000010 fc d2 a3 3d 75 44 27 be 35 77 f9 bd 67 f7 f2 3e
       0.079992265 -0.16334708 -0.1218094 0.47454378
000020 03 74 f7 be c7 5c a5 3e e6 3b 03 3e 20 fe fd 3c
       -0.48330697 0.32297346 0.12815818 0.031004965
000030 23 2c 76 3f ec 29 98 3e 31 3e 88 3e e2 f3 01 bf
       0.961611 0.29719484 0.26609948 -0.5076276
000040 fa bb 26 bf 1c db fc bc eb e0 41 be 61 a3 62 3e
       -0.6513058 -0.030866198 -0.18933456 0.22132637
000050 13 1c 8c be c3 41 af 3e e4 51 ef be 82 6a 8b 3e
       -0.2736517 0.3422986 -0.46742165 0.27229697
000060 41 c2 11 bf 17 a7 a6 3e e2 da 9e be d6 15 a6 3e
       -0.5693703 0.32549354 -0.3102637 0.32438534
000070 40 69 da bd 06 d0 a5 3e 95 eb 6b 3e c0 11 ed be
       -0.10664606 0.32385272 0.23039086 -0.46302605
000080 6c 7e 1c bf a6 bf 59 3e 05 fe e0 be 5b 56 1a 3e
       -0.61130404 0.21264514 -0.43943802 0.15072004
000090 49 6d d7 be 8e c6 6e 3e 40 77 12 be 04 13 25 3e
       -0.42075565 0.2331793 -0.14303303 0.16120535
0000a0 e3 06 bb be 3a 42 4a bd 85 4d 42 bf ae 12 35 3f
       -0.36528692 -0.049379565 -0.75899535 0.7073163
0000b0 74 e0 5a 3d e4 b8 ca 3e 0b af 36 3e bf d7 54 be
       0.05343671 0.39594185 0.17840211 -0.20785426
0000c0 34 7d e7 be b8 a2 3d 3e 7f 40 09 be 53 ac ab 3e
       -0.4521271 0.18519104 -0.1340351 0.3352991
0000d0 87 cb ba be 46 d3 a6 3e 94 a4 e8 be 4c 59 50 3e
       -0.36483404 0.32583064 -0.45438063 0.20346564
0000e0 6c d2 c1 be 7e 67 07 3e 5e de e2 be c7 3f 1b 3f
       -0.37855852 0.13223073 -0.44310278 0.6064419
0000f0 6a df f2 bd eb 7a 0f 3f 46 8c 7f 3e f7 74 2e bf
       -0.11859019 0.5604693 0.24955854 -0.68147224
000100 80 bb d9 be 67 51 78 3d 45 8f a0 3e ce a0 a6 3d
       -0.42525864 0.060624506 0.31359306 0.0813614
000110 a0 b4 10 bf 51 07 22 3e ad 92 6a be d3 c4 f1 3e
       -0.5652561 0.15823103 -0.22907515 0.47220477
000120 5e a1 c1 be 96 f3 74 3d 1c e6 05 bf 8f 69 e6 3d
       -0.37818426 0.059802614 -0.52304244 0.112506025
000130 94 62 34 3d 0a 1a 05 3e f7 84 fb 3e 33 e7 35 be
       0.044039324 0.12998214 0.49124882 -0.17763977
000140 e1 d6 01 bf 5d 56 1f 3e 5f 66 5f 3c 69 bf 88 3e
       -0.50718504 0.15560289 0.013635247 0.26708534
000150 1d 01 b8 bd 53 6b c6 3e 58 60 3e be fc 9e 37 3f
       -0.08984587 0.38753757 -0.1859144 0.71726966
000160 27 d9 09 bf ba 83 61 bc 61 1d 34 bf b6 bf 59 3e
       -0.53846973 -0.013764316 -0.7035733 0.21264538
000170 3d 3c 6e be e7 e8 d7 3c 18 8e 61 3f b5 a3 b3 be
       -0.23265167 0.026356174 0.8810744 -0.35085836
000180 0f 80 2c be 5b 78 92 be 09 7f 3d 3e 65 10 ce 3e
       -0.16845725 -0.2860745 0.18505491 0.40246883
000190 e4 e5 37 be 7b 14 19 3b eb 73 bb be c7 1a 79 3e
       -0.1795879 0.0023358155 -0.36611876 0.24326621
0001a0 79 45 03 bf 91 7b ca bc d7 e4 16 bf 95 c1 8f 3e
       -0.5127788 -0.024717124 -0.5894293 0.2807738
0001b0 6c 58 5c bd db 98 60 3e 20 32 bb 3e f1 93 9c be
       -0.053795263 0.2193331 0.3656168 -0.3058162
0001c0 55 8d 02 be cb b0 9a bc d4 ae 82 3d 47 ca 1e 3e
       -0.12749226 -0.01888313 0.06381002 0.1550685
0001d0 12 5a b0 be 73 41 b9 3c 82 dc b7 bd 4f 74 bd 3d
       -0.34443718 0.022614216 -0.089776054 0.092507
0001e0 54 19 1d be 57 b5 5d 3e 6d 47 06 be da 3a 9b 3e
       -0.15341693 0.21651207 -0.13113184 0.30318338
0001f0 0b 3f 35 bd 54 5b 01 3e fd ab 84 3e 35 03 22 bf
       -0.044249576 0.12632495 0.25912467 -0.63286144
000200 97 8c 95 be b2 4c 32 be c1 70 74 bc 11 2f 84 be
       -0.29208824 -0.1741207 -0.014919461 -0.2581716
000210 98 7f 96 3d 35 d2 9c be 12 8d 7e bd 9e 2f cd 3e
       0.07348555 -0.30629125 -0.062146254 0.40075392
000220 30 78 e3 be 0e 2b 30 3e c1 98 e9 3d 64 77 e7 3e
       -0.44427633 0.17203924 0.114060886 0.45208275
000230 d4 db 0c 3f 93 5c ab 3e 47 27 63 3d c2 a2 82 be
       0.5502293 0.33469066 0.05545738 -0.255148
000240 54 9c a7 be 6d 01 d9 be bc 09 d0 be f9 c7 70 bd
       -0.32736456 -0.423839 -0.40632427 -0.05878446
000250 8c a9 73 be b8 a1 ae 3e ee 43 15 bf 9a da d3 3e
       -0.23795146 0.34107757 -0.5830678 0.41377717
000260 ed 7b 10 bf ef b8 1d be ed 7a b0 be 90 eb bf 3e
       -0.56439096 -0.15402578 -0.34468785 0.37484407
000270 e9 e0 ac bd 0d 3e 0b 3f db a1 b5 3d 55 a3 13 bf
       -0.08441336 0.54391557 0.08868762 -0.576711
000280 f2 49 c8 be c7 10 09 be b4 49 98 3c f4 42 a1 3e
       -0.39118916 -0.13385306 0.018589832 0.31496394
000290 85 08 57 3d 95 61 29 3e 8a 34 00 be 41 01 a7 bd
       0.05249836 0.16541131 -0.12520042 -0.08154536
0002a0 f5 73 4c be 52 91 96 3e 85 f2 e7 be 43 c9 40 3e
       -0.19966109 0.29407746 -0.45302215 0.18826775
0002b0 f6 14 09 3f 54 ee 8e 3e 2c 00 46 3c 14 04 c8 bd
       0.5354761 0.27916205 0.012085002 -0.09766403
0002c0 6d 53 b8 be 6e 84 b3 3b 86 43 09 3f f0 3b af 3d
       -0.3600115 0.0054784333 0.5361866 0.08556354
0002d0 27 29 39 be 6a 0e 00 3e e3 6e 26 be e6 36 29 3e
       -0.18082105 0.12505499 -0.16253237 0.16524848
0002e0 f5 e3 08 3e 46 03 c6 3e 16 f3 f9 bd 90 0c 33 3f
       0.13368209 0.38674372 -0.12204568 0.69941044
0002f0 d6 59 fd 3e 34 b5 9a 3d 16 ef 93 3e 96 68 89 bd
       0.49482602 0.07554093 0.28893346 -0.06709401
000300 3c a7 b8 be fc 00 53 be 06 00 1d bc 8b e1 61 3e
       -0.3606509 -0.20605844 -0.009582525 0.22058694
000310 b0 3f 0f bf b0 12 f6 3e d1 ce a2 be 04 80 ea 3d
       -0.55956554 0.48061132 -0.31798413 0.11450198
000320 a8 76 89 be 9e f6 a7 be 33 03 d4 be 4f 65 9b 3e
       -0.2684834 -0.3280534 -0.4140869 0.3035073
000330 a1 23 dd bd 37 cd b2 3e 04 73 87 3e 49 c2 06 bf
       -0.10797811 0.34922192 0.26454937 -0.52640206
000340 5b a6 37 bf ea 58 f8 be 2d 00 28 3d e0 50 cc bb
       -0.71738213 -0.48505336 0.041015793 -0.006235227
000350 a3 03 e2 be 63 3a 70 3d dc 43 14 be be c1 cf 3e
       -0.441434 0.058649432 -0.14479011 0.405775
000360 54 47 04 bf 68 12 b6 3e 1b 19 01 be 74 03 6d 3e
       -0.5167134 0.35560918 -0.12607233 0.23145849
000370 a3 61 6f bd b2 b5 83 3f 8c c0 f2 3e 01 13 fb 3d
       -0.058442723 1.0289824 0.47412527 0.12259484
000380 a0 0e 0e 39 de 26 50 3d 2e 7b 4f 3e a7 14 64 3e
       0.00013547624 0.050818317 0.20261833 0.22273503
000390 97 a3 7f 3e b4 23 ab be 24 88 0e 3e 16 76 69 3e
       0.24964748 -0.33425677 0.13919121 0.22798952
0003a0 f8 c2 2c bc d8 45 21 be 98 88 63 3d c0 1c 50 be
       -0.010544531 -0.157493 0.055550188 -0.20323467
0003b0 5d cc 86 3e 31 cb 63 3e 81 54 7b 3f b7 9a 07 bd
       0.26327792 0.2224548 0.9817582 -0.033106532
0003c0 3d 40 d7 be f0 b0 90 be 63 19 a6 be 99 1b 9d 3e
       -0.42041197 -0.28259993 -0.32441244 0.30685118
0003d0 b9 34 00 bf 4b 08 8e 3e aa 8e 5d be 0d b3 93 3e
       -0.5008045 0.27740702 -0.21636453 0.28847542
0003e0 2b 7e a4 be 71 f8 89 3e 2d 4a 2a be 2b 67 0e 3f
       -0.3212751 0.26947358 -0.16629858 0.5562617
0003f0 af 73 03 3f 43 da 3c 3f e2 39 23 3f c5 9b ca be
       0.51348394 0.7377054 0.637602 -0.39571968

backbone_lstm2.bias_ih_l0 f4 [64]
000000 7d d7 e1 be cf 08 c4 be 24 cc 99 be 9e f4 e1 be
       -0.44109717 -0.3828797 -0.3003856 -0.4413194
000010 76 f4 a7 be 09 07 40 bf 64 19 03 bf f8 b4 42 be
       -0.32803696 -0.75010735 -0.5121062 -0.19014347
000020 af d8 db be f9 8b 0c bf cb e1 fe be 0e f0 fe 3d
       -0.42938754 -0.5490108 -0.4978164 0.124481305
000030 05 1d e3 be f0 2a 5a bf 26 0f de 3d 19 e5 58 bf
       -0.44358078 -0.8522177 0.10842733 -0.84724575
000040 ca 0a f2 3e 04 54 85 3e 1c 90 05 3f c0 3d f2 3e
       0.47273856 0.2604066 0.5217302 0.47312737
000050 70 00 21 3e f5 db db 3e 2d e9 bb 3e b5 94 f9 3e
       0.15722823 0.4294125 0.36701337 0.48746267
000060 db db 00 3f 25 62 8b 3e 8d 29 5b 3e 59 c8 5f be
       0.5033547 0.27223316 0.21402569 -0.2185377
000070 7a aa 55 3e 4d db 14 3f cd c8 28 3f 62 ad 25 3f
       0.20865813 0.58147126 0.659314 0.64717686
000080 a7 f1 46 bd ec e9 cb bd 59 59 bf 3d 4f 5c 9f bc
       -0.0485703 -0.099567264 0.093432136 -0.019453196
000090 95 5c db 3d b2 5c 60 3d 69 6a 1f be 76 23 63 3d
       0.10711018 0.0547759 -0.15567936 0.05545374
0000a0 d9 28 db 3d f2 b3 d3 bd b1 82 8c 3c 9d 58 a4 3e
       0.107011504 -0.10337056 0.017152162 0.32098857
0000b0 ea 89 97 3d 97 28 91 3e 05 44 92 3d dc 28 bb be
       0.07399352 0.2835128 0.0714188 -0.3655461
0000c0 ba d1 51 3e e6 1b 43 3e b8 e2 0a 40 91 52 25 be
       0.2049016 0.19053611 2.1700878 -0.16144778
0000d0 e5 d1 ff 3e 45 8a a9 3e fc 4d 56 3e 00 a4 89 bd
       0.49964824 0.33113304 0.20928186 -0.06720734
0000e0 ef 37 ac 3e 56 64 23 3f 3f 36 78 3f a8 b9 07 3d
       0.33636424 0.63824975 0.9695777 0.03313604
0000f0 6d e6 7e 3f 91 73 d7 3e 06 39 c8 be f1 77 f8 3f
       0.9957035 0.42080358 -0.39106005 1.9411603

backbone_lstm2.bias_hh_l0 f4 [64]
000000 96 8c 4c be 6f 25 10 bf 9f 95 2d bf ee b8 be be
       -0.19975504 -0.5630712 -0.6780643 -0.37250465
000010 e6 76 ab be 2c 92 e0 be c6 6c 3d be 9e a2 c5 3c
       -0.3348915 -0.4386152 -0.18498525 0.024125393
000020 00 80 62 bd c9 59 03 bf fb 21 85 be 05 b9 88 be
       -0.05529785 -0.51308876 -0.26002488 -0.2670366
000030 c1 82 16 bf 50 89 3a bf 72 a0 43 bd 20 cd 31 bf
       -0.58793265 -0.7286577 -0.047760434 -0.6945362
000040 dd 25 b3 3e b2 4c f3 3e c3 56 d3 3e 47 c9 be 3e
       0.34989825 0.4751945 0.4127713 0.37262937
000050 69 72 b2 3e 54 79 87 3e 37 c6 1e 3e ea a4 a3 3e
       0.34852913 0.26459754 0.155053 0.31961757
000060 6d 58 e1 3e 75 bc fd 3e ef 43 46 3c 97 0e d0 be
       0.44012776 0.49557844 0.012101158 -0.4063613
000070 ab cf 6f 3e 22 9c 3b 3f 54 a7 01 3f 0e 49 28 3f
       0.23419063 0.73285115 0.5064595 0.6573647
000080 9b e9 9c be d8 c7 11 3e 3d ab 99 be 5e c7 07 3e
       -0.30646977 0.1423639 -0.30013457 0.13259646
000090 17 6f 39 3d 30 0f bc 3e cf c8 51 be 03 07 7c 3e
       0.04527196 0.36730337 -0.20486759 0.2461205
0000a0 2e 59 ee bd 45 d9 54 3e 0c 0f 63 be 66 39 9c 3d
       -0.116381034 0.20786007 -0.22173709 0.076281354
0000b0 c2 23 3d 3e 06 80 5d 3e 03 c8 e2 bd 12 fd 88 be
       0.18470672 0.21630868 -0.110733055 -0.26755577
0000c0 af c3 70 3e aa b3 22 3d 17 01 16 40 a9 bf 0e 3e
       0.23512147 0.039722122 2.3438165 0.139403
0000d0 88 e4 e9 3e f3 50 1d 3f be ba 46 3d c9 b9 01 be
       0.45682168 0.61451644 0.048517935 -0.12668528
0000e0 ce 4c 0f 3e b2 f6 8a 3f f9 ca 83 3f 7f 82 bd 3e
       0.13994142 1.0856535 1.0296317 0.37013623
0000f0 40 32 50 3f 85 f7 d2 3d 1e d4 fc be fd e0 f3 3f
       0.81326675 0.10301117 -0.49380583 1.9053036

fc.weight f4 [1, 16]
000000 71 ab 46 40 9d 48 49 c0 61 01 58 40 5f 42 47 c0
       3.104214 -3.145057 3.3750842 -3.113426
000010 9a 85 4a 40 ef ba 50 c0 7f 04 48 40 2b 1a 4d c0
       3.1644044 -3.2614095 3.1252744 -3.2047222
000020 41 45 44 40 86 49 50 40 2a e0 44 40 a4 2b 50 c0
       3.066727 3.2544875 3.076182 -3.2526636
000030 7e aa 61 40 ae 0f 43 c0 24 8f 41 40 29 60 4f 40
       3.526031 -3.047832 3.0243616 3.2402442
